checkpoints/without_NUE/linear_signals_model_weights2.pth (torch_old, 6261 bytes, 6 tensors)

rnn.weight_ih_l0 f4 [60, 4]
00000000: 2a82 923e 8420 ed3d 6237 ae3e d522 503d
00000010: 531c 2e3e 461f c63e 3d62 eb3e dd83 363e
00000020: 5ffc 103f 8b8a 923e 3ea5 403e cd4c 3bbe
00000030: 24b3 52be 0eb8 04bf 1be1 86bf d594 a4be
00000040: a2f1 ae3e a189 903e 4019 193f 9807 bd3e
00000050: c4a0 dbbe 5b5c d9bb 7953 0ebd 6557 26be
00000060: 78ff bf3d 90ac 9d3d 5170 323e 6e66 523e
00000070: ed5c fa3e 9a92 42be bc21 0b3f 2e08 c33d
00000080: 9c48 5d3e 5cd1 c63e 8282 ea3e 300c 6d3e
00000090: 1525 adbe 1622 bdbe 076f c4be 2c4f 22bf
000000a0: de3f db3e cef2 603e a310 3e3c c586 9c3e
000000b0: f83a 92be 64cc 6d3e 8521 273f 10a1 b8bd
000000c0: 9a8b 0bbf 2231 9c3d 6ee5 1dbf 8f65 ff3d
000000d0: 5119 463c 663c 30bd 49d4 a43d a30f 16be
000000e0: 15e5 aabf ddb3 0f3e 477f f0bd ec42 33bd
000000f0: 4f44 833e 2c21 123e de38 c83d 60ea e43e
00000100: 202e c43e 837e 353e 3fc5 bc3e 20d2 e33e
00000110: 13be 023e 5c0f 1cbe 5fa7 f03c d605 7a3d
00000120: 5593 8ebe c82e fdbe c8d7 55bf 9f97 febe
00000130: 2ff2 403e b2cd 0e3f 5f9a 153e 83fd bc3e
00000140: ba18 15bf b521 f4be 2a5c 98be c8d0 1a3b
00000150: 806e 263e b851 8e3e b5a6 87be 51b2 0dbc
00000160: 52b6 273e 29b4 38be e0cb 9fbc f82e bf3d
00000170: 775d 083f cdd3 873e 1fad f13e c07f 093f
00000180: bcc6 f7be 207b 1ebf 1cc3 2bbf 4922 90be
00000190: e93a c53d 8578 ff3e cf86 e63e 1c4b 073f
000001a0: c719 b6be 5eb5 89be 2c50 f13e dbf5 ccbe
000001b0: 6731 b0be 90d9 61bd 3067 1fbf 9ae7 583e
000001c0: 0e20 e9be e8d0 31bf 31bb a5be cbc5 26bf
000001d0: ee52 acbf 987e a7bc 6c9c 03bf 72ee 8cbe
000001e0: e21d edbe 962d 1ebe 56b7 9ebe c15b 88be
000001f0: 1421 b3be 6049 28be b0fe e5be f78b 6ebe
00000200: f0bf 593f fff6 1e3d 501f 8fbe b057 233d
00000210: b5a0 84be 84a7 1ebe 0fb2 d7bd bdaf 96be
00000220: 9259 debe 3090 cbbd 9e5b 03bf ea3e 86be
00000230: 5400 743e 141d 773d 3bf7 143f 0736 033f
00000240: c01c 483e b3a8 063f 18f1 df3e d242 9b3e
00000250: 2eee d1be 1c43 f8be 0429 dabe 7357 75be
00000260: a5ff ebbe f15c 99bc 2736 72be c600 0bbd
00000270: 0bce 3abd 51a6 67bd 5b70 3c3e 6039 e3bb
00000280: e5f5 c5be 2090 cfbe 7513 acbe 7913 09bf
00000290: 742a 323e deb9 8a3e 2870 0b3f d94a 893d
000002a0: 490b 6a3e 7bb2 b7bd 305d dc3e c657 a1be
000002b0: 62b6 e4be 7cd9 0c3d 5af5 1f3f a606 75be
000002c0: 4346 053f af48 32bf 43e6 c3be 18da fcbe
000002d0: 8f6c 833f e227 95be f6fa 8e3e 1313 283e
000002e0: 98cb 383f df27 8f3d f5ef 04bf 182d 403e
000002f0: 99b3 513f 8d5e 5dbc af7e 243f 24c0 b3be
00000300: 342e c1be a632 2abf 4146 73bf 4f3f 59be
00000310: fe2d 0dbf 7b45 573e 675a b5bf 6dcf 473d
00000320: bf7c b2bf 35fd c6be 7a51 febe e9e1 883d
00000330: 800d 2ebf 14e5 c3be 10c0 8fbe b45a 843e
00000340: 9770 4f3f 0f13 413e 3a56 f63e 487d 933e
00000350: f47c abbf 1dc0 05be bd10 6abd 7134 aa3f
00000360: a79b e3be 8e5b aebe 55fc 37bf 9ad7 18bf
00000370: ae7c a93e 4d5d cdbe ea48 6d3f c565 15bf
00000380: f369 0a3a 5d9d c2be b7e5 653f 2700 14bf
00000390: 44a2 0dbd 7e14 6abe 204f fcbe b573 8c3e
000003a0: 9f6d 053e bea7 653e 8def dd3e 4e1b 0f3e
000003b0: aa1c b1bf 1d60 283d a6ce ddbe 0766 b5bd
0.28614932 0.115784675 0.3402663 0.05081447 0.17002992 0.38695735 0.45973387 0.1782374
0.5663509 0.28621325 0.18813035 -0.18291016 -0.20576149 -0.51843345 -1.0537447 -0.321448
0.34168726 0.28230003 0.59804153 0.36919856 -0.42896092 -0.006633324 -0.034747574 -0.16244276
0.09374899 0.07698929 0.17425658 0.20546886 0.48899022 -0.19001237 0.5434835 0.095230445
0.2160973 0.38831604 0.45802695 0.2314918 -0.33817354 -0.36940068 -0.38365957 -0.63402057
0.42822164 0.21967623 0.011600646 0.3057157 -0.28560615 0.232225 0.6528552 -0.09015095
-0.5450989 0.07626559 -0.61678207 0.12470543 0.012090997 -0.04302635 0.08048303 -0.14654402
-1.335116 0.14033456 -0.11743026 -0.043764994 0.25638053 0.14270467 0.097764716 0.44710064
0.3831644 0.17724042 0.36869237 0.4449625 0.1276782 -0.15240234 0.029376684 0.06104072
-0.2784678 -0.49449754 -0.8353238 -0.49725053 0.18842386 0.55782616 0.14609669 0.36912164
-0.58240855 -0.47681966 -0.29757816 0.0023622978 0.1625309 0.2779672 -0.26494375 -0.008648471
0.16378143 -0.18037476 -0.019506395 0.093351305 0.53267616 0.2652878 0.47202393 0.53710556
-0.4839381 -0.61906624 -0.6709459 -0.28151157 0.09630377 0.49896637 0.45024726 0.5284898
-0.35566542 -0.26896185 0.4713148 -0.40031323 -0.3441269 -0.055139124 -0.62266827 0.21182099
-0.45532268 -0.6945939 -0.32369378 -0.6514556 -1.3462808 -0.020446107 -0.51410556 -0.2752567
-0.4631186 -0.15447077 -0.3099925 -0.26632503 -0.34986174 -0.1643424 -0.44920874 -0.2329558
0.850585 0.038809773 -0.27953577 0.039878547 -0.2590386 -0.1549359 -0.10532009 -0.29430953
-0.43427712 -0.09939611 -0.5131167 -0.26219875 0.2382825 0.060330465 0.58189744 0.51254314
0.19542217 0.52601165 0.43738627 0.30324417 -0.4100203 -0.484887 -0.42609417 -0.2395914
-0.4609348 -0.018721076 -0.2365347 -0.033936284 -0.045606654 -0.056555096 0.18402235 -0.00693433
-0.38664165 -0.40539646 -0.33608595 -0.5354534 0.17399007 0.2709493 0.5446801 0.06703729
0.22855867 -0.08969589 0.43039846 -0.31512278 -0.44670397 0.034387097 0.6248375 -0.23928317
0.52060336 -0.69642156 -0.38261613 -0.49385142 1.0267504 -0.2913199 0.27925843 0.16413526
0.7218566 0.06990027 -0.51928645 0.18767202 0.8191467 -0.013511312 0.64255804 -0.3510753
-0.37730563 -0.66483533 -0.95029074 -0.21215557 -0.55148304 0.21022598 -1.4168214 0.0487818
-1.394432 -0.38865057 -0.49671537 0.06683714 -0.6798935 -0.3826071 -0.2807622 0.2585045
0.81031173 0.18854927 0.4811266 0.2880652 -1.3397508 -0.13061567 -0.05714487 1.3297254
-0.4445469 -0.34054226 -0.71869403 -0.5970398 0.33102936 -0.40110245 0.92689383 -0.58358413
0.000528007 -0.38010684 0.8980364 -0.5781273 -0.034578577 -0.2285938 -0.49279118 0.27432027
0.13030098 0.2242727 0.43346825 0.1397526 -1.3836873 0.041107286 -0.43321723 -0.08857351

rnn.weight_hh_l0 f4 [60, 15]
00000000: 8aef 88be 0325 c0be ca4e e53d 2019 c43d
00000010: 4921 e1be 701e a2be 2334 9b3e f080 55be
00000020: f3a2 b7be 3f80 f33d 4f04 b1bd c180 8f3d
00000030: b7a4 3fbe 60fa 503e 97ce 91be b8b4 0dbf
00000040: d316 a3bd 9a61 283e 945f 14bd 25f8 afbe
00000050: 6c5c 80be 1cd5 fb3e 3479 71be f858 88be
00000060: 1387 da3a b4da 31be 6548 71be a553 8abc
00000070: bb7e 4fbe 1580 343e 2fc8 57be 5e84 7ebe
00000080: fcc2 fdbd 923f 5a3e 923b 53be f5db 98be
00000090: 6e07 713e 1c7c 63be d804 94be 5d6b 0bbf
000000a0: 713e 39be 8282 d93e a814 c73e 2b5c 0fbf
000000b0: d5ea b0bd f2c4 343e fb8e d23e 05e0 90be
000000c0: 3fb1 2e3d ef33 133f 9393 c63d 2e61 4bbe
000000d0: e21b 9d3e d264 0a3f d4cb 263e a574 8ebd
000000e0: 01e7 d8bd f989 973e 8d7f e33e bde0 263e
000000f0: cc1c fbbe 03f5 5abe c668 983d d216 bbbd
00000100: b161 c8be 7f60 c0be 757f fa3e 9143 8ebe
00000110: 7485 08be 95c4 cebc 540e 163e ac2a 6fbe
00000120: 0f5b bcbe e9da a3be 62ce 8dbc 5145 cbbe
00000130: 1c1a 40be e4a9 053f 4f53 ef3c 2774 573e
00000140: 55db 9abd c596 2f3e e496 60be 4a04 bc3e
00000150: 8c92 3abe 0f9e 38bf 8d62 ae3e ae61 cabd
00000160: 8d4d 8a3e 5148 ac3e 887d 87be 19f6 80be
00000170: 2b2b 863e 7b33 44be 12a4 3d3e 99c3 43be
00000180: ebaf 973d 55a0 053e ccae 2fbe df7b 88be
00000190: bca4 99bc 477d 94be 31de 693e 8855 853e
000001a0: 41ef 02be 7493 b63e 88ca 6b3e 8b30 e0be
000001b0: 4251 e8bd bac5 313e aab1 80be 0f82 60be
000001c0: c4a9 3f3d dd6c 99bd 0246 62be c971 703e
000001d0: deb4 fdbe 2bf3 843e 6caa 1bbe 62d6 a6bd
000001e0: 9a5d 0cbf 798d 01bf 6f1a 013f fcd6 7a3e
000001f0: db4c eabe 42f9 ffbc 3ee6 fd3e b78e f3be
00000200: 4b6f 89be f7a5 d7bc b31f 5cbc 7111 e83d
00000210: ac22 a1bd eda7 99be 7608 e2bd f719 023f
00000220: c3a4 1c3f eff5 fd3d 4985 4ebc d114 3c3f
00000230: 2e6d 11be 6872 07bf 576b 943e 97da 0e3f
00000240: 7842 783c 4663 b53e 8f99 10be 6d41 a63d
00000250: 83a0 16be b462 853e 45c9 6abe f201 38be
00000260: 8e42 1b3d 722e 0d3e 7220 16be 8eda f13e
00000270: 3de0 1f3e 8d69 c7be 53bc 13be 1a6c a63e
00000280: 5d22 f4be f40a ea3e a8ad e4be c172 1b3f
00000290: 0166 1bbf 2ce8 213d 8cec 233d acd7 c53d
000002a0: 5fef 8e3d 45a3 143c 1555 b63e 8f3c f43e
000002b0: 258e efbe effc 8cbe c72a c83e e647 6ebe
000002c0: cf03 283e 9334 b4be 97a2 dabe c687 74bc
000002d0: 400e 9a3e 76fb 493b fe5d d9be 354b 0b3e
000002e0: 6322 18be 81d7 87be 78a1 d43e 6ea3 adbd
000002f0: 686c 0bbe 31cf 6abe 5ad2 473e 9d65 d33c
00000300: 11ce 9b3d 0271 323f e226 2abe 1bfe 7e3d
00000310: f951 29be 4143 223e 0123 bc3e 8272 fd3b
00000320: 10e7 fe3e 54a4 453b 8d99 5fbe 07bf 6f3e
00000330: 5e29 193e 4c66 7abe 29e5 6a3e 960d d5be
00000340: 08aa ed3c 9d51 b3be 8ca6 43be d665 87bd
00000350: bdc3 e23e 665e 843d 45b6 82be 4fcc 70bd
00000360: 9ace 41be 19e1 c8be 0c37 9b3c 2c6b 39bd
00000370: 42a1 83be 4fbb 663d bd53 b9bd 4e7c 793e
00000380: 3be9 b03e dc7c e9be 128b ccbe a563 013e
00000390: 1d27 51be 8c06 6ebe 5aef 803e edde c93e
000003a0: 2fa5 a93c 8bac 9cbe 588c bfbd 0698 74be
000003b0: 51e4 5ebe 83cd 323d 533f 86be 2dc0 b1bd
000003c0: 66fa 8dbe 62f9 b8be e4b7 37be beea 03be
000003d0: c48a 41be eb28 0e3e 41e7 933e 912c a5be
000003e0: b27d eabe b039 b7bd 0b14 43be 9b64 53bb
000003f0: 22a6 d0bd 2fd1 4bbe b0c4 7c3e 78e7 4b3e
-0.26745254 -0.37528238 0.111966684 0.09575105 -0.43970707 -0.31663847 0.30313215 -0.20849967
-0.35866508 0.118896954 -0.086434 0.0700698 -0.18715177 0.2040801 -0.28477928 -0.5535388
-0.07963338 0.16443482 -0.036223963 -0.34369007 -0.25070512 0.49186027 -0.23581392 -0.26630378
0.0016672335 -0.17368585 -0.23562773 -0.016885588 -0.20263188 0.17626984 -0.21072458 -0.24855182
-0.12390706 0.21313313 -0.20628193 -0.29855314 0.2353799 -0.22215313 -0.28909945 -0.544607
-0.18090226 0.42482382 0.38882947 -0.5600001 -0.08638541 0.17653254 0.4112471 -0.28295913
0.042649504 0.5750112 0.09696116 -0.1986129 0.30685335 0.5406009 0.16288692 -0.06955842
-0.105909355 0.29597452 0.4443325 0.16296668 -0.49045408 -0.21382527 0.07441859 -0.09135212
-0.39137033 -0.3757362 0.48925367 -0.27785924 -0.13332158 -0.025240222 0.14653903 -0.23356122
-0.36788222 -0.32002953 -0.017310325 -0.39701322 -0.1875996 0.5221236 0.02921453 0.21040402
-0.075613655 0.17147358 -0.2193256 0.36722022 -0.18219966 -0.7211618 0.34059563 -0.09881912
0.27012292 0.33648923 -0.2646296 -0.25187758 0.2620481 -0.19160263 0.18519619 -0.19117583
0.074066006 0.13049443 -0.17156523 -0.26657006 -0.01875531 -0.2900183 0.22838666 0.26041818
-0.1278658 0.35659373 0.23026478 -0.43787035 -0.11343624 0.17360583 -0.25135547 -0.21924613
0.04679276 -0.07491467 -0.22097018 0.23480906 -0.49552053 0.25966772 -0.1520173 -0.08146359
-0.54830325 -0.50606495 0.5043096 0.24496073 -0.4576176 -0.031246785 0.49589723 -0.4756982
-0.26842722 -0.026324255 -0.013435292 0.11331452 -0.07867941 -0.3001093 -0.1103677 0.5082087
0.61188906 0.12400424 -0.01260502 0.73469263 -0.14201805 -0.52908945 0.28988144 0.5580229
0.015152566 0.35427302 -0.14121078 0.08117948 -0.14709668 0.26051867 -0.2292834 -0.17969492
0.03790527 0.13787249 -0.14660814 0.47237056 0.15612884 -0.38947716 -0.14427309 0.3250435
-0.47682467 0.45711482 -0.4466374 0.60721976 -0.6070252 0.039528057 0.04002051 0.09660277
0.0697925 0.00907213 0.35611787 0.47702453 -0.46788135 -0.27536723 0.39095137 -0.23269615
0.16407703 -0.3519636 -0.4270217 -0.014924949 0.30088997 0.0030820048 -0.42454523 0.13602908
-0.14856867 -0.26531604 0.4152944 -0.08478437 -0.13615572 -0.229306 0.19513837 0.025805289
0.076076634 0.69703686 -0.16616395 0.062254053 -0.16535176 0.15845968 0.36745456 0.0077345977
0.49785662 0.0030157762 -0.21835919 0.23412715 0.14957187 -0.24453086 0.2293898 -0.41611928
0.029011741 -0.35023203 -0.19106501 -0.066112205 0.4428996 0.064633176 -0.25529686 -0.058788594
-0.18926468 -0.39234236 0.018947147 -0.045268223 -0.25708967 0.056330975 -0.09049175 0.24363825
0.3455294 -0.45603073 -0.39949852 0.12635668 -0.20425077 -0.23244685 0.2518261 0.3942789
0.020708648 -0.3060039 -0.0935294 -0.23886117 -0.21766783 0.043653022 -0.26220188 -0.08679233
-0.277301 -0.36127764 -0.17941242 -0.12882516 -0.18900591 0.13882796 0.2888737 -0.32260564
-0.45799023 -0.0894655 -0.19050615 -0.003225601 -0.10187937 -0.19904016 0.24684405 0.19912517

rnn.bias_ih_l0 f4 [60]
00000000: caee 6a3e 00cd c93d 34b6 a53e 4f73 0abf
00000010: 873b 123f 434a 1f3e eb4d 6ebd e334 63be
00000020: 2635 183e 2b2f 48bf 069c cb3c acbe 30be
00000030: 2d8f 123e 0ed4 e0bd c695 b63d fd2f 6f3e
00000040: 5a78 7e3d b42c 523d b7a1 59be d28d a63d
00000050: c5bf fdbd d9e3 9d3d 41c8 61be db48 fb3e
00000060: e05d 27bf f903 303e 2e74 19be 5412 71bd
00000070: 3d61 20bf 6027 cbbd 3457 efbe 787a 8abe
00000080: 052b 9a3e ef11 67be d708 91be ed34 e53e
00000090: bc0a 593c cacc 3bbd 61a3 66be fa71 933e
000000a0: a51b 0dbf 11f2 4c3e ddb1 0fbe a61b ecbd
000000b0: cdd3 57be ec25 e73c b58d 32be 672e 003f
000000c0: f873 28be 55f6 33be 2cff 7fbe 5eee 9cbe
000000d0: 639d c6be 41a9 413e 2912 1abf 452d bfbe
000000e0: afd1 34bd 34bf 61be f3d7 c83e cd6f 063e
0.22942653 0.09853554 0.32365572 -0.54082197 0.5712208 0.15555672 -0.058179777 -0.22188143
0.14864025 -0.7819697 0.024854671 -0.17260236 0.1431243 -0.10977946 0.08915286 0.2335815
0.062126495 0.051312163 -0.21253096 0.08132519 -0.12390093 0.07709474 -0.22049047 0.49079022
-0.65377617 0.17189015 -0.14985725 -0.05885537 -0.62648374 -0.099196196 -0.46746218 -0.2704656
0.30110946 -0.22565435 -0.28327057 0.44766942 0.013247188 -0.0458496 -0.22523262 0.28797895
-0.5512031 0.20014216 -0.14032693 -0.11528711 -0.2107689 0.028216325 -0.1743687 0.50070804
-0.16450489 -0.17574437 -0.24999684 -0.3065061 -0.38791952 0.18912221 -0.6018396 -0.37339225
-0.044145282 -0.22045594 0.39227256 0.13128586

rnn.bias_hh_l0 f4 [60]
00000000: 8fa9 d23d 58bd 7e3e edb5 943d a01b f2be
00000010: cea2 e53e c5c3 d33d 1d73 653e 167d e03d
00000020: 3dac 8b3e edd0 b2be fe74 b63e 49d8 843e
00000030: f137 55be a5e8 7e3e 8b6a 403e b170 0f3f
00000040: d7ef ce3e f03e b1bd 1fd5 12bf 3025 f53e
00000050: e800 66be b175 4abe be53 eabe 6e44 ff3e
00000060: 8f1a 95be b114 073f 96d3 b03d 1836 643d
00000070: 358a 8dbe 2c90 55be e818 f2be 7f64 fdbe
00000080: bd6d 2bbe cd5b 0dbf 3cda e9be ce41 8d3e
00000090: 0876 e63e 639f 803d 3f83 eebe 1aa5 19be
000000a0: b23b 41be 0887 ae3e b0c3 4ebe 3155 f3bd
000000b0: dda5 a7be 710e 223e caad 553d 1459 ce3e
000000c0: 1487 cebe 2b7a 863e e206 4abe 274d a9be
000000d0: 23c3 19be 8423 b6bd 8832 40bf 3695 bcbd
000000e0: 8bc5 b5be ea95 1dbe 9b8e de3d dc26 b4bc
0.10286247 0.24876916 0.07261262 -0.472867 0.44850773 0.103400744 0.22407193 0.10961358
0.27279845 -0.34925023 0.35636133 0.25946262 -0.20822121 0.24893434 0.18790643 0.5603133
0.40417358 -0.086545825 -0.57356447 0.47879934 -0.22461283 -0.19771458 -0.45767015 0.49856895
-0.29121825 0.5276595 0.08634107 0.05571565 -0.27644506 -0.20855778 -0.47284627 -0.49490735
-0.1674108 -0.552182 -0.45674312 0.27589267 0.45011926 0.062804006 -0.46584508 -0.15004387
-0.18870428 0.34087396 -0.20191836 -0.11881483 -0.3274373 0.15825821 0.05216769 0.40302336
-0.4033743 0.26265082 -0.19729188 -0.33066675 -0.15015845 -0.08893493 -0.75077105 -0.09208147
-0.35502276 -0.15389219 0.108670436 -0.021991186

fc.weight f4 [4, 15]
00000000: 5b3d 0bbf 7f43 9fbe c604 d83e 8bae 193e
00000010: 93d0 823e 11e1 61bf 43d0 98bd 66fa c7be
00000020: efc9 953e 52f5 a1be c803 a0be 4afa b63d
00000030: 1c7e 2ebe 2f74 54bf 8bdc 653f c8fb a7be
00000040: c12f c2be 3231 5e3e 3a4b 263b aeef c8be
00000050: 4391 923e ecf9 ef3d c34b 87bd 4e37 373e
00000060: 4d34 b1be 40f5 983e 6ef1 9ebd d96b 933e
00000070: 00d7 1a3f ff6a da3d c816 c1be 7667 533c
00000080: 6dd6 7abe 6587 da3e 0447 c03e bcca 81be
00000090: 83ce 4c3e 3857 a3be f195 09bf 5d5f e6bc
000000a0: 9d25 48be d57b 413e bb7f b13d dec0 27be
000000b0: b21d 363e d365 0bbe f2a2 9cbe 19ca 163e
000000c0: 817b e9bd 0e15 06bf 8246 473e c5f7 833e
000000d0: 4fbe 14bd 62e5 f7be 42bb 93bd eeac c83e
000000e0: 4cd2 b5be 95ad 93be c8c1 d0be c817 c5bd
-0.54390496 -0.31106183 0.42191142 0.15007989 0.25549755 -0.8823405 -0.07461598 -0.39058226
0.29255626 -0.31632477 -0.31252885 0.089344576 -0.17040294 -0.8298978 0.89789647 -0.3280928
-0.37927058 0.21698454 0.0025374428 -0.3924536 0.2862645 0.11717591 -0.06606247 0.17892191
-0.34610215 0.2987461 -0.07760893 0.2879322 0.60484314 0.10664939 -0.37712693 0.012903085
-0.2449586 0.42681423 0.3755418 -0.25349987 0.20000653 -0.3190248 -0.5374442 -0.028121645
-0.19545598 0.18894894 0.08666941 -0.16382167 0.17784765 -0.13613062 -0.30593067 0.14725532
-0.114005096 -0.52375877 0.1946049 0.2577497 -0.036314305 -0.48417193 -0.07213451 0.39194435
-0.35512006 -0.2884337 -0.40772843 -0.096236765

fc.bias f4 [4]
00000000: a8df a53e 1456 723e 89d1 9d3d dbb4 d93d
0.323972 0.23665649 0.07705981 0.106301986
