checkpoints/without_NUE/linear_signals_model_weights0.pth (torch_old, 3701 bytes, 6 tensors)

rnn.weight_ih_l0 f4 [40, 4]
0	0x3ce073a6	0.027398895
1	0x3d1b01fa	0.037843682
2	0x3d345df0	0.0440349
3	0x3d1c0606	0.038091682
4	0xbceeb356	-0.029138248
5	0xbcd1d883	-0.025615936
6	0xbcc073ce	-0.02349272
7	0xbcd766dd	-0.026294166
8	0x3e511562	0.20418313
9	0x3e373107	0.17889796
10	0x3e437e69	0.1909119
11	0x3e45c48e	0.19313261
12	0xbd80ffdf	-0.062988035
13	0x3d4c0c84	0.049816623
14	0xbd339da2	-0.043851502
15	0x3d3c62c4	0.045992628
16	0x3d5faada	0.054606296
17	0xbd399d43	-0.045315992
18	0xbceae754	-0.028674759
19	0x3e05c63a	0.13063899
20	0x3dab79cb	0.083728395
21	0x3db599fc	0.08867261
22	0x3d9caecc	0.07650527
23	0x3deb3d90	0.114863515
24	0x3d90a8f1	0.07063473
25	0x3dd07d90	0.10180199
26	0x3db8d6ee	0.090253696
27	0x3df6a90e	0.120439634
28	0xbb1a8bb9	-0.0023581816
29	0x3c8ddd54	0.017317452
30	0x3c91870c	0.01776459
31	0x3b46441a	0.0030252994
32	0x3d9d4e86	0.07680993
33	0x3da651e3	0.081210874
34	0x3e126e28	0.14299834
35	0x3ccc4616	0.024935763
36	0xbc41564d	-0.011800361
37	0xbc7bbdf2	-0.015365111
38	0xbc908421	-0.017641129
39	0xbc9f017e	-0.019409891
40	0xbd870b5d	-0.06593964
41	0xbd84b969	-0.06480677
42	0xbd74810e	-0.05969339
43	0xbd5f08ff	-0.05445194
44	0xbd4f5c7f	-0.05062532
45	0xbd4607ef	-0.04834741
46	0xbd31942c	-0.0433542
47	0xbd3ee427	-0.0466043
48	0xbd9cd77f	-0.0765829
49	0xbd9fba41	-0.07799197
50	0xbd3e0d9b	-0.046399694
51	0xbdfda16f	-0.12384307
52	0xbdb38b7c	-0.08766839
53	0x3c424282	0.011856677
54	0xbd8eb796	-0.0696861
55	0x3c18581d	0.009298352
56	0x3d029488	0.03187993
57	0xbdc8b28f	-0.09799682
58	0xbd996bfc	-0.074912995
59	0x3df41c58	0.11919469
60	0x3e160704	0.14651114
61	0x3e20d12f	0.15704797
62	0x3e03e6c6	0.12881002
63	0x3e519938	0.20468605
64	0x3ce73e68	0.028228
65	0x3d1f7814	0.038932875
66	0x3d9e82eb	0.07739814
67	0x3d0a281a	0.03372965
68	0xbc7e2d0c	-0.01551367
69	0xbbd08062	-0.0063629607
70	0xbbb86559	-0.005627316
71	0xbc266393	-0.010155576
72	0xbd510148	-0.051026613
73	0xbd68b320	-0.056811452
74	0xbb4281d6	-0.002967944
75	0xbdc8ebdf	-0.09810614
76	0xbc0e43b3	-0.008683133
77	0xbc39f7df	-0.011350601
78	0xbc6229df	-0.013803928
79	0xbc7223c2	-0.014779033
80	0x3dc42cb6	0.095788404
81	0xbcba261c	-0.02272325
82	0x3e0439b5	0.12912638
83	0xbf002251	-0.5005236
84	0xbd295fa9	-0.041350994
85	0x3d15b222	0.036546834
86	0xbd9a39d3	-0.0753056
87	0xbe8284a9	-0.25491837
88	0x3f1acf81	0.60472876
89	0xbd534172	-0.051576085
90	0xbf807d35	-1.003821
91	0xbdd0d312	-0.101965085
92	0xbd5591a4	-0.052140847
93	0x3e2dcfb5	0.16973765
94	0xbd06d94e	-0.03292208
95	0x3e2cb1e5	0.16864736
96	0xbe1493bc	-0.14509481
97	0x3d03bf11	0.032164637
98	0x3c400592	0.011720078
99	0xbe8617d0	-0.26190042
100	0x3e149409	0.14509596
101	0x3e1c6076	0.15271172
102	0x3e085250	0.1331265
103	0x3e4019ef	0.18759893
104	0xbddcefbe	-0.10787915
105	0xbe3ece3d	-0.18633361
106	0xbd9b4549	-0.075815745
107	0xbd0441cb	-0.032289308
108	0x3d4a7b33	0.0494339
109	0x3e0640f7	0.1311072
110	0x3e954acd	0.2915863
111	0xbe432096	-0.190554
112	0xbd50be74	-0.05096288
113	0xbc7dccd8	-0.015490733
114	0xbf005633	-0.5013153
115	0x3ed7f170	0.4217639
116	0x3c85c9c6	0.016331565
117	0x3ca0f43a	0.019647706
118	0x3d311ae0	0.04323852
119	0x3cd4c5fd	0.025973314
120	0x3cdfcf88	0.027320638
121	0x3d23a34a	0.039950646
122	0x3d3abe75	0.04559179
123	0x3d2e8087	0.042603042
124	0xbcd2b19c	-0.025719456
125	0xbca87a5e	-0.020566162
126	0xbc8c3fcb	-0.017120263
127	0xbcc13248	-0.023583546
128	0x3e80565d	0.2506589
129	0x3e52f4ec	0.20601243
130	0x3e4ffdb4	0.20311624
131	0x3e544da6	0.20732746
132	0xbd9204ac	-0.07129797
133	0x3d988d43	0.074488185
134	0xbe1ea07b	-0.15490906
135	0x3e0127e6	0.12612876
136	0xbde10d69	-0.10988886
137	0xbe96ebd2	-0.29476792
138	0xbe34efb0	-0.17669559
139	0x3ef33575	0.47501722
140	0x3cc3234d	0.023820544
141	0x3d2c683c	0.042091593
142	0xbdc74dd6	-0.09731643
143	0x3f37275c	0.7154443
144	0x3db979db	0.09056445
145	0x3df74d33	0.120752715
146	0x3dfc8dae	0.12331711
147	0x3dfb9901	0.122850426
148	0xbb892148	-0.0041848756
149	0x3c8d4b86	0.017247926
150	0x3c77cf5c	0.015125122
151	0x3c3c804f	0.0115052005
152	0x3d9b6a8e	0.07588683
153	0x3dae24d6	0.0850312
154	0x3e802964	0.2503158
155	0xbd9825e7	-0.07429104
156	0xbc0a1733	-0.008428383
157	0xbc9dcbe6	-0.019262265
158	0xbcb1a067	-0.021682931
159	0xbc8e7a6e	-0.017392363

rnn.weight_hh_l0 f4 [40, 10]
0	0xbc4a4773	-0.012346136
1	0xbc3e7702	-0.011625053
2	0xbc17a03a	-0.00925451
3	0x3b649643	0.0034879602
4	0xbc88821c	-0.016663603
5	0x3d4aae72	0.04948277
6	0x3cd39e03	0.025832182
7	0xbbbb09c1	-0.00570795
8	0x3c816ed1	0.015799912
9	0xbbcd4e07	-0.006265405
10	0xbbdfdcb5	-0.0068317303
11	0xbc1267de	-0.008935897
12	0x3b42a181	0.0029698315
13	0xbc80174b	-0.015636107
14	0x3c992bf8	0.018697724
15	0xbcc91baa	-0.024549324
16	0x3be00e77	0.006837662
17	0xbab46550	-0.0013763104
18	0x3c0aed9b	0.008479501
19	0x3a0e58a5	0.0005430079
20	0x3c772ea4	0.015086804
21	0x3d39707c	0.04527329
22	0x3c67cbc3	0.014147702
23	0x3d86eaa5	0.06587724
24	0xbdcc3947	-0.09971862
25	0x3e7b51fc	0.24542993
26	0xbd254e6e	-0.040358
27	0x3c3eac25	0.011637722
28	0xbcaf3fda	-0.021392751
29	0x3d20c144	0.039246812
30	0x3b4c3285	0.0031158042
31	0x3b9eacbd	0.0048423694
32	0xbd107711	-0.0352698
33	0xbc86abb2	-0.016439293
34	0x3c68596a	0.014181474
35	0xbd08b808	-0.03337863
36	0x3cd866eb	0.026416263
37	0xbb2ad8d7	-0.0026069188
38	0xbbbb1d07	-0.0057102474
39	0xbc65bd2c	-0.014022153
40	0x3d1381de	0.036012523
41	0x3d0cdde0	0.034391284
42	0x3d685492	0.056721278
43	0x3b383c0f	0.002811197
44	0x3c178a16	0.009249231
45	0x3cb244d8	0.021761343
46	0xbbe8bb19	-0.007102382
47	0x3c089422	0.008336099
48	0xbc32ab9d	-0.010905174
49	0x3cb09c6a	0.021558959
50	0x3d1220e2	0.03567589
51	0x3d3c786b	0.046013277
52	0x3c12be1e	0.00895646
53	0x3cde5ae1	0.027142944
54	0xbd25d19c	-0.040483102
55	0x3dcfba46	0.10142951
56	0x3c7031b2	0.014660286
57	0xbbb83227	-0.005621213
58	0xbc811680	-0.0157578
59	0x3c3be530	0.011468217
60	0x3cb05723	0.021525925
61	0x3d426f22	0.047469266
62	0xbce35be3	-0.027753776
63	0x3d22f965	0.039788622
64	0xbd31eb6c	-0.043437406
65	0x3de7f0ae	0.11325203
66	0xbd4bedf5	-0.04978748
67	0x3c6a571c	0.014302995
68	0xbd1f5540	-0.03889966
69	0x3c9af659	0.018916296
70	0x3c5d5e78	0.013511293
71	0x3c288398	0.010285281
72	0xbc69ff6e	-0.014282091
73	0x3a348c68	0.0006887377
74	0x39683fe3	0.00022149044
75	0x3c26851e	0.010163574
76	0xbc123395	-0.008923431
77	0x3a92ca53	0.0011199213
78	0x39847f34	0.00025271776
79	0x3c0aa1da	0.00846144
80	0x3bb5b05a	0.0055447044
81	0x3c519ca3	0.012793693
82	0xbd0b3582	-0.033986576
83	0x3ce7dab8	0.028302535
84	0xbd230176	-0.039796315
85	0x3db3d9df	0.0878179
86	0xbc999bbb	-0.018751016
87	0xbad7a0f7	-0.001645117
88	0xbaf29dcc	-0.0018510162
89	0x3cbca53e	0.023028012
90	0x3b240712	0.0025028628
91	0x3ac0b026	0.0014700934
92	0x3b22452c	0.0024760468
93	0xbb15418a	-0.002277466
94	0x3bc67d2f	0.0060574035
95	0xbcb53243	-0.022118693
96	0x3aeeb393	0.0018211476
97	0xba346b98	-0.0006882488
98	0xba9a4fcb	-0.0011773048
99	0x3ad2fb00	0.0016096532
100	0xbcafc581	-0.021456482
101	0xbce773b4	-0.028253414
102	0xbc6473b3	-0.0139436005
103	0xbd1fde9b	-0.039030652
104	0x3d22988e	0.03969627
105	0xbd90f7a8	-0.07078487
106	0x3cc87a69	0.024472432
107	0xbbb6789b	-0.0055685765
108	0x3d0e2511	0.034703318
109	0xbcaf5716	-0.02140383
110	0xbc397c4f	-0.011321141
111	0xbc35e8e2	-0.011102887
112	0x3c0eac40	0.00870806
113	0xbcc25a46	-0.023724686
114	0x3cedb106	0.029015075
115	0xbd444846	-0.047920488
116	0x3c0413cf	0.008061363
117	0xbade7ba4	-0.0016974104
118	0x3c428a32	0.011873769
119	0xbaf2acb9	-0.001851461
120	0x3caeb340	0.021325707
121	0x3d72679c	0.05918084
122	0xbd86a3d7	-0.06574219
123	0xbce63066	-0.02809925
124	0x3d3a47df	0.045478698
125	0xbdcbf2be	-0.09958409
126	0xbcbebef1	-0.023284407
127	0x3baf2a13	0.005345592
128	0x3c79c8c0	0.015245616
129	0x3d492ab5	0.049112994
130	0x3b469168	0.0030299071
131	0x3bc81fd7	0.006107311
132	0xbcda723b	-0.026665797
133	0xbcbffb9d	-0.023435408
134	0x3ce17ed2	0.027526293
135	0xbd7f62b0	-0.062349975
136	0x3cbc9b71	0.023023339
137	0xbb03b255	-0.0020095308
138	0xbaa6cc7e	-0.0012725738
139	0xbc4c9a69	-0.012487986
140	0x3d1e69ee	0.03867524
141	0x3cfab35b	0.030603101
142	0x3d9448d2	0.07240452
143	0xbc5635f9	-0.0130743915
144	0x3d0beddb	0.034162384
145	0xbc3722c8	-0.011177726
146	0xbbb8004a	-0.005615269
147	0x3c482cd6	0.012217721
148	0xbbd1b1eb	-0.0063993833
149	0x3ca2c4e3	0.019869274
150	0x3d19bd47	0.037534025
151	0x3d0d214b	0.03445558
152	0x3c68b4a9	0.014203229
153	0x3d2dfe22	0.042478688
154	0xbd8a32dc	-0.06747982
155	0x3e367a53	0.178201
156	0x3c10e6ed	0.0088441195
157	0x3b3c5b5a	0.0028740973
158	0xbd002886	-0.031288646
159	0x3c188057	0.009307942
160	0x3ca77bac	0.020444714
161	0x3cdf7081	0.027275326
162	0xbd91b7c5	-0.071151294
163	0x3c91f431	0.017816635
164	0xbcb0357f	-0.021509884
165	0x3d2fcc49	0.04291943
166	0xbc9ca4a1	-0.01912147
167	0x3ceeef42	0.029166821
168	0xbd061dfe	-0.032743447
169	0x3ca358a1	0.019939722
170	0x3b31e00f	0.0027141606
171	0x3a35b224	0.0006931147
172	0xbc2a2832	-0.01038556
173	0xba891e02	-0.0010461214
174	0x3b93dcca	0.004512404
175	0xbc755ab1	-0.014975236
176	0xbc2aa712	-0.010415809
177	0x3b0fb4f7	0.0021927932
178	0xbb28c5f8	-0.0025752764
179	0xb9bab700	-0.0003561303
180	0xbc8a7648	-0.016902104
181	0xbc20339b	-0.009777929
182	0xbc8077be	-0.015682098
183	0xbc857adc	-0.016293935
184	0x3cca21be	0.024674293
185	0xbd97aec2	-0.07406379
186	0xbc27c80d	-0.010240567
187	0x38024a80	3.10638e-05
188	0x3c4d2a82	0.012522342
189	0x3c59d62b	0.0132956905
190	0x3b28e84d	0.0025773228
191	0x3a9add28	0.0011815177
192	0x3b1d4da0	0.0024002567
193	0x391634de	0.0001432481
194	0x3b4df74c	0.0031427918
195	0xbc8f9962	-0.017529193
196	0x39c9eeab	0.0003851553
197	0xba319fbd	-0.0006775817
198	0xba847ba0	-0.0010107644
199	0x3b0b85bd	0.002128943
200	0xbe21a1bd	-0.15784355
201	0xbdba4317	-0.090948276
202	0x3dbf51d7	0.093417816
203	0x3d1d007e	0.038330548
204	0xbd954a29	-0.072895356
205	0x3d71cb4f	0.05903178
206	0xbbc2b362	-0.0059417943
207	0xbd5f7b89	-0.05456117
208	0x3d99b32a	0.07504876
209	0xbb46f3a6	-0.0030357628
210	0xbd12f428	-0.035877377
211	0xbd8993d1	-0.06717647
212	0x3d567ffc	0.05236815
213	0x3b7aff16	0.0038299016
214	0xbd324b0c	-0.0435286
215	0x3d3c04be	0.04590296
216	0x3daa5ac6	0.08318095
217	0xbc9e7be4	-0.019346185
218	0x3bc82c34	0.006108785
219	0xbd052d12	-0.032513686
220	0xbe55c324	-0.20875221
221	0xbe043bbd	-0.12913413
222	0xbf0603dd	-0.52349645
223	0x3e8061cc	0.25074613
224	0x3e3a9048	0.18219101
225	0x3e8116ec	0.252128
226	0xbf2a287b	-0.6646802
227	0x3e3fdc1c	0.18736309
228	0xbe0ed70a	-0.13949218
229	0x3d2f63ce	0.04281979
230	0x3d22ef4b	0.03977899
231	0x3c4a5cf3	0.012351262
232	0xbe2d2949	-0.1691028
233	0xbd22487a	-0.0396199
234	0x3bfe427b	0.00775939
235	0x3d1bc248	0.038027078
236	0x3d5ac975	0.05341478
237	0x3c0c28b5	0.008554627
238	0xbd08c6ec	-0.03339283
239	0xbca6d158	-0.020363495
240	0xbd93f452	-0.07224335
241	0xbd43c5de	-0.047796123
242	0xbe2eed1f	-0.17082642
243	0xbcd28168	-0.025696471
244	0x3bdf76f7	0.0068196016
245	0xbdce8409	-0.100837775
246	0x3cfa4be3	0.030553764
247	0xbcc5bcf0	-0.024137944
248	0x3ccad9a8	0.02476199
249	0xbcb21ecc	-0.0217432
250	0x3d0f6564	0.035008803
251	0x3d3a8f6c	0.045546934
252	0x3c44f0ab	0.01202027
253	0x3d3f55dd	0.046712745
254	0xbd8edee1	-0.069761045
255	0x3e360d6b	0.17778556

rnn.bias_ih_l0 f4 [40]
0	0x3dad893c	0.08473441
1	0xbce26824	-0.027637549
2	0x3ed384ba	0.413122
3	0xbb530842	-0.0032200967
4	0x3d922e0e	0.071376905
5	0x3e42018c	0.18945903
6	0x3e3cdc5d	0.18443437
7	0x3c942221	0.01808268
8	0x3db5d8fc	0.08879277
9	0xbd1e47d8	-0.038642734
10	0xbdeb6e04	-0.11495593
11	0xbd7ba07f	-0.061432358
12	0xbe2558b8	-0.16147125
13	0xbdaeca5a	-0.08534689
14	0x3cde3678	0.027125582
15	0x3eaf8751	0.34282926
16	0x3d759e20	0.059965253
17	0xbd0a438d	-0.033755828
18	0xbe12e3c6	-0.14344701
19	0xbd0cf54a	-0.034413613
20	0xbd4b0a2f	-0.04957026
21	0x3d9ea1c8	0.07745701
22	0x3de4efad	0.11178527
23	0x3e0d945f	0.1382613
24	0xbe6f25a6	-0.23354205
25	0x3ea4595e	0.32099432
26	0x3d0f0bcd	0.034923363
27	0xbdb32cbb	-0.08748766
28	0xbc569999	-0.013098144
29	0x3c33bed2	0.010970788
30	0x3dad4d25	0.0846198
31	0xbccf8518	-0.025332019
32	0x3ef0d551	0.47037748
33	0xbdb94476	-0.09046261
34	0xbe5e65c8	-0.21718514
35	0x3e147154	0.14496356
36	0x3e58c1ea	0.21167722
37	0x3b790283	0.0037995882
38	0xbb4b3ccf	-0.0031011587
39	0xbd1ea43f	-0.038730856

rnn.bias_hh_l0 f4 [40]
0	0x3dad893b	0.0847344
1	0xbce27bbf	-0.027646897
2	0x3ed3d242	0.4137135
3	0xbbe9d2f6	-0.007135744
4	0x3d9143b0	0.070929885
5	0x3e42ab69	0.190107
6	0x3e3ba4d5	0.18324597
7	0x3c95dc22	0.018293444
8	0x3ddcb777	0.10777181
9	0xbd1e47d6	-0.038642727
10	0xbdeb6e06	-0.11495595
11	0xbd7baa66	-0.0614418
12	0xbe25c0cf	-0.16186832
13	0xbd79b8e8	-0.060967356
14	0x3d519648	0.05116871
15	0x3ea3914a	0.31946784
16	0x3d773f2a	0.060362972
17	0xbd0915ca	-0.033468045
18	0xbe15eed3	-0.14641885
19	0xbd0cf54c	-0.03441362
20	0x3e06067f	0.13088416
21	0x3d6d5b29	0.057948265
22	0xbc15f820	-0.009153396
23	0x3e40ff0a	0.1884729
24	0xbe734367	-0.2375618
25	0x3ea80994	0.32819808
26	0x3dd12fe0	0.102142096
27	0xbdadd020	-0.08486962
28	0x3d863d21	0.06554628
29	0xbb047b40	-0.0020215064
30	0x3dad4d25	0.0846198
31	0xbccf7d24	-0.025328226
32	0x3ef0ae19	0.47007826
33	0xbcbbed74	-0.022940375
34	0xbdfac0a6	-0.12243776
35	0x3d986b08	0.074422896
36	0x3e595b0a	0.21226135
37	0x3c263a17	0.010145686
38	0x3d77c59f	0.0604912
39	0xbd1ea40a	-0.03873066

fc.weight f4 [4, 10]
0	0xbcc22a8c	-0.023701929
1	0xbcbbdb9d	-0.022931868
2	0x3f1c2629	0.6099573
3	0x3ea6b9d7	0.3256366
4	0x3d72897a	0.05921314
5	0x3ec3a889	0.3821452
6	0xbeee93e6	-0.46597213
7	0x3c9dc3a1	0.019258322
8	0xbc500b5b	-0.01269802
9	0x3c28dd11	0.010306613
10	0x3d1e4883	0.03864337
11	0xbb27de85	-0.002561481
12	0xbf0f5741	-0.55992514
13	0x3e83dcbb	0.2575434
14	0x3e51b187	0.20477878
15	0x3e63fe0f	0.22264884
16	0xbd306912	-0.043068953
17	0x3d9dd987	0.07707506
18	0xbe4e3519	-0.20137443
19	0xbd1932e2	-0.03740204
20	0xbde286ce	-0.11060868
21	0xbd33f953	-0.043938946
22	0xbf3933f1	-0.7234488
23	0x3d73f007	0.05955508
24	0xbec4bc02	-0.3842469
25	0x3edd6f73	0.43249092
26	0x3e8e1980	0.2775383
27	0xbc07b9cd	-0.008284044
28	0xbe00e86b	-0.1258866
29	0x3cada740	0.021197915
30	0xbea48538	-0.32132888
31	0xbd118d35	-0.035535056
32	0x3e8ebb63	0.2787734
33	0x3e859595	0.26090685
34	0xbec847d3	-0.39117298
35	0x3eeb6c05	0.4598085
36	0x3e1bf0cc	0.15228575
37	0xbe86ddcb	-0.2634109
38	0x3f203839	0.6258579
39	0xbc34695e	-0.01101145

fc.bias f4 [4]
0	0x3e51ec6e	0.20500347
1	0x3eaecbc6	0.34139842
2	0x3dd9f504	0.10642436
3	0x3e195013	0.14971952
