checkpoints/without_NUE/linear_signals_model_weights4.pth (torch_old, 3701 bytes, 6 tensors)

rnn.weight_ih_l0 f4 [40, 4]
00000000: a33e 1fbe 12e6 de3d 0a3f 323d 7dcc 643d
00000010: c1ba af3a d603 733d 7887 473d e7a2 193d
00000020: 407d 723e 51b1 933c 9ccb 353e 319a 8a3d
00000030: b9f4 103e 505f 323e 0173 393e a806 643e
00000040: 103d fa3d bfdc 113e d7f4 173e c37f 333e
00000050: c43f 703e 5346 d7bd 8350 123e 2a5f 133e
00000060: 38f2 d63d b46c 883d 63d9 fd3c 8bd6 713d
00000070: 11a0 c43e 99ae d13b 3c30 a63e aeab 7f3d
00000080: 0b1b 7f3e 8fca f83c b1ef 033e 90ee 533d
00000090: c083 1a3d c966 8d3d c81e 843d ac33 363d
000000a0: 9e97 3fbe 0b26 463e 5ac3 e03d af44 283e
000000b0: 1365 9e3d fcf8 9a3d 4d30 4d3d b905 093e
000000c0: 096b 9c3e 5224 853b 6a46 1d3c 50b6 b6bc
000000d0: 1723 be3c 5f30 ea3c 1efc af3d c082 5bbb
000000e0: 32d2 65bc 581f 5fbd 0fd6 fcbc 8ddd 23bd
000000f0: c6f1 8e3d c446 d7bd a620 89bd 57b6 163d
00000100: fa1f 2d3e 7139 b13d 0764 f43c 8c9e 013e
00000110: fadd 8f3e e08f 0fbc 526b df3d 41b4 723e
00000120: f5d5 af3e 95a7 673d cfe8 a53d 88d1 d03d
00000130: 9d05 a0bc 3fc5 003d 807c 8dbd c3b1 cebd
00000140: afc1 26be 7356 403e aabb c93d 2cce 313c
00000150: 4edb b53d 7302 eb3d 36d8 263e 2b70 d63d
00000160: b503 aebe 0e61 833e a30c 80bd 90d6 6f3e
00000170: bb2d d9be ca91 22be 9061 433d b233 c4b8
00000180: 51da 0f3d 4d0a 9c3e 83de a03d 28cd 11bf
00000190: cd3c be3e db90 ed3b da89 9ebc 876a 4a3d
000001a0: d56f 53be a8e7 1cbe cb61 a6bd c341 08be
000001b0: 6d7b e0be b1d9 9b3d 05f0 0bbe 57c2 17be
000001c0: ee27 ccbe 8d7a 20be e566 a2bd 81bd e2bd
000001d0: 0e6e b43d fba5 e23e b603 81bd 33cd 2dbe
000001e0: 3f39 2abf 79d9 093e 3096 ab3d 16b5 b63d
000001f0: e0b5 dbbe 6d16 f9bc 0805 50be 8c53 b4bd
00000200: efe8 ae3e f7d6 e53d c2d2 f53d 0ec0 f63d
00000210: 0003 1a3e 17fd 2b3e d5fb 4b3e 0dcf 4b3e
00000220: ec73 123e c6b1 173e 79c1 0e3e 864c 543e
00000230: 910b d03e e3d6 38be 6c12 1d3e 29ab 883e
00000240: 6b7c 093f 1798 45be 4417 bb3e 8a3a 813e
00000250: 9941 3f3f 7989 bebd 62e4 813e 0c17 3d3d
00000260: 0cda 453f 5a66 243d 9635 e73d de24 fa3d
00000270: 469e b9bc 772a cb3d 8178 3d3d 81e7 ed3c
-0.15551238 0.10883726 0.04351715 0.055859078 0.0013407097 0.05932983 0.048713177 0.03750887
0.23680592 0.018028887 0.17753452 0.06767691 0.14155854 0.17419171 0.18110277 0.22268164
0.12218678 0.14244364 0.14839493 0.17529206 0.23461825 -0.1051146 0.14288525 0.14391771
0.10495418 0.066613585 0.030987447 0.059042495 0.3840337 0.0063989875 0.32458675 0.062419586
0.2491266 0.030370025 0.12884404 0.051741183 0.037723303 0.0690437 0.064511836 0.044482872
-0.18710181 0.1935045 0.1097476 0.1643245 0.07734122 0.07567021 0.05009489 0.1338109
0.3055041 0.0040631676 0.009599308 -0.02230373 0.023210092 0.028587518 0.085930094 -0.003349468
-0.014027165 -0.05447325 -0.03086379 -0.04000621 0.069797084 -0.10511544 -0.0669568 0.036794987
0.1690673 0.08653534 0.029832853 0.12658137 0.28099042 -0.00876233 0.109091416 0.23701574
0.34342924 0.056556303 0.08101045 0.10196215 -0.019533927 0.03143811 -0.06908512 -0.10092499
-0.16284822 0.18782978 0.09850247 0.010852378 0.0887972 0.114750765 0.16293415 0.10470613
-0.33987203 0.25659984 -0.0625241 0.23421693 -0.42417702 -0.15875927 0.047700465 -9.355637e-05
0.035120312 0.3047661 0.07854941 -0.5695367 0.37155762 0.007249934 -0.019352842 0.049418
-0.2064813 -0.15322745 -0.08124121 -0.13306336 -0.43844166 0.07609881 -0.13665779 -0.14820229
-0.39874214 -0.1567175 -0.07929782 -0.11071301 0.08810054 0.44267258 -0.06299536 -0.16972809
-0.664936 0.13461865 0.08378255 0.08921258 -0.42912197 -0.030406201 -0.2031442 -0.08804998
0.3416209 0.11222642 0.120030895 0.1204835 0.15040207 0.16795765 0.19920285 0.19903202
0.14302033 0.14813909 0.13940991 0.20732316 0.40633824 -0.18050723 0.15339059 0.26693085
0.5370547 -0.19296299 0.36541188 0.25239974 0.7470947 -0.093035646 0.25369555 0.046164557
0.7728584 0.040136673 0.112895176 0.12214063 -0.022658478 0.09920209 0.0462575 0.029041054

rnn.weight_hh_l0 f4 [40, 10]
00000000: 3ca2 423d 3c80 8d3d ea25 1fbd c846 31bc
00000010: 29b1 d0bb 1d93 133d 565d cfbc 1ebf 6abd
00000020: 591d b2bc 7085 1ebc 551a 083d 421a 113d
00000030: 6f0b c1bc ea84 5dbc c535 233b ff6a e43c
00000040: 79e3 65bd 0228 36bd 482c 76bd de25 a43b
00000050: 816a 9b3d 9611 d53d a728 1fbd 713b 263c
00000060: 9dc7 dabc 9bb0 4a3d fe00 23be 636d a4bd
00000070: 4a89 bdbd b3cd 9d3c bbc5 1a3e 0928 183e
00000080: 804c 91bd 7669 31bc 637b 0ab7 fad2 bb3d
00000090: 58dd 20be 1da8 ddbd 4d88 32be e67c 2b3d
000000a0: 96bf 003e c4ee f53d 1b19 35bd 38bb 8ab9
000000b0: 1434 2c3c ccaf 803d 089e 0ebe 0fa8 99bd
000000c0: 2fb7 f0bd db05 253d d4db aa3d b674 3039
000000d0: 2928 cc3c 8e8c fb3c 193e 8f3c 2d7f 263c
000000e0: 05a8 91bc e91e 3e3d 9588 9e3c 1125 2f3d
000000f0: 79fe 653d 943c 523d 4886 553b a97e ac3c
00000100: 46bb f23b 8f91 673c 2be9 20bd aa1a c9bb
00000110: 9c97 06bd 1599 d13c ccea 3f3e 45ab 0b3e
00000120: 7704 a7bd b0e8 6b3d e474 f1bc 28f6 553d
00000130: 0d1d 8fbe 9ec3 0a3d 4cb6 0d3d 2517 713d
00000140: 6bf1 e53c 8fd3 523d f3c2 a6bc 8c6f b23c
00000150: e607 a83a 4e09 e93c be88 15be b815 85bc
00000160: 11d1 27bc bd3b f63c a7d1 3d3d 5272 5f3d
00000170: 0db3 19bd e435 91bc a240 0b3b d0c1 1f3d
00000180: 4152 a6bd bdea 68bd 0009 90bd 4922 0a3c
00000190: 9422 a03d c0fa 463c 8be7 7bbd e4cb 99bc
000001a0: e046 abba 646a 413d d0c1 62bd 0e9a e1bd
000001b0: 6190 cc3b 1988 9abc f496 2d3d ed88 963d
000001c0: e84f e3bc cdb3 d6bc 20e6 123c 5d13 8b3d
000001d0: 68c5 d2bd a0d0 cbbd 73f0 07be e485 4e3c
000001e0: e6a7 20bd d5af 6fbc 933e 32bc d631 913c
000001f0: d1d2 a6bc a78f 02bd b7eb 86bd 6b90 393d
00000200: 22e4 29bd e511 f4b9 e7d9 353d 1f57 943d
00000210: 9a87 48bc 88cc e5bb 7b71 213c a402 d63c
00000220: f25b 77bd 61e2 5fbd 4e63 b8b8 cf0c 2a3c
00000230: 2bdb 2abd ad54 28bd 8004 f63c 7467 9cbb
00000240: 5f0c 053d b58a 15bd 1200 b23d ee60 4c3d
00000250: a994 463d 859e 053c 2557 cb3b b90d 2a3d
00000260: 91e1 3a3d 6483 343d 95a0 e13c a8f7 84bd
00000270: 3721 813d fb48 553d 837d 1f3d a683 dd3c
00000280: f8d6 b33d 7ab5 ce3d 5a6c 583b 671d 1c3d
00000290: dd4e 813c 466f a43c 5f5c a0bd 57fb 6abc
000002a0: 3989 86bd 4d46 413d 26d7 40bc 6a28 33be
000002b0: 6074 0a3e 17ac ec3d 4ca5 883c a80c 90bd
000002c0: 2d73 ed3d 0740 b9bc ccb5 b1bd dde2 ef3c
000002d0: e913 073d bdb2 293c 496c 37bd ec24 293d
000002e0: 138e e93b 6dc7 a3bc db71 7b3d da9e d1bd
000002f0: 719e b43d 52d8 ee3c 11be 31bd 6f9f e2bc
00000300: 2095 aabc 9678 f5bc 9ec8 6a3c b26d 92bb
00000310: 1b7c 8fbc d918 bd3b b629 e0bb 569b 59bb
00000320: d582 38bc 2c7a 0b3e d01f 67bc eb09 f5bc
00000330: c97d 823c 27ae 283e 79b5 1fbe d01c 81bd
00000340: 3584 4cbe 9f3c 4fbc fe27 a03d fce6 b93d
00000350: a0c5 1abd 9ff6 ebbc a84c 173c fb41 8e3d
00000360: 7436 08be f6d2 37bd a072 91bd 0c9f 853c
00000370: 9e28 1c3e a76f 4abe e1f0 5c3d a710 11be
00000380: aec1 ad3e 5357 4fbd c6ff 5abd 10aa 883e
00000390: 13a7 62bd 2493 63bd c8e6 a03c 6d76 123e
000003a0: f895 88bd c730 893c 656b 243e 74a6 5ebe
000003b0: 4f11 853e b2de 9d3e b862 1d3e a5ea 043e
000003c0: 6424 86be 089f 5ebe 7a73 dabc 8124 dbbe
000003d0: 6a2a 9cbe 0449 0c3e 024f 6cbe 297f 7cbe
000003e0: 22b3 c2be e3ad 61be 8e51 693e 6d98 303e
000003f0: 5aed b93d b20a 493e aa33 75bc 49a4 71bd
0.047518 0.069092244 -0.038854517 -0.010820098 -0.0063687754 0.03602897 -0.02531306 -0.05731117
-0.02174251 -0.009675369 0.033228237 0.035425432 -0.023565022 -0.013520459 0.0024903875 0.027883051
-0.056125138 -0.04447175 -0.060100824 0.005009397 0.075886734 0.10403745 -0.03885713 0.010146008
-0.026706511 0.04948483 -0.15918347 -0.08028676 -0.092547014 0.019263124 0.1511449 0.14859022
-0.07094669 -0.0108283665 -8.254169e-06 0.091711 -0.15709436 -0.10823081 -0.17434807 0.04186716
0.12573084 0.120084316 -0.044213396 -0.000264609 0.010510463 0.062835306 -0.13927472 -0.07502758
-0.117536895 0.040288787 0.0834271 0.00016828146 0.024921494 0.03070667 0.017485665 0.010162157
-0.017780313 0.046416197 0.019352237 0.04275996 0.056150887 0.051327303 0.0032581259 0.02105649
0.0074075786 0.014133825 -0.039284866 -0.006137212 -0.03285943 0.02558569 0.18741912 0.13639553
-0.081551485 0.057594955 -0.029474683 0.052236706 -0.2795185 0.03387796 0.03459768 0.058859963
0.028069219 0.05147129 -0.02035663 0.021781705 0.0012819737 0.02844682 -0.14602944 -0.016245708
-0.010242716 0.030057782 0.04634252 0.054552384 -0.03752427 -0.017725892 0.002124824 0.039003193
-0.081211574 -0.05686449 -0.070329666 0.008431026 0.07819095 0.012144744 -0.061500113 -0.01877398
-0.0013067387 0.047220603 -0.055360615 -0.11015712 0.0062427972 -0.018863725 0.04238029 0.07350335
-0.027748063 -0.026208783 0.008965999 0.06790803 -0.102915585 -0.099519014 -0.13275318 0.012605164
-0.03922262 -0.014629324 -0.010879177 0.017723959 -0.020364197 -0.03187528 -0.06587928 0.045303743
-0.04147733 -0.0004655264 0.04439726 0.072431795 -0.012239361 -0.0070129074 0.009853716 0.026124306
-0.06039042 -0.05465925 -8.792301e-05 0.01037903 -0.04171292 -0.041096378 0.030031443 -0.0047730748
0.0324825 -0.036509234 0.0869142 0.049897127 0.048481617 0.00815547 0.006205457 0.041516993
0.045625273 0.044070616 0.027542392 -0.06492549 0.06305163 0.052071553 0.038938057 0.027040314
0.087812364 0.10093208 0.0033023567 0.038113978 0.015784675 0.02007259 -0.078301184 -0.014342151
-0.06569142 0.047186185 -0.011770045 -0.17495885 0.13520956 0.11556261 0.016680382 -0.07033664
0.11594234 -0.022613538 -0.08677253 0.029282982 0.032977972 0.010357556 -0.044781003 0.041294977
0.0071275323 -0.019992555 0.061387878 -0.10235377 0.08819283 0.029155884 -0.043394152 -0.027663914
-0.020823061 -0.029964726 0.014330057 -0.004468643 -0.017515233 0.0057707843 -0.00684091 -0.003320416
-0.011261662 0.13620824 -0.014106706 -0.029911956 0.01592912 0.16472684 -0.1559657 -0.06304324
-0.19972308 -0.012648731 0.07820128 0.0907726 -0.037786126 -0.028804122 0.009234585 0.069461785
-0.13302022 -0.044878922 -0.07101941 0.016311191 0.15249869 -0.19769154 0.053940658 -0.14166509
0.33936828 -0.05062039 -0.05346658 0.26692247 -0.055335116 -0.055560246 0.019641295 0.14302988
-0.06669229 0.016746892 0.16056593 -0.21743184 0.25989768 0.30833966 0.1536969 0.12980135
-0.2619964 -0.21740353 -0.026666392 -0.42801288 -0.3050111 0.13699728 -0.23077014 -0.24657883
-0.38027292 -0.22038989 0.22785017 0.17245646 0.09078474 0.19632986 -0.014965931 -0.058994565

rnn.bias_ih_l0 f4 [40]
00000000: 9208 463e dc58 993d a042 b03d 7265 933e
00000010: 36d3 913e e123 c0bd 2848 ee3d 9c6c bdbc
00000020: 06cc 083e 5222 3a3e 05d4 ee3d 3f6c 873e
00000030: 0404 2abe edbc 783d d9fd 0fbe 3ceb 923d
00000040: fb61 3c3e 3fe7 5fbe ac9f 643e 7ef0 233d
00000050: b2ed 173e 3409 743e 4531 dcbd 2f0a 903e
00000060: a632 c83d ed7d 543e abb7 babd 52d7 60be
00000070: 4b5f b13d 1081 91be ffc4 633d 2a2f 14be
00000080: 18d8 2a3d d000 c53e f65e a73e 1270 70bd
00000090: 8b4f c1bd 2891 a03b 6400 583d eed7 053e
0.19339207 0.07487652 0.08606458 0.28788334 0.28481454 -0.09381843 0.116348565 -0.023123078
0.13359079 0.18177155 0.11661533 0.26449773 -0.16603094 0.06072705 -0.14061679 0.07173774
0.18396752 -0.21865557 0.22326535 0.040024273 0.14836767 0.23831636 -0.10751585 0.2813277
0.097752854 0.20751162 -0.09117063 -0.21957138 0.08660754 -0.2841878 0.055607792 -0.14471117
0.04170999 0.38477182 0.32689637 -0.05870063 -0.09439 0.0049001165 0.052734748 0.13070652

rnn.bias_hh_l0 f4 [40]
00000000: 752f 3b3e 0993 1c3e fab5 d53d bd74 c83e
00000010: b0c8 8a3e 103e b23d f687 093e 3c1d 7c3d
00000020: 2fc0 643b c764 473e c8b4 5f3e a833 c23d
00000030: 8197 9bbd bfe6 8b3d 7813 3d3b df8e 083e
00000040: 48d1 483e c68c bfbd 0952 083c cc9b bb3c
00000050: bd76 393e abc4 303e 1988 a5bd 6d7f 793e
00000060: 6d72 93be 5fbe 07be d4b2 91be 6fb1 24be
00000070: a05c 30be 3185 063e 0f82 463d 003b 333e
00000080: a3a3 463e 2da5 a73e 2ba2 853e cc7b 1b3d
00000090: 102e 3ebd 3c9c 163e a899 88bd c8c8 1d3e
0.18279822 0.15290464 0.104351 0.39151564 0.27106237 0.08703244 0.13430771 0.061551318
0.003490459 0.19472037 0.21846306 0.09482509 -0.075972565 0.06831121 0.0028850716 0.13335751
0.19611084 -0.09353022 0.00832034 0.022901438 0.18111701 0.17262523 -0.08082599 0.24365015
-0.28798237 -0.13256215 -0.28456748 -0.1608331 -0.17222834 0.13136746 0.048463877 0.17502975
0.1939836 0.32743207 0.26100287 0.03795986 -0.046430647 0.14708036 -0.066699326 0.15408623

fc.weight f4 [4, 10]
00000000: c63b a9be 3c4f 1bbe c3a8 64be 4082 1dbe
00000010: 1b60 96be abeb eb3e 4927 5ebe 2fb0 00bf
00000020: 44b4 8fbe 2994 80be adf8 043d d4bb 4f3e
00000030: 8bbc 9abe 7e0d 13bf 9a32 333e 73b9 11be
00000040: 6154 c03c 6c43 a3be 2c67 97be a750 9e3e
00000050: c2d4 533e b544 993d c01a e1bd dd95 9b3e
00000060: 3ff5 adbe a7ae 30be 9b4c 9abe dc48 86be
00000070: d6d8 5abd e6c8 d0be 7d24 933e d2a9 3b3e
00000080: d2b2 9a3e 3859 083f a069 10bf b483 ff3d
00000090: 6c2e b5bd 50ae 20bd 37fa c7bd 8c18 393d
-0.33053416 -0.15166944 -0.22330002 -0.15381718 -0.29370198 0.46078238 -0.21694674 -0.50268835
-0.2806722 -0.25113037 0.03246372 0.20286494 -0.30221972 -0.5744246 0.17499772 -0.142309
0.023477735 -0.31887376 -0.295709 0.30920908 0.2068663 0.07483808 -0.1099143 0.30387774
-0.3397617 -0.17254125 -0.3013657 -0.26227462 -0.053429447 -0.40778273 0.28738776 0.183265
0.30214554 0.53261137 -0.5641117 0.12476292 -0.08846745 -0.039228737 -0.097645216 0.045189425

fc.bias f4 [4]
00000000: 03ba 093e 70a4 ff3d ec92 523e 0ef4 843e
0.13449864 0.12482536 0.20563859 0.2596745
