checkpoints/without_NUE/linear_signals_model_weights0.pth (torch_old, 6261 bytes, 6 tensors)

rnn.weight_ih_l0 f4 [60, 4]
00000000: 2e1b 0e3b 89d4 78bd d7c5 c73e cb07 a8bd
00000010: 0176 063e 9b6a 203e ae46 923e 4fa4 233e
00000020: ecbc 33be d549 a1be f98a 8dbe 23ae 443f
00000030: 9b6f 203e a3f4 01be b267 873c a1f4 3e3e
00000040: 5685 c13e 8880 3a3e 255f 0c3f 530c ca3e
00000050: 8428 af3e 443f d03e e8d4 c83e 1e4c f83e
00000060: e286 76be 4ff7 75be ee8f 2dbc d0fa 7bbe
00000070: bcd3 0dbe 548c e4be 9a15 02bf ae75 5bbe
00000080: eb59 9abe e2b0 ecbd 8950 ecbe 9d27 1abe
00000090: fa78 b73e 7f75 1e3e c6a5 1d3e e612 813e
000000a0: 14da 62be 8e80 7cbe 1495 73bd 11ba 18bc
000000b0: 51bf 503e 87e7 a6bd 15cd 31bf 42f0 003e
000000c0: ec2d 2e3d 0957 1b3e 6e56 a1bd ccc0 0fbe
000000d0: 6744 99bf 5e6a 0d3e 186d 933f 28ed 5f3e
000000e0: b7de 83be 1946 5cbe 41db c5be 7b0a 8dbe
000000f0: 1d65 66bd 6fab b53e 033c 05be bca6 163e
00000100: e31b 413e af2d ef3e 7f17 da3e 450f f53b
00000110: c7fd 28be 10cb 61be d279 90be 1866 b93e
00000120: 3f78 273e a4e5 57be 88cd 503e c4b7 75bd
00000130: c51e ad3e ea68 d83e 394a 9c3e 2cdc ec3d
00000140: 7e75 2b3e 6ef9 923e 7f71 fd3c 20b5 d63e
00000150: 87da d4be e4a7 e6be 1e2d ebbe b4ab 56be
00000160: dac8 e5be 3381 cdbe 4e98 bdbe d725 8abe
00000170: 3ce2 cebe 0ac9 eebe e90b b5be 1153 dfbe
00000180: 6262 013e ea11 bd3e aad3 b33d 28e7 963d
00000190: b3fe 843d 199a f1bd 9f5c 00be 8a4d 8cbe
000001a0: 9987 643d 264b 69be 8d0f 5cbe 2f65 b3bb
000001b0: a2ae 54be 0ae3 d6be 8272 f8bd 3384 6ebe
000001c0: d5c3 20bf ece5 a2be 43e6 e33e 8638 2ebd
000001d0: 0c2d debe aa2c 94be 1043 00bf 48d3 eabe
000001e0: 20c5 203e c6d9 bf3e d62c 893e d25c cb3d
000001f0: df98 97bc 7ed9 c5be 9744 97bd 6d5e fdbd
00000200: 3d2d b33e 72dc ca3e 5747 8abd d1a1 633e
00000210: 18a8 153e b48e 753e 8c41 afbc 41a0 3e3e
00000220: a901 f6be d7d7 f9be 0c8d dfbe a9b8 33bd
00000230: d0d7 a7be bded e6bd df10 9bbe 2515 03bf
00000240: a25f 533d cb91 4b3b 6c48 503e b426 443e
00000250: b823 23be 1324 2e3e 8114 f5bc 47a5 863e
00000260: 7863 96bd 07f0 45be d3be 02be e0fe 24be
00000270: 70a1 a43d 0aac 1f3e d41e 983e a76b ed3e
00000280: d759 0abe 58f3 833c 1c04 0abe 7ac9 e93d
00000290: b688 a1be cc4b d5be 56c6 edba d0d3 2dbe
000002a0: fac6 ffbd aa5a 443c 5c16 c9be 589e ac3c
000002b0: 9474 603e 9d75 be3e 4bef e53e c202 173e
000002c0: a9ce 53be 9326 b23c e42f d23c 070c 58be
000002d0: 4599 0b3f b42b b0bd 25f0 1cbe 4c7f 02bf
000002e0: 64b9 5a3d c827 33be 5c60 9dbd b080 5d3f
000002f0: 53ff e6bd c6d3 9bbe f1b1 d23d b860 3a3f
00000300: 7d84 573e c24e 0f3e 551e 843e b4bd 903e
00000310: 1c19 8dbf 3464 7a3e 2661 a93f 3911 7a3e
00000320: 983c 28be c851 733f 371d cd3e 9952 9dbf
00000330: 1a24 77be 871f 29bf d5eb f8be e58f 96be
00000340: bb71 18be 4ec3 07bf 1c2d f7be b896 95be
00000350: 120d ccbe 0c31 69be e6db 16be 3b06 01bf
00000360: 00be 643f b986 d13d 4312 43bf 1510 963d
00000370: aa09 78bd 9829 bdbe 8e24 b0be e908 93be
00000380: 1a10 6f3e e96d afbe d262 e2be 28a2 433e
00000390: ba48 36be 0cf0 6ebe f51f 223e 584a fe3c
000003a0: c293 98bf f803 ed3e cba4 b33f 23c1 bdbd
000003b0: c87d e4be c8d2 00bf 5950 9dbe 5945 fcbe
0.002168368 -0.060749564 0.39018127 -0.082046114 0.13130952 0.15665667 0.2856955 0.15980648
-0.17552537 -0.31501642 -0.2764509 0.7682821 0.15667574 -0.12690978 0.016528938 0.18648006
0.3779704 0.18213093 0.5483268 0.39462528 0.34210598 0.40673268 0.39224935 0.48495573
-0.24074891 -0.24020122 -0.010593398 -0.24607396 -0.13850302 -0.44638312 -0.5081421 -0.2143161
-0.30146727 -0.11557175 -0.46155193 -0.15054174 0.35834485 0.15474509 0.15395269 0.2520973
-0.22153503 -0.24658415 -0.059468344 -0.009321705 0.20385481 -0.08149629 -0.69453555 0.12591651
0.042524263 0.1516992 -0.07877813 -0.1403839 -1.1974 0.13810107 1.1517668 0.21867812
-0.25755855 -0.21511115 -0.3864384 -0.27547058 -0.056248773 0.35482356 -0.13011174 0.14712042
0.18858294 0.4671454 0.4259605 0.007478627 -0.16503058 -0.22050118 -0.28217942 0.36210704
0.16354464 -0.21083695 0.20390904 -0.059989706 0.33812538 0.42267543 0.30525377 0.11565432
0.16744038 0.28705925 0.030937908 0.41935062 -0.41572973 -0.45049965 -0.4593286 -0.20963937
-0.448798 -0.40137634 -0.37030262 -0.26981995 -0.40406978 -0.46637756 -0.3536065 -0.43618062
0.12635186 0.3692773 0.08780606 0.07368308 0.064938925 -0.1179697 -0.12535332 -0.27402908
0.05579338 -0.22782573 -0.21490307 -0.0054747085 -0.20769742 -0.41970092 -0.12131216 -0.23292617
-0.62798816 -0.3181604 0.44511613 -0.042534374 -0.43393743 -0.28940326 -0.5010233 -0.4586432
0.15700197 0.37470835 0.2679202 0.099298134 -0.018505512 -0.38642496 -0.07386129 -0.12371526
0.34995452 0.3962131 -0.06751888 0.22229697 0.14614904 0.23980218 -0.02139356 0.1861582
-0.48048142 -0.48797485 -0.43662298 -0.043877278 -0.3278184 -0.11275814 -0.3028631 -0.5120414
0.051604874 0.0031062241 0.20340127 0.19155389 -0.15931594 0.17005949 -0.029917004 0.26297972
-0.07343191 -0.19329844 -0.12768106 -0.16112852 0.08038604 0.15592971 0.2971102 0.46371195
-0.13510834 0.016107246 -0.1347813 0.11415382 -0.31549615 -0.4165939 -0.0018140774 -0.16975331
-0.12489124 0.011984507 -0.3927487 0.021071598 0.21919471 0.37199107 0.4490913 0.14747146
-0.20684303 0.02174691 0.025657602 -0.21098338 0.54530746 -0.08602086 -0.15325983 -0.5097549
0.05339946 -0.17495644 -0.07684395 0.86524487 -0.11279168 -0.30435008 0.10287846 0.7280383
0.21046634 0.13994887 0.25804392 0.28269732 -1.1023288 0.24452287 1.3232772 0.24420632
-0.16429365 0.95046663 0.40061352 -1.2290832 -0.24134865 -0.6606373 -0.48617426 -0.29406658
-0.14887135 -0.53032386 -0.48276603 -0.29216552 -0.39853722 -0.22772616 -0.14732322 -0.5040013
0.89352417 0.102307744 -0.7619974 0.07327286 -0.06055609 -0.36945796 -0.3440289 -0.28717735
0.23345986 -0.34263542 -0.4421602 0.19104826 -0.1780118 -0.23333758 0.15832503 0.03104131
-1.1920092 0.4629209 1.4034666 -0.092653535 -0.44627213 -0.50321627 -0.30725363 -0.49271658

rnn.weight_hh_l0 f4 [60, 15]
00000000: cadb 6c3e e850 febd 55c8 153f b974 023e
00000010: d13a 28be 4319 1ebe 4fb6 fabe 090e 39bd
00000020: 3860 ca3e 5b19 c83e 1d9d 64be 3760 d93e
00000030: ab17 d5be 99f3 8a3d 25ad 18bf ddeb babe
00000040: c947 58bb 4783 44be fd45 d53e d27e 01bf
00000050: a621 04bd a591 aebd 4792 6a3e 8166 8ebd
00000060: 4774 573d 024c fd3e ce2e 4d3d aaa5 003e
00000070: 668d 5ebd 0385 13be 2bcc dcbd a2ff af3d
00000080: e774 253d 6830 f23d cd2c c93e c94c 4f3e
00000090: 8fb3 403e 1651 3cbd 538c 67bb dfb1 03be
000000a0: a703 033e 67f0 88be 73d3 b63e 8021 46bf
000000b0: fb2d 62be 9046 edbe dfde 193e 8e64 c5be
000000c0: 3223 db3d 751a 5cbd 7f52 66be 25fb 173d
000000d0: dd18 c03e d430 103d 8238 cbbc 2aab b93e
000000e0: a020 3cbe cf08 de3e 7743 89be 6555 2f3e
000000f0: 3a8e 9dbd cd2f edbe 3d3d b33d 0d95 fe3e
00000100: c0ca bcbe c320 75be 8ca3 79be 757b 57bd
00000110: 79a4 883d 66ec 1d3e 4de3 023d 155d 453e
00000120: 44fa 473e 3bbf 833d a923 97be 4e5b e5be
00000130: 4736 88bd cbc5 4c3e 4a12 ed3e a3a7 e3be
00000140: 33af a9be d918 8cbe 7c91 8c3e 72ab 5f3e
00000150: b7f3 a03e 3578 f73e 0b90 9e3d fcd9 453e
00000160: 58b9 5fbc 271b d13d fa73 a1be fa3c 473e
00000170: 2de0 8bbe c266 aebe 1df5 8d3e 4d97 f23e
00000180: 3045 2f3e 9a36 833e 4a1b f5bd 80d9 99be
00000190: a090 943c ecfc 44bd 7f1c c33d 493c 01bf
000001a0: ea92 76bd 81e1 9f3d c50b cc3d 5f46 9b3e
000001b0: cefe acbe 268e 123e 17bc 933e 343a c7be
000001c0: 4b49 923d 1126 6f3e 6f4e b1be 0d18 013e
000001d0: 064e 31be 8fec aa3d 5de6 3abe 5021 69be
000001e0: 948b 15bf a200 b43e 351f 7a3b b52a 75be
000001f0: 30b8 083e 9111 003f 3769 2c3d b58f c03e
00000200: d839 46bd 6353 8dbe 82c5 e23e e36b 0cbe
00000210: b708 debc f95f 38be e68a 2dbe f94f 02be
00000220: d68f 0fbe 65da 4f3e 1076 ba3d 12a8 08bf
00000230: a9d4 a0be e4ae debe 9af1 a73d 2dc7 b03d
00000240: 8a4d b93e 5aaf bc3e a091 1c3e dd15 bb3e
00000250: 53cc bb3b 8606 c43d 745e 90be 1199 36bc
00000260: 4c03 3c3e 0b39 eabe 8aa3 893e 32cc 883e
00000270: bac0 3abd f847 1fbe be3f 2c3e bec9 ebbe
00000280: 5b6e 3ebe 9ccc bcbd fe40 99be 457b adbe
00000290: 9d4c a1be 25c2 8a3e 95df d23c f1f0 043e
000002a0: 3570 44be d853 ad3e 644e 27bd 789d a93e
000002b0: 881f 47bc f054 acbd 976e 81be 056f bf3e
000002c0: 5a0e 8ebe 4c3c e63c 6133 c2bd 1ac7 32be
000002d0: 6e9e 003f 40c9 593e 676b 4a3e 38eb 203e
000002e0: 4671 cc3d fe72 51be 3c61 ae3e c009 87be
000002f0: 0e6b 253c 2871 21bd 3209 cabe b833 383c
00000300: 2eb5 1abe f035 253f da53 5bbd d59b ec3e
00000310: 5520 5abe 3be7 c33e 2261 733d fb09 943d
00000320: 7af6 c83e 2875 8b3e 35c7 adbe 708f 9dbc
00000330: df8a 283e 6093 b9bd 6ff6 55be bb8f 47bf
00000340: 2d99 b9be c300 16be d1d4 b9be 11b9 943e
00000350: e7fc 9ebe 0557 fabe 0d18 2d3f d6ff 2f3f
00000360: 57dd e13d b094 af3d a8a1 bebe 0ae5 0ebf
00000370: c8b6 ac3d 6ab2 a2be 3aa9 dd3e 4247 6ebe
00000380: eddd 613e 3863 e53e 633a 9bbe 5105 7d3e
00000390: 1a58 273b d58d b4bc c9b6 29bd 30f9 87be
000003a0: 48eb febc 509d fd3e e528 cabd 6dab 9fbe
000003b0: 85d2 533d db7b a1bd 2600 be3e a97d 12bf
000003c0: 992e cfbd e896 a2be 3236 01ba 484b 923d
000003d0: bda6 33be 2219 96bd 7788 fabd ad38 903e
000003e0: ae9a b93e 79c5 c43e aa70 0b3f 4a32 713e
000003f0: e9bf 603e f876 00bd 33a3 00be 1dbd 833e
0.23130718 -0.124177754 0.5850881 0.12739839 -0.16428687 -0.15439324 -0.48967215 -0.0451794
0.39526534 0.39081845 -0.22325559 0.4245622 -0.4161962 0.06784744 -0.596392 -0.36508074
-0.0033001772 -0.19190703 0.4165496 -0.5058414 -0.032258652 -0.08523873 0.22907363 -0.06953145
0.052601125 0.49472052 0.050093465 0.12563196 -0.054334067 -0.14406209 -0.107811294 0.0859368
0.04039469 0.11825639 0.39291993 0.20244135 0.18818496 -0.045975767 -0.0035331442 -0.12860821
0.12794362 -0.26745912 0.35708198 -0.77394867 -0.22087853 -0.46342897 0.15026425 -0.3855328
0.10700072 -0.05373617 -0.22492407 0.037104744 0.3751897 0.035202816 -0.024807218 0.362634
-0.1837182 0.43366095 -0.26809284 0.17122419 -0.07693143 -0.46325532 0.08751915 0.49723092
-0.36873436 -0.23938279 -0.24378794 -0.052607972 0.06671996 0.1542221 0.031955052 0.19273789
0.19529063 0.06432959 -0.29519394 -0.44796222 -0.066509776 0.19997327 0.46303016 -0.44463834
-0.3314148 -0.27362707 0.27454746 0.21842745 0.3143594 0.48333898 0.07742318 0.19321436
-0.013655029 0.10210257 -0.31533796 0.19456854 -0.2731947 -0.34062773 0.2772607 0.47381058
0.17116237 0.25627595 -0.119680956 -0.30048752 0.018135369 -0.048092768 0.095269196 -0.5048261
-0.060198702 0.07806683 0.09963182 0.30327126 -0.3378815 0.14312038 0.2885444 -0.38911593
0.07142886 0.23354365 -0.34630153 0.12606831 -0.1731492 0.08345901 -0.18251939 -0.22766614
-0.58416104 0.35156733 0.0038165573 -0.23942073 0.13351512 0.50026804 0.04209253 0.3760964
-0.048395008 -0.27602682 0.44291312 -0.1371303 -0.027103765 -0.1800536 -0.16947517 -0.1272582
-0.14019713 0.20298155 0.0910455 -0.53381455 -0.31412247 -0.43492806 0.08200379 0.0863174
0.3619197 0.36852533 0.15289927 0.36540118 0.0057311445 0.09571557 -0.28197062 -0.011144892
0.18360633 -0.45746645 0.26882583 0.2671829 -0.045593955 -0.15554798 0.1682119 -0.46052355
-0.18596785 -0.09218714 -0.29932398 -0.3388311 -0.31503764 0.27101246 0.025741378 0.12982537
-0.19183429 0.3385303 -0.040846244 0.33127952 -0.012153514 -0.08414638 -0.25279686 0.3738939
-0.27745324 0.028104924 -0.09482456 -0.17458764 0.50241745 0.21268177 0.19767533 0.15714729
0.09982543 -0.20454022 0.3405856 -0.26374626 0.010096325 -0.039414555 -0.3946014 0.011242799
-0.15108177 0.6453543 -0.053546764 0.4621264 -0.21301396 0.38262352 0.059418805 0.07228466
0.39250547 0.2723782 -0.33941045 -0.019233435 0.16459225 -0.09061313 -0.20894788 -0.7795369
-0.36249676 -0.14648728 -0.3629518 0.29047444 -0.31052324 -0.48894516 0.67614824 0.6874975
0.11028545 0.08573282 -0.3723271 -0.55818236 0.084333 -0.31776744 0.43293172 -0.2326937
0.22057314 0.4480226 -0.30317983 0.2470906 0.002553469 -0.022040287 -0.041434083 -0.26557302
-0.03111805 0.49534082 -0.09871081 -0.31185475 0.05171444 -0.07884952 0.37109488 -0.5722299
-0.1011631 -0.31755757 -0.0004929035 0.07143265 -0.17544074 -0.073290125 -0.1223306 0.2816824
0.36250824 0.3843191 0.54468787 0.2355434 0.21948208 -0.031363457 -0.12562256 0.2573022

rnn.bias_ih_l0 f4 [60]
00000000: c45a da3e 8b5c 9e3e beff 443e 47b5 0c3e
00000010: 9273 003f 3e31 e43e 898d fcbe 1e7a 13bf
00000020: 93f4 b1be c632 b23e c514 cebe f1ea 11be
00000030: ad06 51bd a307 46bd eb36 28be cdf9 85ba
00000040: 7510 c33e 1df5 b53d 2505 27be 0511 713e
00000050: 84dd 563c ac6d bbbe 01ab 82be 71c4 a4be
00000060: 844e 523e b78d 44be 2ec9 1dbe 72fa 6cbe
00000070: 630f 52be 7c64 5ebd e918 253f 253a cfbe
00000080: 679f fcbb 8165 d63e a09e 70be c81d c6be
00000090: 97f6 233e eb49 0c3e 3e50 2dbe 5436 e03e
000000a0: f04d b23d e1b8 bbbd 54e1 87bd f882 b03e
000000b0: 4121 9abe 4a94 7ebd 9fa8 a4bd 66e4 cb3d
000000c0: 1b9b 2b3e 54c1 00bd ca54 083d 6f10 dbbe
000000d0: 5636 b4be dfe9 e0be bfd8 963d da74 0dbd
000000e0: 385e 623d fd57 51be c12d 24bd 3ab6 c4be
0.42647374 0.3092998 0.19238183 0.13741027 0.50176346 0.4456882 -0.49326733 -0.5760821
-0.34756908 0.34804362 -0.4025022 -0.1424978 -0.051031757 -0.048347127 -0.164272 -0.0010221541
0.38098493 0.08884642 -0.16310556 0.23541649 0.013114337 -0.3660711 -0.2552109 -0.32181123
0.20537764 -0.19194685 -0.15408775 -0.23142412 -0.20513682 -0.054295048 0.64491135 -0.40474048
-0.007709432 0.41874316 -0.2349801 -0.38694596 0.16012035 0.13700072 -0.16925141 0.4379145
0.08706272 -0.09166122 -0.06634775 0.3447492 -0.30103496 -0.06215314 -0.080399744 0.09955673
0.16758387 -0.031434372 0.033283986 -0.42785975 -0.35197705 -0.4392843 0.0736556 -0.034535266
0.055265635 -0.20443721 -0.040082697 -0.38420278

rnn.bias_hh_l0 f4 [60]
00000000: 03b0 3d3e 7f91 9e3e 361c 32bc bb27 21be
00000010: d9b3 3e3e 4a65 a23e 05ca 65be 6169 c7be
00000020: c2fd f3be 6a41 fa3e 3ae9 d3be 0dda c3be
00000030: c1b6 28be 2b23 46be 37e4 e0be 6646 793e
00000040: ab1f a63e 5563 29be 0f6b bb3c d37a ef3e
00000050: 0c71 873e a693 c8be 6c3a 41be ce7a 2abe
00000060: d8a6 ce3e e7c4 9ebe 6828 fdbc 8209 723d
00000070: 765a 08bd 0abc d3bd d9bb ae3e 44e2 d4be
00000080: 44ff a53e 1ff2 953e 8ee8 92be 93fc 02be
00000090: 5fb3 6a3e 4429 c0bd 40af dbbc 56b0 833e
000000a0: 88f4 123c b0dc 55be d5e8 4d3d dfc6 823d
000000b0: bf05 333e 4f06 833d baa8 bdbd 3a32 123d
000000c0: ee9a 973e dc58 8e3d 2607 0f3e 276f f9be
000000d0: 265c e2bd 37ba 23bd 88ef 483e 2c23 01be
000000e0: 3c29 4cbb bf2f acbe b9e7 e7bd 1d08 a6be
0.18524174 0.3097038 -0.010870984 -0.15737812 0.18623294 0.31717902 -0.22440346 -0.38947585
-0.4765454 0.48878032 -0.41388875 -0.38252297 -0.16475965 -0.19349353 -0.43924114 0.24343261
0.32446036 -0.16541798 0.022878198 0.46773395 0.26453435 -0.39175147 -0.18869942 -0.16648409
0.40361667 -0.310096 -0.030903056 0.0590911 -0.033289395 -0.103386 0.3412769 -0.41578877
0.32421315 0.29286286 -0.2869305 -0.12791662 0.22919987 -0.09382871 -0.026816964 0.2572047
0.008969434 -0.20884967 0.050270874 0.06385588 0.1748266 0.06397688 -0.09260698 0.03569243
0.2961039 0.06950542 0.1396757 -0.48717615 -0.11052732 -0.03997251 0.19622624 -0.12611073
-0.0031152507 -0.33630177 -0.113234945 -0.32428065

fc.weight f4 [4, 15]
00000000: 4cbc 123d 1a2a 20be 772f 47be 099f 933e
00000010: 2e21 7f3e cbeb e8be 5a8b 8cbe 8a82 c23d
00000020: 1acf 9c3d ce05 dd3e cf7d 3a3d f552 3fbd
00000030: 640d 9c3e d617 04bf 2107 0f3d 8059 bebe
00000040: a508 f4bd f33e da3d 5ec4 7f3d b9b4 1fbf
00000050: c22e efbe f148 aa3c be9e 633e c3f4 26be
00000060: 19e5 153e 3214 4b3e 76e9 3e3e 6bb8 02bd
00000070: 3e2d bc3e b318 57bd 2ec0 f0be 1cba a0be
00000080: 926f 153e aa39 7f3e dc07 10bf df1f b63d
00000090: 2f66 9e3d ac1f e63c f481 da3d e20a 7bbe
000000a0: 403b f53a 3bc7 073e 14b1 e3bd 19f6 da3e
000000b0: f907 0e3e b53a b2be 3353 cebe 5a99 b83e
000000c0: 2eb0 0f3e 3680 f43d a026 1a3e 8cd5 76bd
000000d0: 1cce 4d3e 21c4 083e e30b f83e af46 6c3a
000000e0: 4534 d5bd 272c ba3e 110a 05bf cfbc 0a3e
0.035824105 -0.1564106 -0.194517 0.28832272 0.24915001 -0.45492396 -0.27450067 0.094975546
0.07656689 0.4316849 0.045530137 -0.046709973 0.30478966 -0.5159887 0.034918908 -0.37177658
-0.11915711 0.10656538 0.06244313 -0.62385136 -0.4671536 0.020786734 0.22228524 -0.16304307
0.14638175 0.19831923 0.18643746 -0.031914156 0.36753267 -0.05251379 -0.4702162 -0.3139199
0.14593342 0.24924341 -0.5626199 0.08892798 0.07734334 0.028091274 0.10669318 -0.2451587
0.0018709674 0.13259594 -0.11117759 0.42765883 0.13870229 -0.34810415 -0.4029785 0.36054498
0.14032051 0.11938517 0.15053797 -0.060262248 0.20098156 0.13356067 0.4844657 0.0009013218
-0.1041036 0.3636181 -0.51968485 0.13548587

fc.bias f4 [4]
00000000: 5ebc 533e 293d 33bd 378d ab3e 20c0 d03e
0.20677325 -0.0437595 0.33506176 0.4077158
