checkpoints/without_NUE/linear_signals_model_weights2.pth (torch_old, 3701 bytes, 6 tensors)

rnn.weight_ih_l0 f4 [40, 4]
0	0xbb2b8142	-0.0026169573
1	0xbaf6838c	-0.0018807515
2	0xbb8cdf91	-0.004299112
3	0xbb506a94	-0.0031801807
4	0x3c1b5987	0.009481794
5	0xbcaa2d4d	-0.020773554
6	0x3bc8350f	0.0061098407
7	0x3ca1736b	0.019708356
8	0xbdb90856	-0.09034793
9	0xbd1a9772	-0.037742086
10	0xbc48d71c	-0.012258317
11	0x3cc50ba7	0.024053408
12	0x3db4fa50	0.08836806
13	0x3e013e6c	0.12621468
14	0x3e0a7a1f	0.13523148
15	0x3e07c2cf	0.13257907
16	0xbd1b7c74	-0.037960485
17	0xbd195be0	-0.037441134
18	0xbd0eed84	-0.03489448
19	0xbd21687d	-0.03940629
20	0x3e0b5d1f	0.13609742
21	0x3e2e3811	0.17013575
22	0x3e1433e8	0.14472926
23	0x3e34e48d	0.1766531
24	0x3e388208	0.18018353
25	0x3e35135d	0.17683168
26	0x3e3cf189	0.18451513
27	0x3e64fb09	0.22361387
28	0x3d0a435c	0.033755645
29	0x3ce3ec8d	0.027822757
30	0x3c3aa810	0.011392608
31	0x3d69418f	0.056947287
32	0x3dfd0917	0.123552494
33	0x3db333a9	0.08750088
34	0x3df2a8c4	0.11848596
35	0x3df1aa67	0.1180008
36	0xbc396bc7	-0.0113172
37	0xbc6452bd	-0.013935742
38	0xbc5c2ab1	-0.013437913
39	0xbc6245bb	-0.01381057
40	0xbb830266	-0.0039980887
41	0xbb4546e9	-0.003010208
42	0xbbc07b43	-0.005874069
43	0xbb9936d8	-0.0046757273
44	0xbc36bd3a	-0.011153514
45	0xbd25695f	-0.040383693
46	0xbc5adc3b	-0.013358171
47	0xbb31c944	-0.002712802
48	0xbdeedc3e	-0.116631016
49	0xbd8a4145	-0.067507304
50	0xbd295f43	-0.041350614
51	0xbcabb22b	-0.02095898
52	0xbdb94559	-0.0904643
53	0xbce17801	-0.027523043
54	0xbd6024fb	-0.054722767
55	0xbb95273f	-0.0045517976
56	0xbd2035b1	-0.039113704
57	0xbd1e2c98	-0.038616747
58	0xbd0ee525	-0.034886498
59	0xbd200e38	-0.03907606
60	0xbdbf4733	-0.09339752
61	0xbd8c4af7	-0.06850236
62	0xbdd88389	-0.10571963
63	0xbdac1a9e	-0.08403514
64	0xbdb11b4d	-0.08647785
65	0xbd77d5be	-0.060506575
66	0xbdfacfb5	-0.12246648
67	0xbdb955fc	-0.09049603
68	0x3cf3222f	0.029679386
69	0x3cc84e56	0.024451416
70	0xbbaea81e	-0.0053300997
71	0x3d6de71e	0.05808174
72	0xbb1ed082	-0.0024233167
73	0xbc6f2b4f	-0.014597728
74	0xbd6eb1df	-0.0582751
75	0xbd40a592	-0.0470329
76	0xbc59f12d	-0.01330213
77	0xbc7f7050	-0.015590742
78	0xbc8306ab	-0.01599439
79	0xbc856f34	-0.016288377
80	0xbbec9af3	-0.00722062
81	0xbc75e00f	-0.015007033
82	0xbbaf73e2	-0.0053543905
83	0xbbfa33b6	-0.007635559
84	0xbdfbe4cb	-0.12299498
85	0xbcb0395c	-0.021511726
86	0xbd9f3e4e	-0.077755556
87	0xbe19ed2b	-0.15031879
88	0xbe5ba8fc	-0.21451181
89	0x3bcfd036	0.0063419593
90	0x3d9d340b	0.07675942
91	0x3e18676d	0.14883204
92	0xbf48a28f	-0.78373045
93	0xbd5bac5b	-0.053631168
94	0x3f4702e9	0.77738816
95	0xbe5d4f6c	-0.21612328
96	0x39e1ea65	0.00043089982
97	0xbc6aeddb	-0.014338936
98	0xbc188000	-0.009307861
99	0xbbb7fa14	-0.0056145284
100	0x3f5df8df	0.8670787
101	0x3c02d57f	0.007985472
102	0x3e9623a1	0.29324058
103	0xbf16361a	-0.586763
104	0x3f4af824	0.7928488
105	0xbcc4d569	-0.024027543
106	0xbd7181c7	-0.058961656
107	0x3ecc3253	0.39882144
108	0x3decc551	0.115610726
109	0x3de0ddf4	0.10979834
110	0x3d8ce99d	0.06880496
111	0x3e20b66e	0.15694591
112	0x3f3127bd	0.6920126
113	0x3d134815	0.035957415
114	0x3ebf0e0e	0.3731541
115	0xbdb323d9	-0.08747072
116	0x3cad3419	0.021143006
117	0x3cbd4920	0.023106158
118	0x3c95d1ba	0.018288482
119	0x3cc295a8	0.023753002
120	0xbb40b0ee	-0.0029402333
121	0xbaa9ddf4	-0.0012959824
122	0xbbac9e0e	-0.005267865
123	0xbb2da2db	-0.0026494775
124	0x3d64f394	0.055896357
125	0xbca1e117	-0.019760652
126	0x3cf619ff	0.030041693
127	0x3d83e5d1	0.064403184
128	0xbea04fad	-0.31310788
129	0xbd0819fe	-0.033227913
130	0xbc50e256	-0.012749275
131	0x3d9a6bf2	0.0754012
132	0x3db03cb6	0.0860533
133	0x3e194a65	0.14969786
134	0x3e1ec4c1	0.15504743
135	0x3e28d7bf	0.1648855
136	0xbd18cc0f	-0.03730398
137	0xbd1a9d79	-0.037747834
138	0xbd0c5e7f	-0.034269806
139	0xbd2172d1	-0.039416138
140	0x3e16d315	0.14728959
141	0x3e30d3f4	0.17268354
142	0x3e1e4797	0.15456997
143	0x3e361d08	0.17784512
144	0x3e439a8f	0.19101928
145	0x3e36b3e9	0.17842068
146	0x3e42826c	0.18995064
147	0x3e7173b8	0.235793
148	0x3e6b702b	0.22992007
149	0xbd8ca887	-0.068680815
150	0xbd62a7e1	-0.055335883
151	0x3e5e6fad	0.21722288
152	0x3e0738cf	0.13205265
153	0x3ddff5c1	0.10935546
154	0x3e016524	0.12636238
155	0x3df1b7ff	0.118026726
156	0xbc222513	-0.0098965345
157	0xbc48ee9a	-0.012263918
158	0xbc6c3a6b	-0.014418225
159	0xbc52107e	-0.012821315

rnn.weight_hh_l0 f4 [40, 10]
0	0x3ae439aa	0.0017412205
1	0x3b973aa7	0.004615146
2	0xbbbd58bd	-0.0057784007
3	0x3a555b1e	0.00081388827
4	0xbaea06ed	-0.0017854847
5	0x39949f41	0.00028347413
6	0xbbbc385c	-0.0057440232
7	0xbb4a6148	-0.0030880738
8	0x3a16eb79	0.0005757134
9	0xbbabd7f1	-0.005244248
10	0x3c776770	0.015100345
11	0x3cd11b77	0.025525792
12	0xbc2bb3e9	-0.010479906
13	0x3d288238	0.04113981
14	0xbd58e2b7	-0.052950587
15	0xbb8a40e2	-0.0042191604
16	0xbbb75a48	-0.005595479
17	0xbcd942f4	-0.026521184
18	0xbd1c1f9e	-0.03811609
19	0xbbf6bd78	-0.0075299107
20	0x3cebafa5	0.028770277
21	0x3ca104ff	0.019655703
22	0xbcfef7de	-0.031124052
23	0xbd2dbe64	-0.0424179
24	0xbc888c21	-0.016668381
25	0x3c440383	0.011963728
26	0xbd0630d5	-0.032761414
27	0xbcd2bef9	-0.025725828
28	0x3c544b85	0.012957458
29	0xbd016b07	-0.03159621
30	0x3c2fa645	0.010720794
31	0xbd243f28	-0.040099293
32	0x3cc46aa2	0.023976628
33	0x3c052b3c	0.008127984
34	0xbd0c259b	-0.03421555
35	0x3b6763fc	0.0035307398
36	0xbbf57901	-0.0074912314
37	0x3dba095c	0.090838164
38	0x3a38107b	0.0007021499
39	0xba45ab70	-0.00075405
40	0x3c5c1ecd	0.013435078
41	0x3ccd58b2	0.025066707
42	0xbccbcaf9	-0.024877058
43	0x3c515527	0.01277665
44	0xbc73f9c5	-0.014891093
45	0x3b77ca80	0.0037809908
46	0xbcb1d6cf	-0.021708874
47	0xbd01e3c2	-0.031711347
48	0xbc637618	-0.013883136
49	0xbc8a3706	-0.01687194
50	0x3cb0d41f	0.021585522
51	0xbd4f5b4d	-0.05062418
52	0x3cdabbc4	0.026700862
53	0xbcd80dfa	-0.026373852
54	0xbc3fa953	-0.011698085
55	0xbd118d4d	-0.035535146
56	0xbc8bb8cd	-0.017055893
57	0x3ddc6827	0.10762053
58	0x3c4d30a5	0.012523805
59	0xbd05c144	-0.032655016
60	0x3afebea9	0.0019435483
61	0xbd62a5e9	-0.055334006
62	0x3d1fd8ac	0.039024994
63	0x3c4ed376	0.012623658
64	0xbc9b2297	-0.018937392
65	0xbc91f946	-0.017819058
66	0x3c67e154	0.0141528435
67	0x3dfebbbc	0.12438151
68	0xbc7f2519	-0.01557281
69	0xbbc9965c	-0.0061519574
70	0x3c985ef2	0.018599961
71	0x3bf49cc1	0.0074649756
72	0x3bb1f4c6	0.0054307906
73	0x3d234003	0.03985597
74	0xbd1720ed	-0.036896635
75	0xbc85d6a0	-0.016337693
76	0xbcf6010b	-0.030029794
77	0xbb2cd79c	-0.002637363
78	0xbcb67b5a	-0.022275615
79	0xbce38476	-0.027773123
80	0x3cc1a08a	0.023636121
81	0xbd00e84c	-0.031471536
82	0x3ca004c9	0.019533532
83	0x3c1805c7	0.009278721
84	0xbd0c2a97	-0.034220304
85	0xbc212c88	-0.009837277
86	0x3c8557db	0.016277244
87	0x3d9a4780	0.07533169
88	0x3b8630a5	0.0040951543
89	0xbcc8a046	-0.024490487
90	0x3b62681a	0.0034546913
91	0x3c267c69	0.010161498
92	0xbb956b13	-0.0045598834
93	0x3b572518	0.0032828506
94	0x3a091f3f	0.0005230791
95	0xba136519	-0.00056226697
96	0xbbab7b75	-0.005233223
97	0xbc87d6ad	-0.016581858
98	0xbad10648	-0.0015947307
99	0xbba7e0d2	-0.005123236
100	0x3b29457a	0.0025828765
101	0x3bebec07	0.0071997675
102	0xbbaf4df9	-0.0053498712
103	0x3ae890a2	0.0017743299
104	0xbaf66c5a	-0.0018800602
105	0xb9229152	-0.0001550366
106	0xbbd654a6	-0.0065408526
107	0xbbacda19	-0.0052750227
108	0xba06978b	-0.0005134276
109	0xbbb2dab9	-0.0054582027
110	0x3c7cafff	0.01542282
111	0x3d0142ec	0.031557962
112	0xbc73b0ae	-0.014873667
113	0x3d2661d8	0.040620655
114	0xbd58df9c	-0.052947626
115	0xbb9844d7	-0.004646878
116	0xbc0c08ca	-0.008547017
117	0xbd2221d1	-0.03958303
118	0xbd1f611e	-0.038910978
119	0xbbf4645a	-0.007458252
120	0x3cd69675	0.02619479
121	0x3cf0d663	0.029399103
122	0xbd0fd81d	-0.03511821
123	0xbd0da0ed	-0.0345773
124	0xbc97b4ac	-0.018518768
125	0x3c3ffb40	0.0117176175
126	0xbcf5f5e5	-0.030024478
127	0xbd403058	-0.046921104
128	0x3c22079f	0.009889512
129	0xbcf9957e	-0.030466791
130	0xbcb961b8	-0.022629604
131	0x3cf40189	0.029785888
132	0xbce6ebb8	-0.028188571
133	0xbc276d71	-0.010218964
134	0x3cfd7576	0.030939799
135	0x3c30f55f	0.0108006885
136	0xbcceed77	-0.025259716
137	0xbd38d266	-0.045122527
138	0x3cdb79fd	0.026791567
139	0x3cac492f	0.02103099
140	0x3c6ce0a5	0.014457856
141	0x3ceec095	0.029144565
142	0xbce12934	-0.027485467
143	0x3c85d958	0.01633899
144	0xbc949706	-0.01813842
145	0x3c011d9c	0.007880595
146	0xbcb41b92	-0.021985803
147	0xbd0fe651	-0.035131756
148	0xbc65edc8	-0.014033742
149	0xbc84ef7e	-0.01622748
150	0x3968b7dc	0.00022193737
151	0x3cf44be2	0.02982134
152	0xbcbd2e85	-0.023093471
153	0xbd812284	-0.063054115
154	0x3c167106	0.00918222
155	0xbd1e53aa	-0.038654007
156	0xbd0a9395	-0.03383215
157	0xbd7c1acc	-0.061548993
158	0x3ac6783a	0.0015142031
159	0xbc0f4a13	-0.008745688
160	0x3b7f4fad	0.0038957403
161	0x3cc0301c	0.02346044
162	0xbc1e368b	-0.009656559
163	0xbc95df47	-0.018294943
164	0xbc9e6a9e	-0.019337948
165	0x3c4d7d1c	0.012542035
166	0xbcee3f98	-0.029083058
167	0xbd86ec9a	-0.06588097
168	0x3c5c6f6a	0.013454298
169	0xbc1d4223	-0.009598288
170	0x3c8a31ca	0.016869444
171	0x3c905246	0.017617356
172	0x3b0fb8ef	0.0021930297
173	0x3d365744	0.044516817
174	0xbd1ac214	-0.037782744
175	0xbc9a8770	-0.01886341
176	0xbd3cc1fb	-0.04608343
177	0xbc86fd8a	-0.016478319
178	0xbccb972b	-0.024852356
179	0xbcd1126a	-0.025521476
180	0xbc57e19c	-0.013176348
181	0x3ce5a134	0.02803097
182	0xbcda2aa8	-0.026631668
183	0xbd158ebc	-0.036513075
184	0xbb5503bc	-0.0032503447
185	0x3c8a4cb8	0.016882285
186	0xbbe341df	-0.0069353427
187	0xbd03c667	-0.032171633
188	0x3b2d3c78	0.0026433747
189	0x3d020259	0.03174052
190	0x3b6dfc93	0.0036313876
191	0x3c0921b9	0.0083698565
192	0xbb9b0bfe	-0.004731654
193	0x3b84264b	0.004032885
194	0xba02b3c6	-0.0004985895
195	0x3a474873	0.00076020433
196	0xbba44146	-0.005012664
197	0xbc907d2e	-0.017637815
198	0xbacc2357	-0.0015574497
199	0xbb984458	-0.004646819
200	0xbbbbbc7b	-0.0057292557
201	0x3c471042	0.012149872
202	0xbbea5654	-0.0071514044
203	0xbba05e8d	-0.004894084
204	0xbb86b45a	-0.004110855
205	0x3c2324b0	0.009957477
206	0xbb87a145	-0.004139098
207	0xbc5c3f30	-0.013442799
208	0xbc24c514	-0.010056753
209	0x3be040aa	0.006843646
210	0xbcd032ba	-0.025414813
211	0xbd6969f2	-0.056985803
212	0x3c0f4430	0.0087442845
213	0xbd77546c	-0.060383245
214	0x3d90516d	0.07046781
215	0xbad06a8a	-0.0015900892
216	0x3d000817	0.031257715
217	0x3d15bc85	0.03655674
218	0x3d85583c	0.0651097
219	0x3c8f20d8	0.017471716
220	0x3cfc6cee	0.03081366
221	0x398b195c	0.0002653104
222	0xbdad3b55	-0.08458582
223	0xbdf9810d	-0.121828176
224	0xbbd7ff11	-0.0065916856
225	0x3daaeb0c	0.08345613
226	0xbd3124c7	-0.043247964
227	0x3cb9a55f	0.022661863
228	0x3cc1717b	0.023613682
229	0xbcc234ea	-0.023706872
230	0x3ce49b5f	0.027906118
231	0x3d45710b	0.04820351
232	0x3e2cdda4	0.16881424
233	0xbe86cf79	-0.26330164
234	0x3a05f307	0.0005109761
235	0xbef65685	-0.48112884
236	0xbeac13cd	-0.33608857
237	0xbe200daf	-0.1563022
238	0xbe907a50	-0.28218317
239	0xbcd05002	-0.025428776
240	0x3d3d6c68	0.046245962
241	0x3bbebf85	0.0058211708
242	0xbbe224a8	-0.0069013424
243	0x3ce8a984	0.028401144
244	0xbd564462	-0.05231131
245	0xbb0f9ccb	-0.0021913524
246	0xbc2338ad	-0.009962243
247	0xbbcc4ae5	-0.006234514
248	0xbc09f5c3	-0.008420411
249	0xbd92860b	-0.07154473
250	0xbcd37d05	-0.02581645
251	0xbd5e7564	-0.05431117
252	0xbd424a6f	-0.047434267
253	0x3e371aae	0.17881271
254	0x3c76369c	0.015027668
255	0xbef54500	-0.47904205

rnn.bias_ih_l0 f4 [40]
0	0xbc0173f0	-0.007901177
1	0xbc71d729	-0.014760771
2	0xbd1983b5	-0.03747912
3	0x3e9fcdbc	0.3121165
4	0xbd214df9	-0.039381
5	0x3eb581fa	0.35450727
6	0x3ee30740	0.4434147
7	0x3dac4409	0.08411414
8	0x3e821fc2	0.25414854
9	0xbc8ec517	-0.017427964
10	0xbbb68665	-0.0055702203
11	0xbd89d74b	-0.06730517
12	0xbdfacc04	-0.12245944
13	0xbdc415d1	-0.09574474
14	0xbd45f856	-0.048332535
15	0xbe3ea1d5	-0.18616422
16	0xbe6f3d11	-0.23363139
17	0x3dc75a61	0.09734035
18	0xbd98f675	-0.07468883
19	0xbc59ef89	-0.013301739
20	0xbc3273b9	-0.010891848
21	0xbd8e5132	-0.069490805
22	0x3e32bd2f	0.1745498
23	0x3de86aa4	0.11348465
24	0xbb1c28e0	-0.0023828074
25	0xbe2380ba	-0.15967074
26	0xbe535d22	-0.20640996
27	0x3e871ed6	0.26390713
28	0xbe7ba0f9	-0.24573125
29	0x3ce94664	0.028475948
30	0xbc09894a	-0.008394549
31	0xbd2cfac5	-0.04223134
32	0xbd9f8cd0	-0.0779053
33	0x3eb471a9	0.35242966
34	0xbd2045f1	-0.0391292
35	0x3ebfbbe7	0.37448046
36	0x3ee4cdcf	0.4468827
37	0xbd8c8458	-0.0686118
38	0x3e88513b	0.26624474
39	0xbc90d851	-0.017681273

rnn.bias_hh_l0 f4 [40]
0	0xbc0173f5	-0.0079011815
1	0xbc7ab018	-0.015300773
2	0x3c6c88ed	0.0144369425
3	0x3e9f307e	0.31091684
4	0xbd214dfb	-0.03938101
5	0x3eb58015	0.3544928
6	0x3ee3074d	0.44341508
7	0x3dadcf0b	0.08486756
8	0x3e82f68d	0.25578728
9	0xbc8ec5db	-0.01742833
10	0xbbb68660	-0.005570218
11	0xbd8489d7	-0.06471603
12	0xbd9b0d0c	-0.07570848
13	0xbdbb4f7e	-0.09146021
14	0xbd45f887	-0.048332717
15	0xbe3e82da	-0.18604603
16	0xbe6f3c56	-0.2336286
17	0x3dc637e0	0.09678626
18	0xbd920173	-0.07129183
19	0xbc59ef73	-0.013301718
20	0xbc4e74ae	-0.012601061
21	0xbe02bb8a	-0.12766853
22	0x3dcb38a1	0.099229105
23	0x3d8be948	0.06831604
24	0xbc352f09	-0.011058577
25	0xbca2f9bd	-0.019894475
26	0xbd0b496a	-0.03400556
27	0x3e860de3	0.2618247
28	0xbe647d02	-0.22313312
29	0x3cf50906	0.02991153
30	0xbc0988f2	-0.008394467
31	0xbd355d28	-0.044278294
32	0xbda480e2	-0.08032395
33	0x3eb34fe4	0.3502189
34	0xbd20459f	-0.039128896
35	0x3ebfbaff	0.37447354
36	0x3ee4cdad	0.44688168
37	0xbdf2426f	-0.118290775
38	0x3e884d97	0.26621696
39	0xbc90d761	-0.017680826

fc.weight f4 [4, 10]
0	0xbbca8450	-0.0061803237
1	0xbe93a4d1	-0.28836682
2	0xbeea94f8	-0.4581678
3	0xbe04f7f9	-0.12985219
4	0xbc77f7c7	-0.015134758
5	0x3f5355eb	0.82552975
6	0x3f72e4ed	0.94880563
7	0x3ee10e00	0.43955994
8	0x3e099e3b	0.13439266
9	0xbc2a0bf0	-0.010378823
10	0xbc01d1e4	-0.007923577
11	0xbe016c34	-0.12638932
12	0x3c5a59d1	0.013327078
13	0xbf02b786	-0.51061285
14	0xbd1afa81	-0.037836555
15	0xbdbe8830	-0.093033195
16	0xbeb52f5f	-0.35387704
17	0xbdba5cf4	-0.09099761
18	0x3f09a481	0.5376664
19	0x3d05de41	0.03268266
20	0x3d2605d1	0.04053289
21	0xbe87e2f5	-0.26540342
22	0x3e621cbb	0.22081272
23	0x3f2d8690	0.6778345
24	0xbd3b7a47	-0.04577091
25	0xbdefc38a	-0.11707218
26	0x3f257650	0.64633656
27	0x3ec11ad3	0.37715778
28	0xbd91b23e	-0.07114075
29	0xbd0ebd08	-0.034848243
30	0xbc416047	-0.011802739
31	0xbdd702e5	-0.10498599
32	0x3db1c3f6	0.08679955
33	0xbf1762df	-0.5913524
34	0x3cc21387	0.023690952
35	0xbf0319ad	-0.51211053
36	0x3e25cf2b	0.1619231
37	0x3e7e05a6	0.24806842
38	0xbebce95f	-0.36896798
39	0x3c920dac	0.017828785

fc.bias f4 [4]
0	0x3e8181b2	0.25294262
1	0x3ef17dfe	0.47166437
2	0x3e51b61e	0.20479628
3	0x3ed16625	0.40898243
