checkpoints/without_NUE/linear_signals_model_weights4.pth (torch_old, 6261 bytes, 6 tensors)

rnn.weight_ih_l0 f4 [60, 4]
0.59844655 0.24948949 0.46872494 0.38358974 -0.41171318 0.22303241 -0.19574283 0.53565395
-0.14274186 -0.44761282 0.39516556 0.3835636 0.95918745 -0.21898068 -0.017567104 0.5786999
0.39726496 0.024144322 -0.828846 0.5042571 0.78838325 0.31538662 0.18268576 -0.07879647
-0.021206334 -0.06522588 0.6764701 0.14624938 -1.732674 0.0060056397 -0.7338034 -0.17532514
-1.0034045 0.015588008 -0.8449017 -0.54952276 -0.6332743 0.25404853 -1.3815459 -0.9705717
0.5099482 0.15168048 0.15628612 0.6206697 0.42571774 0.35693508 0.49761716 0.54966396
0.485181 0.12245338 0.18554184 0.53169936 -0.05739652 -0.95165867 -0.7891128 -0.85622126
-0.1548923 -0.14840202 -0.084869854 -1.039184 0.63060075 0.4458073 0.21789818 0.53980297
-1.5147016 -0.21003589 -1.2616307 -0.88463324 -0.22950636 -0.5510908 0.2404272 0.14697936
1.4939795 -0.29018095 0.41211107 -0.035146207 -0.27722678 -0.9311838 -1.241457 -0.40136653
0.47134283 -0.4523956 -0.43012172 0.13557972 -0.80931437 -0.27574924 -0.4950092 -0.2238344
-0.8015673 0.1553202 0.30863592 0.19295666 -0.30696237 0.079046465 -0.7509955 -0.37369847
-0.3588146 0.22302161 -1.0336317 -0.32781988 0.4464721 0.53026646 0.17158264 0.65581906
0.5335453 0.47281528 0.18201402 0.29259118 0.5623062 0.43747687 0.44386706 0.63479966
-0.14153053 -1.112304 -0.58685714 -0.8760208 -0.47695747 -0.716893 -0.22535536 -1.1442034
0.4410088 0.5059371 0.5132256 0.2922346 1.2261773 -0.07663431 0.14116387 0.07157983
0.40665796 0.010222684 -0.0051779714 -0.4771437 -1.4642347 -0.0994675 0.09140979 0.22326127
0.17843132 0.5539945 -0.18714505 0.6543133 0.5135987 0.24628252 -0.15782598 0.47594324
-0.056852933 0.04541724 -0.096530266 1.2102078 -0.5545237 0.48870018 0.23071618 0.21540163
0.009368911 0.84533846 -0.06637144 0.43886393 0.32195047 -0.579994 0.60900086 0.1432
-0.54798585 -0.17290367 -0.5707198 -0.16985345 -0.062978014 -0.26812726 -0.14548288 -0.553045
0.35824567 0.38482812 0.23273785 0.45511493 -0.6062688 -0.12146438 -0.27310562 -0.044381082
-0.93861884 -0.28078327 -0.9756934 -0.091242716 0.24413994 -0.061280448 -0.7890682 -0.3912771
-0.4453114 0.0801829 0.16623077 0.4025863 -1.2602702 0.03520119 -0.04308778 -0.58618075
1.4464406 0.88783044 0.82616323 1.2286358 0.22109583 -0.033782315 -0.6548823 0.5427322
0.7415454 -0.25855315 -0.46335253 -0.017128224 0.07408583 0.10811764 0.39804152 -0.18855095
-1.3827487 0.103925526 -0.47279018 -0.27274063 -0.6779484 0.17428821 -0.84026194 -0.37969375
-1.0388097 0.48604354 -1.5002538 -0.6885184 -0.23398368 -0.2631514 0.12236603 0.3985624
1.1946281 -0.20676416 -0.460431 -0.30276826 0.6673185 -0.015701534 0.33912337 0.4290171
0.0023073808 -0.76454157 -0.84120566 -0.7640508 -0.119401924 -0.2958503 -0.2743515 -0.8733464
00000000: cb33 193f 2c7a 7f3e b7fc ef3e e065 c43e
00000010: 12cc d2be 9c62 643e cf70 48be 9e20 093f
00000020: ec2a 12be 822d e5be 2453 ca3e 7362 c43e
00000030: 4f8d 753f 793c 60be e3e8 8fbc ad25 143f
00000040: 5066 cb3e 50ca c53c 402f 54bf fe16 013f
00000050: 7cd3 493f 5b7a a13e fa11 3b3e 0b60 a1bd
00000060: e8b8 adbc 2595 85bd 252d 2d3f 66c2 153e
00000070: 43c8 ddbf f5ca c43b 8ada 3bbf 6f88 33be
00000080: 8f6f 80bf d864 7f3c 7a4b 58bf 86ad 0cbf
00000090: 441e 22bf a612 823e 7fd6 b0bf 6377 78bf
000000a0: f78b 023f 2152 1b3e 7809 203e 36e4 1e3f
000000b0: adf7 d93e 32c0 b63e adc7 fe3e c7b6 0c3f
000000c0: a569 f83e d6c8 fa3d aefe 3d3e 731d 083f
000000d0: 9d18 6bbd e79f 73bf 4c03 4abf 5131 5bbf
000000e0: 169c 1ebe b3f6 17be 3fd0 adbd fb03 85bf
000000f0: 0d6f 213f db40 e43e b320 5f3e 8730 0a3f
00000100: bee1 c1bf a613 57be 1d7d a1bf 5377 62bf
00000110: b703 6bbe 4914 0dbf 8c32 763e c281 163e
00000120: b83a bf3f 9992 94be 3900 d33e 78f5 0fbd
00000130: abf0 8dbe 1062 6ebf 10e8 9ebf ea7f cdbe
00000140: d953 f13e 65a0 e7be ea38 dcbe 69d5 0a3e
00000150: 3a2f 4fbf 012f 8dbe d971 fdbe d834 65be
00000160: 8433 4dbf 420c 1f3e 8705 9e3e 6e96 453e
00000170: 2c2a 9dbe 1de3 a13d 3e41 40bf 6855 bfbe
00000180: 8cb6 b7be c75f 643e 0b4e 84bf 02d8 a7be
00000190: fe97 e43e 8bbf 073f 5cb3 2f3e c2e3 273f
000001a0: 6d96 083f d814 f23e e261 3a3e 83ce 953e
000001b0: 4df3 0f3f f8fc df3e 8b42 e33e 3b82 223f
000001c0: 61ed 10be fa5f 8ebf 453c 16bf e642 60bf
000001d0: c533 f4be 4d86 37bf 8ec3 66be 4275 92bf
000001e0: e8cb e13e 1885 013f c162 033f c69f 953e
000001f0: 61f3 9c3f 73f2 9cbd 438d 103e 7298 923d
00000200: 7935 d03e 0b7d 273c f9ab a9bb 2e4c f4be
00000210: 0b6c bbbf 9eb5 cbbd 0e35 bb3d 9a9e 643e
00000220: b3b6 363e 95d2 0d3f f4a2 3fbe 1481 273f
00000230: 347b 033f 7c31 7c3e 229d 21be d5ae f33e
00000240: 9fde 68bd 6e07 3a3d a9b1 c5bd 17e8 9a3f
00000250: 44f5 0dbf e936 fa3e dd40 6c3e 3f92 5c3e
00000260: 1080 193c 1a68 583f c0ed 87bd c6b2 e03e
00000270: b1d6 a43e 7d7a 14bf 7be7 1b3f 05a3 123e
00000280: cd48 0cbf a90d 31be b11a 12bf 10ee 2dbe
00000290: 9efa 80bd fa47 89be 77f9 14be 5b94 0dbf
000002a0: fa6b b73e 3108 c53e d552 6e3e d304 e93e
000002b0: 6f34 1bbf 51c2 f8bd 80d4 8bbe f0c8 35bd
000002c0: 5349 70bf d3c2 8fbe 0bc7 79bf 76dd babd
000002d0: d2ff 793e 3501 7bbd 6000 4abf 7955 c8be
000002e0: dbff e3be ef36 a43d 6638 2a3e cb1f ce3e
000002f0: 8950 a1bf 1f2f 103d d07c 30bd f10f 16bf
00000300: f724 b93f db48 633f 6f7f 533f f043 9d3f
00000310: f266 623e 535f 0abd 5ea6 27bf 7ff0 0a3f
00000320: ebd5 3d3f 1461 84be 8b3c edbe 7d50 8cbc
00000330: 50ba 973d c86c dd3d 19cc cb3e 8013 41be
00000340: e9fd b0bf e8d6 d43d 8e11 f2be a9a4 8bbe
00000350: 078e 2dbf 9c78 323e 681b 57bf 3867 c2be
00000360: b7f7 84bf b3da f83e 5108 c0bf be42 30bf
00000370: 6b99 6fbe c8bb 86be 0b9b fa3d 5f10 cc3e
00000380: 93e9 983f fcb9 53be 9dbd ebbe 7104 9bbe
00000390: 63d5 2a3f 81a0 80bc 94a1 ad3e 21a8 db3e
000003a0: 6d37 173b ffb8 43bf 4159 57bf d598 43bf
000003b0: ff88 f4bd b179 97be cd77 8cbe a193 5fbf

rnn.weight_hh_l0 f4 [60, 15]
0.15629235 -0.33001658 0.5383209 -0.17965578 -0.3237855 0.4106859 -0.23027368 -0.09810183
-0.19522978 -0.38123614 -0.4921692 -0.5054568 0.5054002 -0.13730511 0.6282997 0.3723942
-0.041385785 0.36090234 0.6161953 0.61484367 0.4423748 -0.44461957 0.04137835 0.6373166
-0.32040048 -0.0198322 -0.2745652 0.11466452 -0.024482587 -0.34777686 0.59970355 1.6487322
-0.18274866 -1.0967016 0.36118278 0.5740896 0.14758442 -0.95519674 0.22196704 -0.52172536
0.11384406 -0.47259313 0.55725527 -0.089507185 0.030900627 0.15782624 -0.12932838 0.87355006
1.1455894 0.76290464 -0.3506429 -1.8882152 1.279972 2.1754062 -1.7421594 -0.29491675
-0.048385337 0.11066694 -0.1761927 -0.27005714 0.3798516 -2.1145992 -0.873143 0.9729145
-0.42841542 0.087528124 -0.82685155 -1.1218415 0.3192117 0.5145797 0.77180904 0.99777406
-0.70615727 0.22272387 0.019460462 -0.25919124 -0.5114908 0.5270013 -1.7552832 -1.0161237
-0.3714572 -1.6412458 -1.5938269 -0.574896 -0.6160697 0.45066604 -0.01712306 -0.16270135
0.3612863 0.5766809 -0.85092354 -1.2372134 -0.17705077 0.24213064 -0.20140189 -0.40123728
0.8682527 -0.80571586 -0.65635616 0.65460014 -0.17579494 -0.06074286 -0.18990202 0.22526212
0.118368834 -0.015828297 0.0082351 -0.3789266 2.661611 0.7035948 -0.42015707 1.1230094
1.087029 0.7961273 -0.36277854 0.41652563 0.9418995 -0.36102542 -0.23406518 -0.29403433
0.14329262 -1.2331504 -0.4703363 0.68772733 -0.56478834 -0.013756038 -1.633446 -0.88735795
0.23574916 0.030931449 0.62619483 1.0311904 -0.54578304 -0.14823373 0.1546755 0.7857787
0.7801963 0.2911698 -1.1146749 -0.6707335 0.45316318 -0.94324327 -0.7961735 -0.19598234
0.21121377 1.0587977 0.70908207 -0.42449185 0.4228736 0.66336995 0.5078201 0.07596311
0.08576409 -0.4561833 -0.05238187 0.1880434 -0.38019142 0.19780974 0.16252883 -0.26755473
-0.6090567 -0.32780448 0.63248426 0.31179544 0.4402287 0.43994266 -0.08536118 0.06491127
-0.42411515 -0.08772119 0.17829487 -0.47530335 -0.013718988 -0.13568425 0.0035180564 -0.6211187
-0.47790945 0.46413964 -0.06850419 0.039836228 0.6211326 -0.214848 0.544481 -0.45949373
0.15962502 0.5206118 -0.5435381 0.05483999 -0.01340621 -0.37316266 -0.30193114 -0.37901804
0.58413756 -0.10436697 0.6078273 -0.45817137 -1.3534006 0.32310656 1.4340142 -1.2425749
-0.9026579 1.7054458 -0.15969962 -1.1466895 0.3798444 1.0256007 1.1284481 -0.88364476
0.4898789 0.5859714 -0.73751754 -1.8654865 -0.0028648823 1.6006289 -0.6242409 -0.5941406
2.5787678 0.6740964 -0.2941187 0.6747927 0.45188057 0.72115666 -0.34548363 0.62176275
0.003786713 0.5681491 -0.28630152 0.5080005 -0.39291415 -0.25943932 0.17573139 -0.3462238
0.25717443 0.08735785 -0.09015067 -0.5686945 -0.5499908 0.27763215 0.14180519 0.13937774
0.49952257 -0.17385913 0.55660063 0.21312922 -0.50014025 0.45323244 -1.1266605 -1.3924541
-0.13621873 -0.29649627 1.0043068 0.613934 -0.86051846 0.12425842 0.46908635 0.6164062
00000000: 1a0b 203e eff7 a8be 66cf 093f aff7 37be
00000010: 37c7 a5be 6c45 d23e ddcc 6bbe 9de9 c8bd
00000020: 51ea 47be 6231 c3be 9afd fbbe 9e65 01bf
00000030: e861 013f b699 0cbe 40d8 203f 74aa be3e
00000040: 2484 29bd 31c8 b83e fabe 1d3f 6566 1d3f
00000050: f37e e23e 2da5 e3be 587c 293d 2e27 233f
00000060: 880b a4be 2377 a2bc cf93 8cbe 3bd5 ea3d
00000070: b58f c8bc cf0f b2be 2c86 193f a809 d33f
00000080: 7722 3bbe b860 8cbf f3ec b83e 89f7 123f
00000090: 5f20 173e c687 74bf 544b 633e cb8f 05bf
000000a0: 1327 e93d baf7 f1be 48a8 0e3f 8b4f b7bd
000000b0: 5023 fd3c 349d 213e a96e 04be faa0 5f3f
000000c0: aca2 923f b84d 433f 7787 b3be 09b1 f1bf
000000d0: 1fd6 a33f db39 0b40 14ff debf 54ff 96be
000000e0: b42f 46bd 59a5 e23d dc6b 34be ee44 8abe
000000f0: e97b c23e 9855 07c0 4d86 5fbf ed10 793f
00000100: 4459 dbbe f241 b33d 8bac 53bf 8198 8fbf
00000110: b76f a33e 7fbb 033f 4795 453f 1f6e 7f3f
00000120: b9c6 34bf ba11 643e 8c6b 9f3c b7b4 84be
00000130: 10f1 02bf 8fe9 063f 1fad e0bf 5710 82bf
00000140: a32f bebe 5814 d2bf 8502 ccbf 622c 13bf
00000150: beb6 1dbf b3bd e63e a945 8cbc 2f9b 26be
00000160: 85fa b83e 5ca1 133f 20d6 59bf 025d 9ebf
00000170: cc4c 35be 18f1 773e 4c3c 4ebe f96e cdbe
00000180: cf45 5e3f 6543 4ebf f506 28bf e093 273f
00000190: 9703 34be 81cd 78bd ad75 42be 1dab 663e
000001a0: 5c6b f23d 58aa 81bc 83ec 063c ab02 c2be
000001b0: d657 2a40 ca1e 343f d41e d7be c6be 8f3f
000001c0: c423 8b3f 00cf 4b3f 1cbe b9be d942 d53e
000001d0: 5320 713f 53d8 b8be c8ae 6fbe ab8b 96be
000001e0: 4dbb 123e dfd7 9dbf ebcf f0be e60e 303f
000001f0: f895 10bf 0161 61bc c214 d1bf e429 63bf
00000200: 3a68 713e f363 fd3c 4e4e 203f 0cfe 833f
00000210: 70b8 0bbf 95ca 17be 4163 1e3e cb28 493f
00000220: f2ba 473f 3514 953e abad 8ebf 31b5 2bbf
00000230: 0105 e83e 6478 71bf 07d2 4bbf 98af 48be
00000240: 6c48 583e af86 873f 6786 353f ff56 d9be
00000250: e382 d83e 9dd2 293f 8000 023f 8c92 9b3d
00000260: 15a5 af3d dc90 e9be 5f8e 56bd 738e 403e
00000270: 73a8 c2be a38e 4a3e f56d 263e effc 88be
00000280: 24eb 1bbf fdd5 a7be 7dea 213f a7a3 9f3e
00000290: a865 e13e 2a40 e13e d8d1 aebd 33f0 843d
000002a0: 9f25 d9be 2ba7 b3bd ee92 363e f65a f3be
000002b0: 9bc5 60bc d0f0 0abe 318f 663b a301 1fbf
000002c0: 8cb0 f4be b6a3 ed3e ed4b 8cbd 502b 233d
000002d0: 8c02 1f3f 1d01 5cbe 1b63 0b3f c342 ebbe
000002e0: be74 233e d146 053f 5025 0bbf e69f 603d
000002f0: b8a5 5bbc 2d0f bfbe b896 9abe a70e c2be
00000300: 0a8a 153f 5abe d5bd 929a 1b3f 7095 eabe
00000310: 3b3c adbf 396e a53e c78d b73f b20c 9fbf
00000320: 9714 67bf 0c4c da3f 4c88 23be b9c6 92bf
00000330: f77a c23e e246 833f fd70 903f 8b36 62bf
00000340: 68d1 fa3e 3902 163f f3cd 3cbf 43c8 eebf
00000350: c0c0 3bbb 68e1 cc3f 40ce 1fbf 9919 18bf
00000360: 880a 2540 9591 2c3f ba96 96be 37bf 2c3f
00000370: e45c e73e b99d 383f 3be3 b0be d82b 1f3f
00000380: 802a 783b 3872 113f 1d96 92be 520c 023f
00000390: 0b2c c9be 3bd5 84be eef2 333e 3f44 b1be
000003a0: 5eac 833e ace8 b23d eaa0 b8bd f695 11bf
000003b0: 32cc 0cbf cd25 8e3e 6135 113e 0ab9 0e3e
000003c0: 6cc1 ff3e 2108 32be 617d 0e3f 8c3e 5a3e
000003d0: 3109 00bf 150e e83e 6936 90bf f03b b2bf
000003e0: ec7c 0bbe 5cce 97be 208d 803f c72a 1d3f
000003f0: f04a 5cbf 337b fe3d 162c f03e cccc 1d3f

rnn.bias_ih_l0 f4 [60]
0.5594288 0.14145978 0.08988515 -0.0716673 -0.20955588 -0.29258272 -0.15928572 -0.26784065
-0.38774157 -0.51096267 0.14618894 0.40011266 0.63251746 -0.48065215 -0.27402902 0.2146236
-0.69581807 -0.16648516 -0.3094572 -0.7450402 -0.5759693 -0.64117485 -0.022718586 -0.4574957
-0.3466851 0.18326817 0.3950414 0.36206925 -0.9933611 -0.7786784 0.4593982 -0.12438484
-0.23249821 -0.16678849 0.3475225 -0.05640663 -0.18304484 0.58122927 0.5666294 -0.120959565
-0.43873096 -0.5326756 0.25447252 -0.266516 -0.021912938 -0.4772006 0.10333918 -0.10267277
1.0443045 -0.26118562 -0.19842753 -0.109365724 -0.12324573 -0.53184116 -0.20142399 -0.1811523
-0.5248977 -0.124504335 -0.6912069 -0.193088
00000000: ba36 0f3f d5da 103e b515 b83d 4ec6 92bd
00000010: d195 56be 67cd 95be cc1b 23be 6922 89be
00000020: 1086 c6be 73ce 02bf 8eb2 153e 91db cc3e
00000030: aaec 213f 0a18 f6be 884d 8cbe 4ac6 5b3e
00000040: 2221 32bf 167b 2abe 2d71 9ebe f4ba 3ebf
00000050: b972 13bf 0924 24bf 541c babc e03c eabe
00000060: b680 b1be a7aa 3b3e de42 ca3e 2461 b93e
00000070: ea4c 7ebf 7857 47bf 3e36 eb3e 7bbd febd
00000080: 0314 6ebe 9aca 2abe 78ee b13e a30a 67bd
00000090: 1b70 3bbe 71cb 143f a00e 113f a6b9 f7bd
000000a0: 58a1 e0be 6e5d 08bf 394a 823e c974 88be
000000b0: c382 b3bc a353 f4be 7ea3 d33d 1a46 d2bd
000000c0: c5ab 853f 1fba 85be 9630 4bbe 23fb dfbd
000000d0: 4268 fcbd be26 08bf 1742 4ebe fd7f 39be
000000e0: b25f 06bf 21fc febd eff2 30bf dcb8 45be

rnn.bias_hh_l0 f4 [60]
0.25640512 0.04673791 0.18419147 0.102496564 0.10024364 -0.36679336 0.045702945 -0.29288477
-0.28998595 -0.32017544 0.13361047 0.529482 0.49441946 -0.88334095 -0.35901242 0.2526834
-0.89706594 -0.39254224 -0.18331358 -0.92105883 -0.6122115 -0.95291644 0.29794723 -0.4201852
-0.1723195 0.6558566 0.55229264 0.5969255 -0.9674765 -0.3440328 0.28954387 -0.26695433
-0.537606 0.28942782 0.35667408 0.14796232 -0.18471567 0.6013297 0.7475459 -0.12985748
-0.08021458 -0.34379697 0.12266768 -0.002953594 -0.144448 -0.48424652 0.02559275 -0.3141468
0.9830191 -0.30006066 -0.6653903 -0.2069989 -0.08544346 -0.5610318 -0.4194262 0.23581481
-0.49866647 -0.15959647 -0.68040675 -0.5270328
00000000: 8847 833e 4070 3f3d b09c 3c3e b8e9 d13d
00000010: 8a4c cd3d 57cc bbbe 0333 3b3d fef4 95be
00000020: 0a79 94be 09ee a3be 2fd1 083e 228c 073f
00000030: 8c24 fd3e a222 62bf 7ad0 b7be b85f 813e
00000040: 1da6 65bf 4cfb c8be 8eb6 3bbe 83ca 6bbf
00000050: e5b9 1cbf 55f2 73bf 8a8c 983e 8422 d7be
00000060: 8674 30be 38e6 273f 0d63 0d3f 1cd0 183f
00000070: 8aac 77bf 1125 b0be 183f 943e 3dae 88be
00000080: 8ca0 09bf e22f 943e fc9d b63e 6f83 173e
00000090: 1b26 3dbe bef0 193f 2b5f 3f3f 5cf9 04be
000000a0: 8b47 a4bd 2806 b0be 3139 fb3d 1691 41bb
000000b0: 2dea 13be 29ef f7be e3a7 d13c d9d7 a0be
000000c0: 24a7 7b3f 8da1 99be 0557 2abf 85f7 53be
000000d0: fbfc aebd c89f 0fbf 08bf d6be 7079 713e
000000e0: 3651 ffbe 426d 23be 232f 2ebf 9feb 06bf

fc.weight f4 [4, 15]
0.07170731 0.5880148 0.65297616 -0.7044594 0.40502593 0.33448413 -0.1722631 -0.14553775
-0.16583739 0.7980116 -0.28303218 -0.68013155 0.511794 -0.25874898 -0.651737 0.4506933
-0.19153626 -0.8301194 -0.14784941 -0.02581878 0.3097829 0.1271351 -0.3249621 -0.07851428
0.3867197 0.21895404 0.012469996 0.44681907 -0.1283485 0.04760733 -0.232442 -0.2773527
0.28416106 -0.14993897 -0.6337736 -0.07028922 0.06333832 0.13529451 -0.23376513 0.49965382
-0.5959885 -0.1945793 0.32601154 0.20125768 -0.08988456 -0.06394976 0.0921463 0.43220234
0.18272091 0.5712896 0.07870075 0.67957824 0.16579857 0.27197665 -0.20300446 -0.55887544
-0.20866498 0.26385903 0.18349847 0.44343483
00000000: 48db 923d 2388 163f 7229 273f 7457 34bf
00000010: 8f5f cf3e 8141 ab3e bd65 30be d907 15be
00000020: 47d1 29be 7d4a 4c3f 98e9 90be 1a1d 2ebf
00000030: ee04 033f bf7a 84be 3cd8 26bf 46c1 e63e
00000040: 1522 44be b482 54bf d665 17be e881 d3bc
00000050: dd9b 9e3e b42f 023e 6f61 a6be 18cc a0bd
00000060: 2000 c63e 7d35 603e f44e 4c3c 78c5 e43e
00000070: ca6d 03be e7ff 423d 4705 6ebe 2c01 8ebe
00000080: 8f7d 913e 9a89 19be fd3e 22bf cbf3 8fbd
00000090: 85b7 813d a58a 0a3e 2060 6fbe a0d2 ff3e
000000a0: b492 18bf cc3f 47be fcea a63e 7e16 4e3e
000000b0: 6515 b8bd 17f8 82bd 33b7 bc3d a049 dd3e
000000c0: 311b 3b3e 0940 123f dc2d a13d d7f8 2d3f
000000d0: 1ac7 293e 8640 8b3e 67e0 4fbe 7612 0fbf
000000e0: 46ac 55be 8818 873e 06e7 3b3e e409 e33e

fc.bias f4 [4]
0.07759145 0.14197604 0.17348333 0.1834985
00000000: 44e8 9e3d 2b62 113e 9da5 313e 08e7 3b3e
