checkpoints/without_NUE/nonlinear_signals_model_weights.pth (torch_old, 6566 bytes, 6 tensors)

rnn.weight_ih_l0 f4 [60, 5]
00000000: df20 8e3e d373 4fbf de86 af3e 2faf 083f
00000010: 76a5 8fbf 77ef 2f3f 155a 493f d32c e33e
00000020: ea4b 6e3d 73d0 82be 67a2 b63e 8d30 583e
00000030: d1b9 6f3e 5f94 443e 092e b5bc 13b8 81bf
00000040: 27aa b4be 5874 87bd 7f09 7fbb 7ce5 66bf
00000050: f980 0e3e dd82 023e 3f12 b23e 69f1 e63e
00000060: d7d1 bf3e e2c7 673d 6323 a93e 6e84 c33e
00000070: cc3a 893e e27b 063f c9f3 18bf 1bd3 733e
00000080: d17a 26bd f830 ca3d 1503 6fbe 0d15 a03e
00000090: 8b0d f43e 2083 9a3e 2b9a fb3e dab0 173e
000000a0: e3f0 7d3f d555 e8be 14ec ed3e 2988 0d3f
000000b0: 5de0 743f 94e1 ed3e c4e5 9c3f f0a3 423d
000000c0: 33e8 113d 3e8d 403f eabe 8b3e 3f31 ad3e
000000d0: c852 c13e dcc4 d83e 80a9 363e 24b2 f73e
000000e0: e0b1 e43e ac26 863e 4928 883e 58c5 823e
000000f0: 4a0a 9d3e 6915 5f3f 8ff0 b33e 125e 36bd
00000100: dffd 853e b68d f5bd fa6c ea3e 5283 dd3e
00000110: a961 b73e 7bf5 c13e 967e dabf 9d7c 44be
00000120: c27b 283e 5529 e63d 74fe cebe 4266 313f
00000130: ea3b 36bf 7974 b83e 3cef 083f 2fc7 77bf
00000140: d39f 933e c78f 683e f95e 873d 2883 8cbe
00000150: 31dc 4bbf f4a0 813e ecdd 453e eb04 bb3e
00000160: 748c dd3e 55d0 463e 35cd 43bf 184f 92bd
00000170: 9e2e 93be 6989 a6be cdb4 dabe 173e f13e
00000180: 7d8a 9d3e d1b5 5d3e 35ee 303e ed6e f43e
00000190: 3956 383e 2fb1 b73e 9c08 953e 44fc 653e
000001a0: 3fdd b63d 4442 d5be 9ea3 ab3e 4d97 5c3d
000001b0: d3d1 5abe fa3a 74be 184a 883e c485 a53e
000001c0: bf35 083f 9dc5 0f3e 8159 6b3e 42c1 8b3f
000001d0: 7380 31bf b723 b6bc dff4 813e 1e62 843e
000001e0: ddfc 43be 532b 073f 2665 6bbe 4013 f43d
000001f0: 1d1e 693d d518 3a3e f6c0 303f 5d24 833d
00000200: 53fa f63e d6f0 be3e a778 c33e e355 ae3e
00000210: 65b7 a63e 5f59 b23e b3fd 943e 220c afbd
00000220: 8f75 083e 7cc9 0e3e ff2d 43be f7ac e1be
00000230: 75d3 afbf c06d c73e c6dd d4be 3bfb 9fbe
00000240: 81cb 343f dd1c 86bf cd7e 08bd 95d9 8abe
00000250: 8498 b6be 4eea 64be 99f5 7cbf 170d a83d
00000260: ff3e 9bbe 07b9 63be 1aae a4be 3215 0f3f
00000270: 33bc 283e e97e 633e 67c6 fdbd d9c1 283e
00000280: 1b3f 72be 5d14 8bbe 4047 2abe efef 9bbe
00000290: 9206 3abe 46bc d5bd dab5 9c3f 8b3e eb3d
000002a0: 87b2 013e 5bd8 8fbe 5b78 96be d68c 19bd
000002b0: 69f0 34be c01e c9be 9d14 36be f0a7 d43e
000002c0: 7a73 1b3e f75a 383e bdf5 963e 87ac 563e
000002d0: b0d4 fabd 100d df3e cfeb c2be fa04 9fbe
000002e0: 2854 ba3e 2c63 ccbd 987a 8ebd 171e 9abe
000002f0: 8cf5 d7bd 5609 31be 4ab2 a63f 0e71 38be
00000300: 9b64 6abd 920d c8bd 5fae bebd 79d1 53be
00000310: 0c03 80be d04a edbd c65b b0be a53d 90be
00000320: ff78 53be d9c1 dbbe 1c71 c5be 3b7c a6be
00000330: 6697 70be fe00 a03e 0c27 bf3e dbad 393e
00000340: 8ba9 c43e f9ab 2a3e afa7 61be 3a16 293f
00000350: de7d ea3e 5fd0 97be e46a 62be 44df 85bf
00000360: 9774 82be b7c3 0d3e 6f7b 5b3c 44a0 96bc
00000370: ea0c 22be ac88 6bbf f440 38bf 1644 debe
00000380: 7d23 18bf 8179 e6be f35d b8bf f51a 55be
00000390: ba51 113f ee5d 83bf ffb9 21bf d4ed 8abf
000003a0: 0320 843c d5e2 833d 9600 303e 6718 5e3f
000003b0: dad3 5fbf 6d0a f73d d422 c63e 0f89 cdbb
000003c0: d147 3abf 3c83 31be f6b8 92bd 3e3b ec3d
000003d0: 3fd7 cabe 85ba a13f 84f0 78bf 1f15 d63e
000003e0: e005 99be eddb ba3e 313f 28be 26c5 ddbf
000003f0: 9b31 d6bd 3ddd 9f3e 3c2d 9dbd c313 acbe
0.27759454 -0.8103611 0.34282583 0.5339231 -1.122237 0.6872477 0.7865308 0.44370136
0.058177866 -0.2554966 0.35670778 0.2111227 0.23410727 0.19197224 -0.022116678 -1.01343
-0.35286066 -0.06613988 -0.0038915572 -0.90193915 0.13916387 0.12745233 0.34779546 0.45106056
0.37464783 0.056587107 0.3303481 0.38186973 0.2680267 0.5253278 -0.59746987 0.23810999
-0.04064447 0.09872621 -0.2334102 0.3126606 0.47666582 0.30178165 0.49141058 0.14813557
0.9919569 -0.45377985 0.46469176 0.5528589 0.9565485 0.46461165 1.2257619 0.047519624
0.035621833 0.7521552 0.27294093 0.33826634 0.3775847 0.42337692 0.17838097 0.48378098
0.44666958 0.2620138 0.26593235 0.25541186 0.30671912 0.87142044 0.3514447 -0.044523306
0.2617025 -0.1198992 0.45786268 0.43264252 0.35816696 0.378826 -1.7069881 -0.19188161
0.1645346 0.11238352 -0.40428507 0.6929666 -0.7118517 0.36026362 0.5349004 -0.96788305
0.28832874 0.22711097 0.066099115 -0.27443814 -0.7963286 0.2531811 0.19322938 0.3652719
0.4327122 0.1941541 -0.76484996 -0.07143992 -0.28746504 -0.3252671 -0.42716065 0.47117683
0.3076972 0.21651389 0.17278369 0.4774088 0.18001641 0.35877368 0.2910813 0.22459513
0.08928918 -0.4165212 0.33523268 0.05385523 -0.21369104 -0.23850623 0.2661903 0.32328618
0.5320701 0.14040227 0.22983362 1.0918353 -0.6933662 -0.022233827 0.25382134 0.25856107
-0.19139428 0.5280048 -0.22987804 0.11917734 0.056913484 0.18173535 0.69044435 0.0640342
0.48237857 0.37293118 0.38177988 0.340499 0.32561794 0.3483381 0.29099807 -0.08547236
0.13326095 0.13944048 -0.19060515 -0.44077274 -1.3736407 0.3895092 -0.4157545 -0.3124636
0.7062302 -1.0477558 -0.03332405 -0.27119127 -0.35663235 -0.22355005 -0.9881225 0.08205622
-0.303215 -0.22238551 -0.3216408 0.55891716 0.16478042 0.22216381 -0.12391358 0.16480197
-0.23656885 -0.27163973 -0.16628742 -0.30456492 -0.18166569 -0.10436301 1.2242997 0.114865385
0.12665759 -0.28094754 -0.293887 -0.037487827 -0.17669834 -0.39281273 -0.17781301 0.41534376
0.1518077 0.1800345 0.29484358 0.20964251 -0.12247598 0.43564653 -0.38070533 -0.31058484
0.3639233 -0.09979853 -0.06956977 -0.30101082 -0.10544881 -0.17288718 1.302316 -0.18011877
-0.05722485 -0.09768213 -0.093106024 -0.20685376 -0.25002325 -0.11586535 -0.34445018 -0.2817203
-0.20651625 -0.42921332 -0.38562858 -0.32516655 -0.23495254 0.31250757 0.37334478 0.18132727
0.384106 0.16667165 -0.22036622 0.6604954 0.45799154 -0.29651162 -0.22111088 -1.045876
-0.25479576 0.1384419 0.013396128 -0.018386967 -0.15825239 -0.9200542 -0.7197411 -0.4341132
-0.5942915 -0.45014575 -1.4403671 -0.20811065 0.5676533 -1.026304 -0.6317443 -1.0853829
0.016128546 0.06439749 0.17187724 0.86755985 -0.87432635 0.120625354 0.38698447 -0.006272442
-0.72765833 -0.17335218 -0.07164185 0.11534737 -0.39617345 1.2635046 -0.97242 0.4181299
-0.29887295 0.36495915 -0.16430356 -1.732579 -0.1045868 0.3122348 -0.076746434 -0.33608827

rnn.weight_hh_l0 f4 [60, 15]
00000000: 6042 15bf 2116 37bd 6eaf f3be 611c 0cbf
00000010: 8c81 bebd a8cb 85bd eb1f a2be 0a1b b83e
00000020: 9ee0 0e3f 42c7 303f 6b43 3bbe 5625 d9bd
00000030: f391 4bbf c510 ccbd e0d7 a23e 50ba 4abe
00000040: 661e 26bf d6fe 2abf ab3a bdbe 8a9f 2ebf
00000050: 2c8c 7e3e 965f b4be 44aa 72be ed61 4c3f
00000060: 58bf d23e 68ed e8be 6343 343e aad5 063f
00000070: 2217 6fbd 5011 9ebe b951 b6be fea8 fd3e
00000080: e355 23be 75b7 9ebe 0d0c 67bd b48e 9e3e
00000090: f267 d2be 9b5b 1cbe db68 f13e e2b7 103d
000000a0: 2763 b4be b50b c93e 91c2 923e 4ed6 8abe
000000b0: 31ab 113e 786c 093e fb2d bfbe 4c0d 39be
000000c0: ac67 debd 8674 bf3e 602d 88bd aad9 76be
000000d0: d8b9 ae3d 100c 453f 8813 8d3e b45b 3dbd
000000e0: fe9a 433e ef57 5cbe 6210 bc3d f492 8b3b
000000f0: e83c d3be df83 793e c8fb 15be 7607 aebe
00000100: adcf 6ebe ba75 863e 4fce e4bd 171d b0be
00000110: 1561 913d 933b b43c ce31 01bf 6f66 003f
00000120: ca26 bc3d dde3 a93d 5834 cc3d dbeb bf3b
00000130: f986 733e d9a5 b2be 083a 0b3d 13bb 17be
00000140: a48d 803e ad39 83be 0656 ebbe 09e3 d63e
00000150: 91ef 8fbd 2715 a1be 89c2 a73e 80e4 9d3e
00000160: 0d45 a23d 8cad 9a3d a220 9d3e 1478 c7bd
00000170: 7b50 9c3e 9862 1f3e 37c9 d23e f108 3e3e
00000180: 573c 55bb 8855 ff3e 303a bebf cb56 03bf
00000190: b2cf 8d3e b412 bdbe 62aa f2be 0d4a 3bbe
000001a0: 045d 06bf 32b3 8bbb 9863 e13d c136 a5be
000001b0: bfd9 75be 6fed 78be 82e6 bf3e 1768 893d
000001c0: ac0a 79be 99a0 2b3e eb9b 66be 9d32 69be
000001d0: 63e7 ef3e 2b7d fcbc 44df bbbd d368 963d
000001e0: 8d9c 38be 3f25 f43e c305 853d 48b7 07be
000001f0: b212 37be a7ae 193e 2d6f 833e 0f98 02bf
00000200: 64b6 2a3f 3c18 45bf a5bb 033d d05c da3e
00000210: 1abe 0f3e 31f3 5cbf cee1 f13e fb86 e9bd
00000220: 96f4 08be 560b 92be 5c8b cfbe 3546 d63c
00000230: 8562 b7be ae19 bb3d 1502 03bf 680b c33f
00000240: b67d 0d3f e3f6 7abe a0e3 263e 4e3d 3b3f
00000250: 963f 7ebe 1bda fa3e d59c 02bf 4c50 cb3e
00000260: c1e0 06bf e316 34be 6297 dbbe 4fcf 833e
00000270: b5df 92be 87ae 81be 932e 4b3d c647 83be
00000280: 999f 04bf 36a6 f53e 6723 cf3e e190 1a3e
00000290: 8855 8e3e a16a ddbe 75d1 6d3e d197 53be
000002a0: b02e 20bd 3bdc 5cbe 87b1 e13e b6f2 c8be
000002b0: 968a 04be f55b 683e 94d0 06be f3b4 1cbe
000002c0: 9b67 ad3e 8911 ba3e 0475 9ebe dc4d 033f
000002d0: 98ca d13e 9b83 99be 7512 3cbe 3a6f f8be
000002e0: 7932 e6bc e575 65be 3d92 813c a332 c8bd
000002f0: d85c 53bf 3118 543e a1e2 fa3d d918 87be
00000300: 4a63 f13d 506c 00bf 9f20 013d e4d1 293e
00000310: b4f9 953e 3b90 dabd 72e3 c23e 6bf9 e9be
00000320: 2afa 313e 65b7 62be 0e54 f1be 82b7 64be
00000330: aace 4bbd 10af 79bb 6142 a33e f144 e83e
00000340: b33e 54bf 2257 1abf bccf 4ebc 85fd 33bd
00000350: 2993 383e d180 ee3d 6914 143f 3c78 033e
00000360: cd4e d13d 5a2d 193e 57f2 f6bf f4db 20bd
00000370: c7cf 903e 2f74 513d be26 d3be 309f 2e3e
00000380: ecd4 39bf d5de e1bd 775f 82bd 3664 87be
00000390: 0317 14bf d1c2 e2be 5bcf 183e 320e 2abe
000003a0: 05ed 3abe 2dad b03f b301 bf3e 7a14 b5be
000003b0: 0926 9b3d dca2 1f3f e552 f7be 01e2 c83e
000003c0: a517 1d3f 19e6 74bf 6608 9a3e 95c4 97bf
000003d0: 4384 e63d 2667 71be df96 36be b936 823e
000003e0: 8871 893f 7a4f 5a3f 11e4 8b3e 0074 cebe
000003f0: 141b 073f bb15 903e 0369 a23e 0fac f3be
-0.58304405 -0.04469884 -0.4759478 -0.547308 -0.09302053 -0.06532985 -0.31664976 0.3595813
0.5581149 0.69054043 -0.18287437 -0.106028244 -0.79519576 -0.09964136 0.31805325 -0.19797635
-0.64890134 -0.667951 -0.36958823 -0.6821219 0.24858159 -0.35229176 -0.23697764 0.7983692
0.4116161 -0.45493627 0.17603831 0.52669775 -0.05837167 -0.30872583 -0.35609224 0.49542993
-0.15950732 -0.30999342 -0.056407977 0.3096825 -0.4109493 -0.1526932 0.4715031 0.035331614
-0.35231897 0.39266744 0.28664067 -0.27116627 0.1422546 0.13420284 -0.37339768 -0.18071479
-0.108596176 0.37393588 -0.066492796 -0.2410647 0.08531541 0.7697153 0.27553964 -0.046230033
0.19102094 -0.21517919 0.09182812 0.0042594615 -0.41257405 0.24366711 -0.14646828 -0.33990067
-0.2332141 0.26261693 -0.11172163 -0.34397194 0.07098595 0.022001063 -0.5046662 0.501563
0.09187086 0.082954146 0.09970921 0.0058569736 0.23781957 -0.34892157 0.03399089 -0.14817457
0.25108063 -0.2562994 -0.45964068 0.4197009 -0.070281155 -0.3146145 0.32765606 0.30838394
0.07923327 0.07552633 0.3068896 -0.097397 0.30530152 0.15564954 0.4116914 0.18558098
-0.0032537186 0.49869943 -1.4861507 -0.5130431 0.2769752 -0.36928332 -0.47395617 -0.18289967
-0.5248568 -0.004263305 0.11005324 -0.32268336 -0.24008845 -0.24309324 0.3748055 0.06709307
-0.24320477 0.16760482 -0.22520415 -0.22773214 0.46856222 -0.030821403 -0.09173444 0.073442124
-0.1802847 0.47684667 0.064952396 -0.1325351 -0.17878225 0.15008031 0.25670758 -0.51013273
0.66684556 -0.76990104 0.032161374 0.42648935 0.14037362 -0.8630858 0.47242588 -0.114026986
-0.13374552 -0.28524274 -0.4053601 0.026156524 -0.35817352 0.091357574 -0.5117505 1.5237856
0.55269945 -0.24508242 0.1629777 0.7314042 -0.24828944 0.48994526 -0.51020557 0.397097
-0.526867 -0.17586856 -0.42888933 0.257441 -0.286863 -0.25328466 0.049604964 -0.25640696
-0.51806027 0.4797837 0.40456697 0.1509433 0.2779963 -0.43245414 0.23224433 -0.20663382
-0.039107025 -0.21568386 0.44080755 -0.39247674 -0.12943491 0.22691329 -0.13165504 -0.15303402
0.33868107 0.36341503 -0.3094865 0.5129068 0.4097488 -0.2998322 -0.18366416 -0.4852236
-0.02810024 -0.22408254 0.015816802 -0.09775283 -0.82563543 0.20712353 0.12250257 -0.26386145
0.11786516 -0.5016527 0.03152525 0.16583973 0.2929207 -0.10672041 0.38064152 -0.45698103
0.17380586 -0.22140272 -0.4713444 -0.22335628 -0.049757637 -0.003809873 0.3188658 0.45365098
-0.8290817 -0.60289204 -0.01262277 -0.043942947 0.18024887 0.116456635 0.57843643 0.12838835
0.10220108 0.14958706 -1.9292706 -0.039272264 0.28283522 0.051136192 -0.41240495 0.17052913
-0.7259052 -0.1102883 -0.06365865 -0.26443642 -0.57847613 -0.44289258 0.1492285 -0.16606978
-0.18254478 1.3802849 0.37305984 -0.35367185 0.07575614 0.6235788 -0.4830543 0.39234927
0.61364204 -0.956636 0.30084532 -1.1856867 0.11255696 -0.23574504 -0.1783099 0.25432375
1.0737772 0.8527752 0.27322438 -0.40322876 0.5277569 0.2814158 0.31720743 -0.47592208

rnn.bias_ih_l0 f4 [60]
00000000: 41e0 763d fbc0 e23e d7c4 d73e f855 7d3c
00000010: f48c ad3e 70c6 e73e 6d8f 263e 3322 ef3d
00000020: 8cd7 10bd 1c67 253d d977 1f3e 5cd6 db3e
00000030: 8e5a 73bd 341e 493e d6ea a7bd cbff 893d
00000040: 2d5a d9be fafd f33d a953 03be feb0 6e3e
00000050: 12b4 2f3e 12f1 9fbe ba99 dd3d 72f2 c7be
00000060: 9065 f33c 206b 313e 856b 623e 9fa7 a8be
00000070: 001b b7be 38d5 8ebd 2191 08be 96ca 24bc
00000080: 5b5d d2be 533e d43c 1d2a 94be d145 4d3e
00000090: d4bd 1bbe 01cb 97be 33e1 5e3d 47ac b9be
000000a0: 1efa 4ebd 8ef7 023f 8e49 123e 5f7f 11be
000000b0: bc6b dbbe 5bca aa3d e28e f33d fcd6 6dbb
000000c0: 2901 47be 3ce1 55be 1f40 393e a8a4 213e
000000d0: 6b9b d6be 35bd 033f a13b 513d 2955 9bbe
000000e0: 4c73 e0be 2771 9cbe 1fdc cb3e a322 853d
0.06027246 0.44287857 0.42142364 0.015462391 0.338966 0.45268583 0.1626565 0.11676445
-0.03536181 0.040381536 0.15573062 0.4293698 -0.05941253 0.19640428 -0.08199088 0.06738242
-0.4245161 0.119136766 -0.12824883 0.23309705 0.17158535 -0.3123861 0.10820337 -0.3905216
0.029711515 0.17326021 0.22111328 -0.32940385 -0.35762787 -0.06974262 -0.13336612 -0.010058066
-0.4108685 0.025908625 -0.2893838 0.20046164 -0.15209132 -0.29647067 0.054413985 -0.3626425
-0.0505315 0.5115899 0.14285871 -0.14208744 -0.42855632 0.083393775 0.11892487 -0.003629147
-0.19434036 -0.20886701 0.18090867 0.15785468 -0.4191545 0.5146058 0.051082257 -0.3033841
-0.43837965 -0.30555078 0.39816377 0.06500747

rnn.bias_hh_l0 f4 [60]
00000000: a90b e53e 851b b63d 1381 d93d 50c2 883c
00000010: 2f3e e93e 7e97 683e 892f 2abe 0015 c03e
00000020: 4e51 da3e 79e0 593e 62e0 1e3e 39fa d43e
00000030: 2865 293e 9a2b 343e a447 d4bd 327e 68bc
00000040: 54b0 9dbe a874 5c3e e3ca 95be 271f bb3e
00000050: 6427 a53d 3dc9 b1be b803 053f b392 c1be
00000060: 9763 9e3d ea57 a53d 0162 063f 9908 93be
00000070: 49c9 d1be 34fb cc3d b5df 8ebe 8145 793e
00000080: 310f d0be 24b9 2b3e 5d72 c9be 8348 ba3e
00000090: 8ee5 99be 2b70 b3be dccc 88be fc54 68be
000000a0: 1342 b0be a50c 653e 9c22 153e a588 6d3e
000000b0: 11ec c5be 7cb6 6b39 f67f a53e 0a9d 42be
000000c0: da26 66be aaac a1be c71b 3e3e 28ee abbc
000000d0: 282e bfbe acc4 203f 9c00 f5bc 9f2a e73d
000000e0: ba5e 903c c8b6 34be bab8 9c3e 1680 60bd
0.44735458 0.08891968 0.10620322 0.016694218 0.45555255 0.2271404 -0.16619696 0.37516022
0.42640156 0.21277036 0.15515283 0.41597155 0.16542494 0.17594758 -0.10365227 -0.014190244
-0.3079859 0.21528876 -0.29256353 0.36547205 0.08064154 -0.34723845 0.519588 -0.37807235
0.07733839 0.08073409 0.5249329 -0.28717497 -0.4097388 0.10008851 -0.2790505 0.2434292
-0.4063659 0.16769844 -0.39345065 0.36383447 -0.3005795 -0.35046515 -0.26718795 -0.22688669
-0.3442541 0.22368105 0.14563984 0.23196657 -0.38656667 0.00022479327 0.3232419 -0.19005218
-0.22475758 -0.31577045 0.18565284 -0.020987585 -0.37339902 0.628001 -0.029907517 0.11287426
0.017623294 -0.1764785 0.30609685 -0.054809652

fc.weight f4 [5, 15]
00000000: babc 233e c658 4fbd 9be4 f0be 7483 68be
00000010: e353 cabe 54f6 d6bb 2863 59be 7100 1fbe
00000020: 114b c73e 4c32 733e 0b98 babe d104 cebc
00000030: a503 68bd 2bbe 26bf 034d c73e 9a6b ae3e
00000040: 9765 dabe f8ab 3cbe 9f52 e2bd b9cc 8d3e
00000050: 3e60 22be bf0f bfbe d217 50be 6d9e 0c3f
00000060: 03fd 203e ced7 c63d 49ec 083f 495b e0bd
00000070: 4831 c43e 2bd8 4dbf 6492 2b3d 24a5 fd3d
00000080: 05ff aabe c9ad 4abc e551 88be 5647 9d3d
00000090: f3a0 c8be 66a1 a5be dd7b 613d ea5c 7d3e
000000a0: 3218 7dbe 86e3 84bd 127f 413e 0235 6a3c
000000b0: e786 c3bd 45e4 dcbe ec1a 013f 2c5a abbe
000000c0: 335d 9a3d 18f1 3cbe 6300 ed3e 5803 b63d
000000d0: 2f55 3a3e fa2b bbbe 11c4 9abe 152c c0be
000000e0: 17c3 c8bd 3b10 c6bd 1034 c7bd 5e0e 163f
000000f0: 24a9 823e b644 1ebd a7fe 013e beb5 8bbe
00000100: a223 14be fbdd 94bd ab48 933e 517c d6be
00000110: 5fa2 1bbd 7eb3 10bf fc55 91be a967 db3e
00000120: 2291 a03e 17db 9fbd 0ec1 d3bd
0.15989962 -0.05062177 -0.47049412 -0.22706395 -0.39517125 -0.0065601263 -0.21229231 -0.15527512
0.3892446 0.23749655 -0.36444125 -0.025148781 -0.0566441 -0.65133923 0.38925943 0.34066468
-0.42655632 -0.18424976 -0.11050915 0.27695253 -0.15857026 -0.373167 -0.20321587 0.5492924
0.15721516 0.0970913 0.5348554 -0.10954911 0.3831885 -0.8040797 0.041887656 0.12385014
-0.3339769 -0.012370535 -0.2662498 0.07679622 -0.39185295 -0.323497 0.055049766 0.24742475
-0.24716261 -0.06488709 0.1889613 0.014294865 -0.09547215 -0.43142906 0.50431705 -0.33467233
0.075373076 -0.18451345 0.46289358 0.088873565 0.18196557 -0.3655699 -0.30227712 -0.37533632
-0.098028354 -0.096710645 -0.09726727 0.5861567 0.2551967 -0.038639747 0.12694798 -0.27287096
-0.14466718 -0.07268902 0.2876638 -0.4189172 -0.037996646 -0.56523883 -0.28385913 0.42852524
0.31360728 -0.0780546 -0.10339557

fc.bias f4 [5]
00000000: 1094 f13d 91e0 473e 6612 8e3c d0d2 903c
00000010: 6e10 413d
0.11795819 0.19519259 0.017342757 0.017678648 0.04713481
