checkpoints/without_NUE/nonlinear_signals_model_weights1.pth (torch_old, 6261 bytes, 6 tensors)

rnn.weight_ih_l0 f4 [60, 4]
0	0x3b2f3b97	0.00267384
1	0x3b3b23ad	0.00285552
2	0x3b125d03	0.0022333271
3	0x3b3e3915	0.0029025723
4	0x3e7d57fe	0.24740598
5	0x3e756f32	0.23968199
6	0x3ec79a92	0.38985115
7	0x3e057f07	0.13036738
8	0xbbfbf024	-0.007688539
9	0xbbfa879f	-0.007645562
10	0x3bc0f03b	0.0058880127
11	0x3a7ca0c8	0.00096369954
12	0x3b3721f6	0.0027943826
13	0x3b61986e	0.003442313
14	0x3b656534	0.0035002949
15	0xbb3f0f32	-0.0029153344
16	0xbd259058	-0.04042086
17	0xbd2ceeb1	-0.04221982
18	0xbd7371fe	-0.059434883
19	0xbb5d6cd3	-0.0033786788
20	0xbbb69d09	-0.0055729193
21	0xbbc21b03	-0.00592363
22	0xba83e7e2	-0.0010063613
23	0xba4963a1	-0.00076823874
24	0x3e48fecc	0.19628447
25	0x3defcca1	0.11708952
26	0x3e87fbfb	0.26559433
27	0x3e1bb956	0.15207419
28	0x3b959d42	0.0045658657
29	0x3b920ed0	0.004457332
30	0x3c077f9f	0.008270173
31	0xb9b39c4e	-0.00034257997
32	0x3c57fae8	0.013182379
33	0x3c4c9533	0.012486744
34	0x39a07603	0.00030605504
35	0xbc036a9a	-0.008021021
36	0x3e202920	0.15640688
37	0x3e0bfb80	0.13670158
38	0x3e5fb68e	0.21846983
39	0x3dcee69a	0.101025775
40	0xbd3cb57b	-0.04607151
41	0xbd45f1f6	-0.048326455
42	0xbd8e9831	-0.06962622
43	0xbc018880	-0.007906079
44	0x3e052b67	0.13004838
45	0x3e407e05	0.18798073
46	0x3e9637ef	0.2933955
47	0x3e2995ed	0.16561098
48	0x3ba19859	0.0049314913
49	0x3ba9b339	0.0051788357
50	0x3b906deb	0.0044076345
51	0x3a734f44	0.0009281526
52	0xba6420f2	-0.0008702419
53	0xb88f650f	-6.837595e-05
54	0xbbde8bf9	-0.0067915884
55	0x3be2fac0	0.0069268644
56	0x3a357dc6	0.0006923344
57	0x3b6f9458	0.0036556926
58	0x3c71f18b	0.014767061
59	0x3c9ca044	0.01911939
60	0xba94ea1d	-0.0011361275
61	0xba719ccd	-0.00092167855
62	0x3b702b31	0.0036646838
63	0x3af96099	0.0019025981
64	0xbc3414e6	-0.010991311
65	0xbdc04466	-0.09388046
66	0xbdfefcc0	-0.12450552
67	0xbce4440f	-0.027864484
68	0xbbe40c07	-0.0069594416
69	0xbbead013	-0.0071659177
70	0xba971099	-0.0011525332
71	0xba97773d	-0.0011555922
72	0x3b7376b7	0.0037149617
73	0x3b8d61df	0.0043146457
74	0x3b9453d3	0.004526594
75	0xbbd59031	-0.006517433
76	0xbd0d792f	-0.034539398
77	0xbd10ca60	-0.03534925
78	0xbd66dcef	-0.056363042
79	0xba0002d7	-0.00048832357
80	0xbc17afa3	-0.009258184
81	0xbc1c70e8	-0.009548403
82	0xba81ef2d	-0.0009913199
83	0xb90e08d6	-0.00013545467
84	0xbc46997c	-0.012121554
85	0x3ce56cbc	0.02800595
86	0xbd40e3b7	-0.047092166
87	0xbb96c76a	-0.0046014087
88	0xb9ab7a00	-0.0003270656
89	0xb99ad70b	-0.00029533388
90	0x3c2957b6	0.010335853
91	0xba2cbcd4	-0.0006589417
92	0x3c80d550	0.015726715
93	0x3c758063	0.014984223
94	0x3b5302d1	0.0032197724
95	0xbc1b2acf	-0.009470656
96	0xbd6279f7	-0.055292096
97	0xbda8a97c	-0.082354516
98	0xbe07f1cc	-0.13275832
99	0xbd45c56e	-0.048283987
100	0xbd1ddd23	-0.03854097
101	0xbd231662	-0.039816268
102	0xbd843c39	-0.06456799
103	0xbb83efbf	-0.0040263827
104	0x3d2917d7	0.0412825
105	0xbd4d0fe6	-0.05006399
106	0xbd1484b5	-0.03625937
107	0x3d167f42	0.036742456
108	0x3b1361eb	0.0022488784
109	0x3b37e493	0.0028059825
110	0x3be0ac06	0.0068564443
111	0xba2b8e3f	-0.00065443286
112	0xbba4deb0	-0.005031429
113	0xbb896b73	-0.004193717
114	0x389ca87c	7.470042e-05
115	0x3b9d7cf5	0.004806156
116	0xbd2988b3	-0.041390132
117	0xbcf81202	-0.030282024
118	0xbd5f9480	-0.05458498
119	0xb7c2d5a4	-2.3226086e-05
120	0xbb672c1c	-0.0035274094
121	0xb9b3bc9f	-0.00034282074
122	0x3c060f1d	0.008182314
123	0x3ca0d558	0.01963298
124	0x3fc8f40c	1.5699477
125	0xbc5ca6ba	-0.013467485
126	0xbe209fbf	-0.15685938
127	0x3c52ba7a	0.012861842
128	0xba2ab862	-0.00065124605
129	0xba3ff31a	-0.0007322297
130	0xbc4599ab	-0.012060563
131	0xbc0e7056	-0.008693775
132	0x3c1d7238	0.009609751
133	0xbb005f81	-0.0019588175
134	0xbbb037e3	-0.005377756
135	0xbc11a825	-0.008890186
136	0x3c63a061	0.013893218
137	0xbac56fd9	-0.001506324
138	0x3c4b4be9	0.012408235
139	0x3cd22781	0.025653603
140	0xbb978dfc	-0.00462508
141	0xbbfbc577	-0.0076834518
142	0x3bc61af9	0.006045696
143	0xbba3f756	-0.00500385
144	0x3f199a19	0.6000076
145	0x3c911e0c	0.017714523
146	0xbe988d4f	-0.2979531
147	0xbdec5df4	-0.11541358
148	0x3b77eba6	0.0037829666
149	0x398ceae0	0.00026877876
150	0xbc31de08	-0.010856159
151	0xbc71cb4b	-0.0147579415
152	0x3b891552	0.00418345
153	0xbc04d0ee	-0.008106453
154	0x3b4af473	0.0030968457
155	0xbaacc8c2	-0.0013182389
156	0xbe5002a6	-0.2031351
157	0x3c363ce0	0.011122912
158	0xbf64ea9a	-0.89420474
159	0x3e9550e4	0.29163277
160	0x3c871950	0.016491562
161	0xb8f5e813	-0.000117257376
162	0x3c7f680c	0.015588772
163	0x3cddb0ec	0.027061902
164	0xbf54ebac	-0.83172107
165	0x3caefa73	0.021359658
166	0xbe45a17d	-0.19299884
167	0xbd6855c9	-0.056722436
168	0xbba8900c	-0.005144125
169	0x3bbb4a0d	0.0057156147
170	0x3bc883aa	0.006119211
171	0x3bc9dab9	0.006160107
172	0x3aba1447	0.0014196717
173	0xbc127076	-0.008937946
174	0xbc240372	-0.010010587
175	0xbc8367d4	-0.01604072
176	0x3c6df634	0.014524031
177	0x3e45f05f	0.19329976
178	0xbc564247	-0.013077325
179	0xbdaaf887	-0.08348184
180	0x3b392a45	0.0028253954
181	0x3b36e8fc	0.0027909866
182	0x3b005247	0.001958029
183	0x3b3892a1	0.002816357
184	0x3e85628e	0.26051754
185	0x3e79bebb	0.24389164
186	0x3ed596a7	0.417165
187	0x3e1e1403	0.15437321
188	0xbbd96d50	-0.0066353455
189	0xbbe2f7af	-0.006926499
190	0x3bcc9106	0.006242874
191	0x3afed577	0.001944228
192	0x3b064358	0.0020486917
193	0x3b4fb698	0.0031694528
194	0x3b63e743	0.0034775294
195	0xbacdab44	-0.00156913
196	0xbd221f2a	-0.0395805
197	0xbd235e30	-0.039884746
198	0xbd7456bd	-0.059653033
199	0xbb21a8e9	-0.0024667329
200	0xbbbea495	-0.0058179596
201	0xbbc790a4	-0.0060902406
202	0xba93c527	-0.0011273966
203	0xba87c2f0	-0.0010357779
204	0x3e43f41a	0.19136086
205	0x3d14131c	0.036151037
206	0x3e4cbf0b	0.19994752
207	0x3e72d373	0.23713474
208	0x3b8e0ac7	0.004334781
209	0x3b851ce8	0.004062284
210	0x3c05dc42	0.008170189
211	0xb9197b1e	-0.00014637082
212	0x3c61fdd1	0.013793425
213	0x3c4f369f	0.0126473
214	0x38cb1a1e	9.684659e-05
215	0xbbfd2ff7	-0.007726665
216	0x3e269940	0.16269398
217	0x3e03ffb3	0.1289051
218	0x3e5d7028	0.21624815
219	0x3dce22f9	0.10065264
220	0xbd39720a	-0.04527477
221	0xbd3ca648	-0.046057016
222	0xbd8f6c90	-0.070031285
223	0xbbe95461	-0.0071206545
224	0x3d77c124	0.060486928
225	0x3dfe21fc	0.12408826
226	0x3e6ff50b	0.2343332
227	0x3e8c4e7c	0.2740363
228	0x3b93ad90	0.0045067742
229	0x3b9db828	0.004813213
230	0x3b8a802b	0.0042267046
231	0x3ac5537e	0.001505479
232	0xba1fa014	-0.0006089222
233	0x39f7595a	0.00047178083
234	0xbbf2d0e1	-0.007410154
235	0x3be0a589	0.006855671
236	0x3b10cdd9	0.002209535
237	0x3bb1d7d3	0.0054273396
238	0x3c9c49d9	0.019078182
239	0x3cb731ea	0.022362668

rnn.weight_hh_l0 f4 [60, 15]
0	0xbb427e70	-0.0029677413
1	0x3aebf5ba	0.0018002309
2	0x3904f39a	0.0001267925
3	0xbabc7aad	-0.0014379822
4	0x3a2c3031	0.00065684604
5	0x3a2bc60a	0.00065526424
6	0x3b773e07	0.003772618
7	0x3b4ba81f	0.003107555
8	0x394d8961	0.00019601501
9	0x3a8f498f	0.0010931956
10	0x3a1233ea	0.0005577194
11	0x3bb63765	0.0055608028
12	0x3a8c77a2	0.0010716806
13	0xba15d1b8	-0.00057151495
14	0xbac803b9	-0.0015259899
15	0xbc77ec13	-0.015131968
16	0x3c62a79a	0.013833905
17	0x3cb11faa	0.021621544
18	0x3c23a26d	0.009987456
19	0xbcae466f	-0.02127382
20	0x3c33c310	0.0109717995
21	0xbe12e989	-0.14346899
22	0x3c580e13	0.013186949
23	0x3c263728	0.010144986
24	0xbd1eb1fc	-0.038743958
25	0xbc9a2138	-0.018814668
26	0xbe20b28d	-0.15693112
27	0xbc2997e3	-0.010351154
28	0x3b2e8683	0.0026630468
29	0xbc9dcd2d	-0.019262874
30	0xba585a35	-0.0008253188
31	0x3b748558	0.0037310924
32	0xbb39cae2	-0.0028349687
33	0xbb47c6a6	-0.0030483394
34	0x3b3ea1bb	0.0029088098
35	0xbb2063c7	-0.0024473534
36	0x3afa8389	0.0019112687
37	0x3b20fc09	0.0024564287
38	0xbb0c22d8	-0.0021383073
39	0x3b78cfac	0.003796558
40	0x3b341c66	0.0027482747
41	0x3bd03860	0.0063543767
42	0xbb45fe1c	-0.0030211275
43	0x39955339	0.000284815
44	0xba93add6	-0.0011267017
45	0xbb1bed2a	-0.0023792484
46	0x3a203e4c	0.00061127986
47	0xba9904b7	-0.0011674379
48	0xbb83193e	-0.004000812
49	0xba8499b9	-0.0010116614
50	0x3b33822b	0.0027390819
51	0xbc01fd85	-0.007933979
52	0x3a253755	0.00063024956
53	0x3b4eede7	0.0031574906
54	0x3bd3b3d8	0.006460648
55	0xbac9f243	-0.0015407283
56	0xbba4c9c2	-0.005028934
57	0x3b628c93	0.0034568652
58	0x39b5f50f	0.00034705593
59	0xbb24b1d2	-0.0025130403
60	0x3a9293dd	0.0011182983
61	0x3bb2b393	0.005453536
62	0xbb26d796	-0.002545809
63	0xba8e850b	-0.001087339
64	0xb96c925d	-0.00022561238
65	0xbb42aa8a	-0.00297037
66	0x3ca020f6	0.019546967
67	0xb9c85429	-0.00038209677
68	0xba5b304e	-0.0008361385
69	0x3b28bbc2	0.0025746678
70	0xba804251	-0.0009785389
71	0x3cc37070	0.023857325
72	0xb8b6bb3b	-8.713311e-05
73	0x3b47ca3b	0.003048553
74	0x3a7d14cc	0.0009654283
75	0xbb01f0c0	-0.0019827336
76	0xb8d2044b	-0.0001001438
77	0x3ae585de	0.0017511209
78	0xba33c8f9	-0.00068582554
79	0xba4ed21d	-0.00078895857
80	0x3a89eefb	0.0010523492
81	0x3c4306af	0.011903449
82	0xb9afcfa7	-0.00033533314
83	0x397c2165	0.00024045033
84	0xba9fc63d	-0.0012189817
85	0xba44dbc4	-0.0007509554
86	0x3c456909	0.012048968
87	0x3b49029c	0.0030671721
88	0xbb43b5bb	-0.0029862958
89	0xb8da81cf	-0.00010419229
90	0xbc211ee8	-0.009834029
91	0x3dbe65a3	0.092967294
92	0xbaf98e35	-0.0019039573
93	0x3c250fc6	0.010074561
94	0x3bcfcb51	0.006341376
95	0x3b43fca7	0.0029905231
96	0x3d08b90b	0.033379596
97	0x3bfb3d30	0.007667206
98	0x3ba67ef5	0.0050810524
99	0x3d232e3f	0.039839026
100	0x3bfa95af	0.007647238
101	0xbe5458c5	-0.20736988
102	0xbc1ceb44	-0.009577576
103	0x3c6f1abc	0.014593776
104	0xbc355896	-0.011068484
105	0xbb55bc2d	-0.0032613382
106	0x3ae58ca4	0.0017513228
107	0xba151419	-0.0005686894
108	0xbafc62f6	-0.0019255567
109	0x3a55ca24	0.00081554265
110	0xbb0256ba	-0.001988812
111	0x3b2ce7c3	0.0026383258
112	0x3b5b52ea	0.0033466169
113	0xba8acf23	-0.0010590296
114	0x3956b9b9	0.00020477817
115	0x39e94f4a	0.00044500298
116	0x3b4ea84e	0.0031533423
117	0x3a67c89f	0.00088418456
118	0x394de277	0.00019634688
119	0x3a9856ea	0.0011622582
120	0x3a92f88c	0.0011212989
121	0x39505fcf	0.00019872117
122	0x3aa01c46	0.0012215457
123	0xbb9da81f	-0.0048113014
124	0x37c9f640	2.4075736e-05
125	0x3b21d9ec	0.0024696542
126	0xbc50f2c5	-0.012753193
127	0x3a08e34f	0.000522186
128	0xbb36b7cf	-0.0027880555
129	0x3be983dd	0.007126315
130	0xb98dff36	-0.00027083763
131	0xbc21b161	-0.009868951
132	0xba796653	-0.00095138437
133	0xbac5730a	-0.0015064192
134	0x3973e3e5	0.00023259183
135	0xbc455a49	-0.012045451
136	0x3c2de891	0.01061453
137	0x3c140393	0.009034055
138	0x3c733efe	0.0148465615
139	0xbba81e1d	-0.005130543
140	0x3c209bdd	0.009802786
141	0xbd6a8330	-0.057254016
142	0x3c1c645b	0.009545411
143	0x3c384a28	0.011248149
144	0x3cd7bddd	0.026335651
145	0xbb59bce4	-0.003322416
146	0xbdcc6502	-0.09980203
147	0xbbeeedf1	-0.0072915484
148	0x3b73645a	0.0037138672
149	0xbc976411	-0.018480333
150	0x3a57bec1	0.00082300237
151	0x3b89e9d2	0.0042087818
152	0xbad79fa5	-0.0016450776
153	0xba9c5e1f	-0.0011929906
154	0xbb2172d9	-0.0024635105
155	0xbba43631	-0.005011343
156	0x3cc99bdd	0.024610454
157	0x38294250	4.03545e-05
158	0xbae42265	-0.001740527
159	0x3bc83c43	0.0061106994
160	0xbb93614a	-0.0044976817
161	0x3cdf7a77	0.027280075
162	0x3a2b3142	0.00065304723
163	0x3a2dcc55	0.0006629874
164	0x3ae54f28	0.0017494904
165	0x3c85a97f	0.016316174
166	0xbd10a837	-0.035316672
167	0xbc71ab1e	-0.01475027
168	0xbcabeb6a	-0.020986278
169	0x3c6c20b7	0.014412097
170	0x3a203bb7	0.0006112414
171	0xbe2b1abf	-0.16709422
172	0xbc6815d6	-0.014165362
173	0xbc905baf	-0.017621843
174	0x3d850aa9	0.06496174
175	0x3c8ad3c9	0.01694669
176	0x3b0b0e04	0.002121807
177	0x3ca30577	0.019900067
178	0xbc925e00	-0.017867088
179	0x3bdc0f43	0.0067156865
180	0x3ad08ad2	0.0015910512
181	0xba3be525	-0.0007167629
182	0x3a68636d	0.0008864913
183	0xbb661ba7	-0.0035111697
184	0xb7dea728	-2.65423e-05
185	0x3b2ab643	0.0026048578
186	0xba85af37	-0.0010199313
187	0xbb13c24a	-0.0022546225
188	0xbac8b773	-0.0015313461
189	0x3aa6fe02	0.0012740495
190	0xb907f97f	-0.00012967548
191	0x3935a675	0.00017323515
192	0x3770a3fc	1.4343295e-05
193	0xbb0a091b	-0.0021062556
194	0xbac6f831	-0.0015180168
195	0xbad8bb70	-0.0016535353
196	0xbc051f25	-0.008125101
197	0x3b9cd741	0.0047864025
198	0xb7adbe95	-2.0711954e-05
199	0x3ad38705	0.0016138261
200	0xbb36de8a	-0.002790364
201	0x3a89c734	0.0010511638
202	0xba0cd4a0	-0.000537226
203	0xb939265a	-0.00017657262
204	0xba1a822a	-0.000589403
205	0x3aff7d9d	0.0019492392
206	0x3b5220ed	0.0032063082
207	0x3aebf0a5	0.0018000795
208	0xbb06c709	-0.0020565412
209	0x3a6d8c9c	0.0009061785
210	0x3a5ce541	0.00084264955
211	0x3ba17e48	0.004928384
212	0x3b9dc83a	0.0048151286
213	0xb9995e7f	-0.0002925284
214	0xbad39de3	-0.0016145076
215	0x3bc4dbfc	0.0060076695
216	0x3c8dc719	0.017306851
217	0xba333d49	-0.00068374403
218	0x3afe9797	0.0019423839
219	0x3c012c8b	0.007884155
220	0xba4220b5	-0.00074053864
221	0xbc6a7e75	-0.014312376
222	0x39a6de3d	0.00031827568
223	0xb9401cf9	-0.0001832134
224	0x3a5417a6	0.0008090682
225	0xbb129b26	-0.0022370308
226	0xbb029518	-0.0019925293
227	0x3a3d06dd	0.00072108005
228	0xbac7c44f	-0.0015241
229	0xb854cf96	-5.073807e-05
230	0x3acb9290	0.001553135
231	0x3bac6687	0.0052612456
232	0x3b0d95c1	0.0021604153
233	0xba52d58e	-0.00080426864
234	0x3a5f1845	0.00085103913
235	0x387bca28	6.0031336e-05
236	0x3bfb15aa	0.0076624947
237	0x3833cbfe	4.286691e-05
238	0x391782d2	0.00014449217
239	0x3aa86dc4	0.0012850096
240	0xbc8d6c54	-0.017263569
241	0x3ce58a6f	0.028020112
242	0x3c2f0c06	0.010684019
243	0x3bb0f96f	0.0054008286
244	0x3c2e4ce4	0.010638449
245	0xbc3d11a8	-0.011539854
246	0x3d7a59d7	0.061120834
247	0x3c6d2e1d	0.014476326
248	0xb913dbd3	-0.00014100903
249	0xbd107e75	-0.03527685
250	0x3c55527d	0.013020155
251	0x3cce7455	0.025201956
252	0xbbcef2aa	-0.006315549
253	0x3c3f2976	0.0116676
254	0xbabd143b	-0.0014425585
255	0xbac9d432	-0.0015398322

rnn.bias_ih_l0 f4 [60]
0	0xb9d0c24d	-0.00039817617
1	0x3f08523b	0.53250474
2	0x3bc15c0d	0.005900866
3	0x39ca424d	0.0003857784
4	0xbd827dae	-0.06371628
5	0xbb4a0a5f	-0.0030828936
6	0x3ebd1666	0.3693115
7	0x3baa7a66	0.0052025793
8	0xbb244127	-0.0025063248
9	0x3eb5db63	0.3551894
10	0xbd95c768	-0.07313424
11	0x3ec76ca7	0.38950083
12	0x3aaa6309	0.0012999485
13	0xbc6bd0dc	-0.014393058
14	0x3d30422b	0.043031853
15	0x3b112d52	0.0022152257
16	0xbe2b8bfd	-0.1675262
17	0x3a5393de	0.0008071045
18	0x3b2f864d	0.002678293
19	0xbd77e146	-0.060517572
20	0xbac62501	-0.0015117229
21	0xbc8587f9	-0.016300188
22	0x3c0faa94	0.008768696
23	0x3a74a586	0.0009332526
24	0xbe11d97e	-0.14243123
25	0xbd8c0217	-0.06836336
26	0x3c0890e4	0.008335326
27	0x3baa8487	0.005203787
28	0xbb8872c5	-0.004164072
29	0xbd5afb9f	-0.05346262
30	0x3bc51b49	0.0060152155
31	0xbe5f7488	-0.21821797
32	0xbbcf5d42	-0.006328256
33	0xbab400d1	-0.0013733153
34	0x3c545ee8	0.012962081
35	0xbb1eb204	-0.0024214992
36	0xbe920f63	-0.28527364
37	0xbbe4fc1f	-0.006988063
38	0x3b434917	0.0029798204
39	0x3ed4fc2d	0.41598645
40	0x3c85c55f	0.016329465
41	0x3d89af22	0.06722857
42	0x3b6009fa	0.0034185634
43	0xbbef556e	-0.007303885
44	0xbd112ef9	-0.035445187
45	0xba0e6044	-0.0005431215
46	0x3f0d2851	0.5513964
47	0x3bc14e91	0.0058992584
48	0x396401a5	0.00021744387
49	0xbd82918a	-0.063754156
50	0xbb4d024b	-0.0031281884
51	0x3e878f7b	0.26476654
52	0x3ba3f46b	0.005003502
53	0xbb330edf	-0.0027322096
54	0x3ebd386f	0.36957118
55	0xbd95cd78	-0.07314581
56	0x3e9a1db0	0.30100775
57	0x3a929e5e	0.0011186113
58	0xbc70adb7	-0.014689854
59	0x3d328721	0.0435859

rnn.bias_hh_l0 f4 [60]
0	0xb9d0c24d	-0.00039817617
1	0x3f08523b	0.53250474
2	0x3bc15c0d	0.005900866
3	0x39ca424d	0.0003857784
4	0xbd827dae	-0.06371628
5	0xbb4a0a5f	-0.0030828936
6	0x3ebd1666	0.3693115
7	0x3baa7a66	0.0052025793
8	0xbb244127	-0.0025063248
9	0x3eb5db63	0.3551894
10	0xbd95c768	-0.07313424
11	0x3ec76ca7	0.38950083
12	0x3aaa6309	0.0012999485
13	0xbc6bd0dc	-0.014393058
14	0x3d30422b	0.043031853
15	0x3b112d52	0.0022152257
16	0xbe2b8bfd	-0.1675262
17	0x3a5393de	0.0008071045
18	0x3b2f864d	0.002678293
19	0xbd77e146	-0.060517572
20	0xbac62501	-0.0015117229
21	0xbc8586be	-0.016299602
22	0x3c0faa94	0.008768696
23	0x3a74a586	0.0009332526
24	0xbe11d97e	-0.14243123
25	0xbd8c0217	-0.06836336
26	0x3c089c03	0.008337977
27	0x3baa8487	0.005203787
28	0xbb8872c5	-0.004164072
29	0xbd5afb9f	-0.05346262
30	0x3bc51b49	0.0060152155
31	0xbe7a557b	-0.2444667
32	0xbbcf5d42	-0.006328256
33	0xbab400d1	-0.0013733153
34	0x3c545ee8	0.012962081
35	0xbb1eb204	-0.0024214992
36	0xbe878298	-0.26466823
37	0xbbe4fc1f	-0.006988063
38	0x3b434917	0.0029798204
39	0x3ed792be	0.42104143
40	0x3c85c55f	0.016329465
41	0x3db9df63	0.09075811
42	0x3b6009fa	0.0034185634
43	0xbbef556e	-0.007303885
44	0xbd110fbd	-0.0354154
45	0xba0e6044	-0.0005431215
46	0x3f0d2851	0.5513964
47	0x3bc14e91	0.0058992584
48	0x396401a5	0.00021744387
49	0xbd82918a	-0.063754156
50	0xbb4d024b	-0.0031281884
51	0x3e878f7b	0.26476654
52	0x3ba3f46b	0.005003502
53	0xbb330edf	-0.0027322096
54	0x3ebd386f	0.36957118
55	0xbd95cd78	-0.07314581
56	0x3e9a1db0	0.30100775
57	0x3a929e5e	0.0011186113
58	0xbc70adb7	-0.014689854
59	0x3d328721	0.0435859

fc.weight f4 [4, 15]
0	0x3b696773	0.003561464
1	0x3f712d9e	0.9421023
2	0x3b679a0a	0.0035339617
3	0xbbad01d8	-0.005279761
4	0xbb076eae	-0.0020665335
5	0xbc84aaa7	-0.016194655
6	0xbe4aadbe	-0.1979284
7	0x3b582824	0.003298291
8	0xbc329416	-0.010899564
9	0xbe3589e3	-0.17728381
10	0xbb60fd29	-0.0034330583
11	0x3dd80723	0.10548236
12	0xbb469e76	-0.0030306852
13	0x3c337809	0.010953912
14	0xbe6f2dac	-0.23357266
15	0xbcbe0c25	-0.02319915
16	0x3eca3968	0.39496922
17	0x3bf7aea6	0.0075586615
18	0x3c3c3a94	0.0114885755
19	0x3ce5e2ab	0.028062185
20	0xbac5a4d5	-0.0015079031
21	0xbec9f997	-0.39448234
22	0x3c87ae8d	0.016562724
23	0x3be11094	0.0068684313
24	0xbd73a1ea	-0.059480585
25	0x3cedc1dd	0.029023105
26	0x3eb5642b	0.35427985
27	0xbbf027d3	-0.007328966
28	0x3cbf18ac	0.023327194
29	0x3e193b3f	0.14964007
30	0x3c1f8776	0.009736886
31	0xbdb68b6f	-0.089133136
32	0xbbb770a7	-0.005598146
33	0x3c19be2e	0.009383721
34	0x3cde4cae	0.027136173
35	0x3c18c0b3	0.009323287
36	0xbf837466	-1.0269897
37	0xbc3f8e4f	-0.011691644
38	0x3c8604ad	0.016359651
39	0xbd27e426	-0.040989064
40	0x3ce876c9	0.028376954
41	0xbf75f92b	-0.96083325
42	0x3ba42470	0.0050092265
43	0xbcce4aba	-0.025182117
44	0xbcf5db20	-0.030011714
45	0xbcf7b6a4	-0.030238457
46	0x3de47e59	0.111569114
47	0xbc994df2	-0.018713925
48	0x3ca956f2	0.020671342
49	0x3d66757a	0.056264378
50	0x3c7132dd	0.014721599
51	0x3cc71852	0.024303589
52	0x3c7d3761	0.015455098
53	0x3c180cce	0.009280397
54	0x3f945258	1.1587629
55	0x3d6a1743	0.05715109
56	0x3c50c29f	0.012741714
57	0xbcc5b7c0	-0.02413547
58	0x3d2eb144	0.042649522
59	0xbc52cfc9	-0.012866923

fc.bias f4 [4]
0	0x3ec0ff68	0.3769486
1	0x3ee89b9f	0.4543123
2	0x3e780ab3	0.24222831
3	0x3e912e13	0.28355464
