checkpoints/without_NUE/nonlinear_signals_model_weights.pth (torch_old, 6566 bytes, 6 tensors)

rnn.weight_ih_l0 f4 [60, 5]
0	0xbb6ab20b	-0.0035811688
1	0xb961a9df	-0.00021520954
2	0xba939447	-0.00112594
3	0x3b3aad67	0.0028484704
4	0xbaaa8f96	-0.0013012763
5	0x3dde074c	0.108412355
6	0x3d28ad97	0.041181173
7	0x3e51dc89	0.20494284
8	0x3ea450f7	0.3209302
9	0x3e218ed5	0.15777142
10	0xbb0ec764	-0.0021786327
11	0xb93dc421	-0.00018097508
12	0xbb233dc7	-0.0024908648
13	0xbb1aba81	-0.00236097
14	0xb9ff588e	-0.00048703369
15	0x3a0a3d57	0.00052734226
16	0xb8d1ca05	-0.00010003526
17	0x39fd33ae	0.00048294425
18	0x3976b82e	0.00023529
19	0x3a5fa4ff	0.0008531361
20	0xba85c1ff	-0.001020491
21	0x39af5069	0.0003343851
22	0xba9688d0	-0.0011484865
23	0x39f1b17a	0.00046099332
24	0x39a6f9f5	0.0003184822
25	0xbb65b7b5	-0.0035052125
26	0x3a56036c	0.0008163962
27	0xbb766836	-0.0037598736
28	0xbb3d4d41	-0.0028885158
29	0xba120528	-0.00055702263
30	0xba2a95c1	-0.00065073004
31	0xba42fc60	-0.00074381195
32	0xba809580	-0.000981018
33	0xbb207cc4	-0.0024488429
34	0x38dd7b80	0.00010561105
35	0x3b44133c	0.002991869
36	0x3c09c17b	0.008407946
37	0x3aa1f8e2	0.0012357498
38	0x3cbda2b0	0.023148865
39	0x3c741408	0.014897354
40	0x3e803814	0.25042784
41	0x3deb09e9	0.114764996
42	0x3e7891a8	0.24274313
43	0x3ec87479	0.39151362
44	0x3e35b109	0.17743315
45	0xbab36db3	-0.0013689309
46	0xb91abd37	-0.00014757072
47	0xbacbfe3a	-0.0015563436
48	0xba1cda71	-0.0005983478
49	0xb9ac7e37	-0.00032900434
50	0x3e833b7c	0.2563132
51	0x3e172ac4	0.14762408
52	0x3e1d735d	0.15376039
53	0x3e945b1c	0.2897576
54	0x3e54d477	0.20784174
55	0xba52ed80	-0.00080462545
56	0xba0b8278	-0.00053218706
57	0xba674f22	-0.00088237424
58	0xba7d8104	-0.0009670409
59	0xba3fcf3f	-0.0007316954
60	0x3a132def	0.00056144496
61	0x399a7cbc	0.00029466103
62	0x3a240322	0.00062565703
63	0x3a0950fc	0.0005238203
64	0x3a6d2d8f	0.0009047621
65	0xbaab1650	-0.0013052914
66	0x37364d7c	1.0866086e-05
67	0xbabb15b7	-0.0014273439
68	0xbaf2073d	-0.0018465292
69	0xb9a7039e	-0.00031855417
70	0x3dfa8df6	0.12234108
71	0x3dfda546	0.12385039
72	0x3de7dfef	0.11322009
73	0x3e30319f	0.17206429
74	0x3da3b210	0.07992947
75	0xbb1bbf33	-0.0023765087
76	0x3a2f2386	0.00066810136
77	0xba9a13a4	-0.0011755121
78	0x3b69699b	0.0035615924
79	0xba55916c	-0.0008146975
80	0x3cd80f6b	0.02637454
81	0x3cbac7b1	0.022800298
82	0xbd7c536e	-0.061603002
83	0xbd5ed213	-0.05439956
84	0xb9f41d2a	-0.00046561036
85	0xbb0ba76d	-0.002130951
86	0x39a5399f	0.00031514184
87	0xbb2378d3	-0.0024943843
88	0xbb29c42a	-0.0025904276
89	0xb8abb5a7	-8.187751e-05
90	0x3a311f75	0.00067567016
91	0xb8a3bc81	-7.807557e-05
92	0x3a3397f6	0.0006850952
93	0x3a018b2a	0.00049416965
94	0x3a51001a	0.00079727324
95	0xb99341f4	-0.00028087164
96	0x39cce2db	0.00039078933
97	0xba13a657	-0.00056323915
98	0x3a28cd1f	0.0006439257
99	0x3a06fcb6	0.0005149351
100	0xbb4c9c89	-0.0031221232
101	0x3ac63872	0.0015123023
102	0xbb66caa4	-0.0035215998
103	0xbb3158f3	-0.0027061075
104	0xb9da2599	-0.00041608213
105	0x3a5f74b0	0.00085241627
106	0xb977c2e0	-0.00023628352
107	0x3a0c6ef1	0.0005357108
108	0xbb12481e	-0.0022320817
109	0xb9dfb8d7	-0.0004267159
110	0xbc740c15	-0.014895459
111	0xbb56dc09	-0.003278496
112	0xbc6fc48f	-0.014634266
113	0xbcbc9605	-0.023020754
114	0x3bbe5219	0.0058081266
115	0xbbc48fde	-0.0059985956
116	0xbd89778b	-0.06712254
117	0xbdc0897a	-0.094012216
118	0xbe0b11a4	-0.13580948
119	0x3d0d3fdf	0.03448474
120	0xba939e34	-0.0011262358
121	0xb6ac7b44	-5.1403495e-06
122	0xbab5f31d	-0.0013881658
123	0xb9f1c0fb	-0.00046110884
124	0xb9b8962a	-0.00035207096
125	0xbc989ab0	-0.018628448
126	0x3cf7505c	0.030189686
127	0x3cd760a2	0.026291195
128	0xbd3fbbf1	-0.046810094
129	0xbc93c98a	-0.018040437
130	0xba6adb6a	-0.0008959087
131	0xb9ebd12d	-0.0004497854
132	0xba84e849	-0.0010140027
133	0xba975cd4	-0.0011548051
134	0xba466f96	-0.0007569728
135	0x3a857ab0	0.0010183658
136	0x399f9632	0.00030438747
137	0x3a93cfa2	0.0011277089
138	0x3a5f0172	0.000850699
139	0x3a711861	0.0009197053
140	0xba831eaf	-0.0010003651
141	0x389f9d4a	7.611008e-05
142	0xba97b549	-0.0011574413
143	0xbafa0124	-0.0019073826
144	0xb9a2c575	-0.00031046165
145	0xbd4d0253	-0.050051045
146	0x3c54674b	0.01296408
147	0xbd6a4bf1	-0.05720133
148	0xbdcd4246	-0.10022406
149	0xbcc4354f	-0.0239512
150	0xbbcb217c	-0.00619906
151	0x3cbcb6e0	0.02303642
152	0x3d191631	0.03737468
153	0x3ca23802	0.019802097
154	0x3c1bc6b0	0.00950782
155	0xbf6cd8a6	-0.9251808
156	0x3dde0e4b	0.1084257
157	0xbb254545	-0.002521829
158	0xbc1d40a0	-0.009597927
159	0xbc7eb1ad	-0.015545291
160	0xbb3620e5	-0.0027790603
161	0xb9e0bc48	-0.0004286489
162	0x3c45afdf	0.012065857
163	0x3a805a99	0.0009792625
164	0xba0ba48c	-0.00053269486
165	0xbc23653f	-0.009972869
166	0xbb47e019	-0.0030498563
167	0x3a388ea8	0.00070403004
168	0xbb776b18	-0.0037753042
169	0xbc05d411	-0.008168236
170	0x3bb07403	0.0053849234
171	0x3b151260	0.0022746548
172	0xbc134610	-0.008988872
173	0xb8910667	-6.915331e-05
174	0x3b01a504	0.0019782195
175	0x3adad9ab	0.001669695
176	0x3ba340c4	0.004982086
177	0x3cad77a3	0.021175211
178	0x3a4fe695	0.0007930783
179	0xba56bd6f	-0.000819168
180	0xbbd0ac03	-0.0063681616
181	0x3c00808f	0.007843151
182	0x3b3b8651	0.0028613994
183	0xbbe6794f	-0.007033504
184	0x3b76f235	0.0037680988
185	0xbce2c1b9	-0.027680265
186	0x3c859c8d	0.01631
187	0x3d290c77	0.041271653
188	0x3d3210c1	0.04347301
189	0xbeaae097	-0.33374473
190	0x3fcca42b	1.59876
191	0xbd92c8de	-0.071672186
192	0xbccb8920	-0.02484566
193	0xbd6be171	-0.057588045
194	0xbb9f30bb	-0.004858104
195	0xbab1c138	-0.0013561612
196	0x3b9c1a72	0.0047638947
197	0x3c9b8523	0.018984383
198	0x3bf23a59	0.0073922095
199	0xbbe3bd24	-0.0069500376
200	0x3f350940	0.7071724
201	0x3dae6079	0.085144944
202	0x3d202121	0.039094094
203	0xbe6e84b2	-0.23292807
204	0xbd67f9de	-0.056634776
205	0xbb1fe902	-0.0024400358
206	0x3b1119d0	0.002214063
207	0x3c3812bd	0.011234936
208	0x3ab4bb77	0.0013788779
209	0x3ca87116	0.020561736
210	0x3c25fc13	0.0101309
211	0x3baba8aa	0.005238612
212	0xbb280232	-0.0025636074
213	0x3b09bfdf	0.0021018905
214	0x3c17580a	0.009237299
215	0xbb27f92e	-0.00256307
216	0xbbfe2815	-0.007756243
217	0xbc186460	-0.009301275
218	0xba889d6c	-0.0010422892
219	0xbc2f9d1a	-0.010718608
220	0x3cda98c2	0.026684169
221	0x3f0db04e	0.55347145
222	0x3a0a5b8d	0.00052779244
223	0xbf2abdc4	-0.6669581
224	0x3e6bddc0	0.2303381
225	0xbbb34e21	-0.00547196
226	0x38143a11	3.534003e-05
227	0xba78b789	-0.0009487798
228	0x3b2782d1	0.002556015
229	0xbaaf7233	-0.0013385474
230	0xbce8c2b2	-0.02841315
231	0xbd2c91ea	-0.042131342
232	0x3dc828b4	0.097733885
233	0x3e4c55ff	0.1995468
234	0x3e6b6f6d	0.22991724
235	0xbb0a6eb3	-0.002112311
236	0xba0f3d65	-0.00054641656
237	0xbb220e05	-0.0024727595
238	0xbb18e3d9	-0.0023329167
239	0xb9da493d	-0.00041634767
240	0x39f27020	0.00046241377
241	0xba14d624	-0.00056776614
242	0x3a0c4550	0.00053509045
243	0x39982391	0.00029018198
244	0x3a99ba94	0.0011728578
245	0xba8de02d	-0.0010824256
246	0x3a04b89d	0.000506291
247	0xbaafd854	-0.0013415911
248	0x3a077a35	0.00051680516
249	0x3a0db9ff	0.0005406439
250	0xbb677bf8	-0.0035321694
251	0x3a4ba4cb	0.00077683915
252	0xbb711963	-0.0036788813
253	0xbb346d0b	-0.0027530815
254	0xba227b03	-0.000619814
255	0xba50b83e	-0.00079620245

rnn.weight_hh_l0 f4 [60, 15]
0	0xb9ad4ac8	-0.00033052848
1	0x3ba90203	0.0051577105
2	0xb904f009	-0.00012677921
3	0xb88b9ded	-6.6574525e-05
4	0x3582f9af	9.758422e-07
5	0xb9356584	-0.00017299323
6	0xb996e8ec	-0.0002878377
7	0xba44c4ea	-0.0007506149
8	0x3bdd668c	0.0067566093
9	0xb86cb618	-5.6436373e-05
10	0x3bbd2a65	0.005772876
11	0x36d21207	6.2605864e-06
12	0xb90c795b	-0.00013396649
13	0x39777f65	0.00023603214
14	0x3a8110bd	0.0009846907
15	0xbc760778	-0.015016429
16	0xbb70d442	-0.003674761
17	0xbb82094a	-0.0039683925
18	0xbb1c5534	-0.0023854496
19	0x3b8fb33a	0.004385379
20	0xbbdf3f42	-0.006812961
21	0xbb6ff78b	-0.0036616053
22	0xbc0f784a	-0.0087567065
23	0xbe12c0be	-0.14331338
24	0xbb90e904	-0.004422309
25	0xbe50d0cb	-0.20392148
26	0xbb26a611	-0.0025428573
27	0x3b463895	0.0030246128
28	0x3b52c9ad	0.0032163665
29	0x3d28f3a8	0.041247994
30	0xb815d768	-3.572498e-05
31	0x3acbd0ef	0.0015549938
32	0xb90616fb	-0.00012787797
33	0x37d36420	2.5199784e-05
34	0xb84c8418	-4.8760412e-05
35	0xb900cdd8	-0.00012283714
36	0x37960c9a	1.7887261e-05
37	0xb8bd8d58	-9.0385496e-05
38	0xb7f4ffa9	-2.9206118e-05
39	0xb89b8e0d	-7.417435e-05
40	0x3ac5dbaf	0.0015095378
41	0xb880db89	-6.144407e-05
42	0x36132ec5	2.193193e-06
43	0x387cee99	6.0303693e-05
44	0x38a7cfee	8.0019105e-05
45	0x3945dfee	0.00018870804
46	0xba26d957	-0.00063647836
47	0xb718deaf	-9.111754e-06
48	0xb82c579e	-4.1089595e-05
49	0xb81123f2	-3.460417e-05
50	0xb7305c55	-1.0511915e-05
51	0x385dd7f3	5.2891624e-05
52	0x39de9a51	0.00042458114
53	0x399ecf00	0.00030290335
54	0xb7ba7010	-2.2225111e-05
55	0xb9fc79d7	-0.00048155963
56	0x36daef32	6.5247523e-06
57	0xb66837e7	-3.4603233e-06
58	0xb7b74490	-2.1847227e-05
59	0x3a106e85	0.0005509633
60	0xb944f4f2	-0.00018783266
61	0x39798f2e	0.00023799829
62	0x38cccabb	9.7652395e-05
63	0x38ddb27d	0.00010571347
64	0x37f0abf5	2.8690303e-05
65	0x38a113b6	7.68075e-05
66	0xb902ce66	-0.00012474656
67	0xb92d75ef	-0.000165425
68	0x3a08894b	0.00052084465
69	0x38021f94	3.1023825e-05
70	0x39adf013	0.00033176
71	0xb68be8c0	-4.1696185e-06
72	0x37fa2ede	2.9824147e-05
73	0x37c2109f	2.3134342e-05
74	0xb9be613a	-0.00036312063
75	0xb97d7267	-0.00024170578
76	0x3b15d45e	0.0022862176
77	0xb910e57e	-0.00013818403
78	0x38bb7e0d	8.940334e-05
79	0xb87a8392	-5.972718e-05
80	0xb91319fb	-0.00014028691
81	0x385ab092	5.2139694e-05
82	0xb7a458c3	-1.9591656e-05
83	0x3a2790fc	0.0006392149
84	0xb7c0215e	-2.2903721e-05
85	0x3aaf2470	0.00133623
86	0x38bf9ac3	9.136416e-05
87	0xb893811e	-7.033556e-05
88	0xb80b66fe	-3.32361e-05
89	0xb8b0533e	-8.407839e-05
90	0x39946833	0.00028306394
91	0xbad5ca4e	-0.0016310902
92	0xb96712f8	-0.00022036943
93	0x38b7e4fe	8.768773e-05
94	0xb95e3616	-0.00021191718
95	0xb94f655d	-0.00019778819
96	0xb8c499c6	-9.374651e-05
97	0xb912384c	-0.00013944617
98	0xba1a8a69	-0.00058952585
99	0xb94ffe9a	-0.00019835905
100	0xba91a8dd	-0.0011112947
101	0xb7b20821	-2.1223039e-05
102	0x380c48b4	3.344631e-05
103	0xb7b23087	-2.124185e-05
104	0x3accd373	0.0015626982
105	0x3aff8d1e	0.0019497012
106	0xbc1b7f23	-0.009490761
107	0x39627bfa	0.00021599224
108	0xbad65b2a	-0.0016354073
109	0xba8b9779	-0.0010650001
110	0x3a892c83	0.0010465536
111	0x3a65e4fa	0.0008769777
112	0x3aa2837e	0.0012398807
113	0xbbe65437	-0.007029082
114	0x3ac3e625	0.0014945908
115	0x3b3b2ee3	0.0028561882
116	0x3a324e85	0.00068018615
117	0x3ac3e4f3	0.0014945552
118	0xba86986c	-0.0010268814
119	0x3c4fda53	0.01268633
120	0x3c81f7a9	0.015865164
121	0xbe2642a5	-0.1623636
122	0xbbf44ed4	-0.007455686
123	0xbb45c8fd	-0.0030179613
124	0xbc476f64	-0.012172554
125	0xbb98254b	-0.0046431175
126	0x3bc6fe39	0.006072786
127	0xbce63915	-0.02810339
128	0x3cb8bb80	0.022550344
129	0xba6c69b3	-0.0009018436
130	0xbe05e4c4	-0.13075548
131	0xbbc79950	-0.0060912743
132	0x3a326a60	0.0006806012
133	0x3b6d090e	0.0036168727
134	0x3d703a8b	0.05864958
135	0xb89a6304	-7.361735e-05
136	0x3a9d83d2	0.0012017435
137	0xb81292a0	-3.4945668e-05
138	0x37673f7b	1.3783453e-05
139	0x36ed7d2e	7.0777232e-06
140	0xb8bfc8d5	-9.1449976e-05
141	0x38038866	3.1359865e-05
142	0x383b9286	4.4720735e-05
143	0x39cb62af	0.00038792702
144	0xb7e4fc24	-2.729713e-05
145	0x3aadcd94	0.001326012
146	0xb8883eef	-6.496708e-05
147	0xb771c7c9	-1.44112355e-05
148	0x3838e1e9	4.4079414e-05
149	0xb74778a2	-1.1889411e-05
150	0x3b8f255b	0.004368467
151	0xbe68d72b	-0.2273833
152	0xbc018d92	-0.007907288
153	0x3b3f452e	0.0029185521
154	0xbc17d11e	-0.009266166
155	0xbba1b0d7	-0.004934411
156	0x3c611ab4	0.013739277
157	0xbda228bf	-0.07917928
158	0x3e445ffc	0.1917724
159	0xbbef695d	-0.0073062615
160	0x3d0df87a	0.034660794
161	0x3bade295	0.0053065517
162	0xbad42cc1	-0.0016187654
163	0xbaa206f4	-0.0012361691
164	0x3dd5d4ad	0.10440955
165	0xb82ae5c2	-4.0745137e-05
166	0x3a415a91	0.0007375861
167	0xb859e528	-5.195025e-05
168	0x37fc1e0f	3.0054738e-05
169	0xb8036dd8	-3.1335134e-05
170	0xb839f6f3	-4.4337427e-05
171	0xb80fc96e	-3.4281453e-05
172	0x38e2fbfa	0.00010823454
173	0xb93b640c	-0.0001787098
174	0xb7376c07	-1.0932802e-05
175	0x3a78d1cf	0.0009491713
176	0x3809dc77	3.286867e-05
177	0x37436b4e	1.164789e-05
178	0xb6fc2e0c	-7.515546e-06
179	0x3a03636b	0.0005012068
180	0x398ceea0	0.0002688067
181	0xba49124f	-0.00076702697
182	0x36b76384	5.46541e-06
183	0x361e242e	2.3564894e-06
184	0xb8b61d4f	-8.6838954e-05
185	0xb79a56b7	-1.839861e-05
186	0x37f50367	2.920786e-05
187	0x39dc837c	0.00042059633
188	0x398ab748	0.00026457966
189	0xb801b6f6	-3.0926392e-05
190	0xba4f2724	-0.0007902256
191	0x374e5328	1.2297918e-05
192	0xb792a663	-1.7482036e-05
193	0xb7770da2	-1.4725521e-05
194	0x39e24d35	0.00043163603
195	0x38f9c14f	0.00011909252
196	0x3a6e76ac	0.0009096663
197	0xb81b45d6	-3.701992e-05
198	0xb6574716	-3.2078874e-06
199	0x3700c6ae	7.675653e-06
200	0x376260b7	1.3493168e-05
201	0xb54aa894	-7.549618e-07
202	0x38843bda	6.305399e-05
203	0x3996ae9a	0.00028740318
204	0xb738729d	-1.099394e-05
205	0x3a9de9ef	0.0012047867
206	0xb7c96749	-2.4009163e-05
207	0x37b6abcd	2.1776092e-05
208	0x382858b1	4.013692e-05
209	0xb79ee29f	-1.8940596e-05
210	0x3c13b890	0.009016171
211	0xbda2ab70	-0.07942855
212	0xbb99788c	-0.0046835598
213	0xbb0c591c	-0.0021415418
214	0xbba0cb30	-0.0049070343
215	0xbb3fb271	-0.0029250646
216	0x3a53d038	0.0008080038
217	0xbc8c7b6b	-0.017148694
218	0x3c9c455e	0.019076046
219	0xba315f89	-0.000676625
220	0xbd282611	-0.041051928
221	0xbad2cd65	-0.0016082941
222	0x3b0df340	0.002165988
223	0x3b1b1b45	0.0023667377
224	0x3c896a61	0.016774358
225	0x37a37649	1.9486195e-05
226	0x3b29c2f5	0.0025903557
227	0xb8db1a46	-0.000104476276
228	0xb98d848f	-0.0002699238
229	0x349ff52e	2.979445e-07
230	0x37bbde70	2.2395718e-05
231	0xb9ad6d95	-0.00033078776
232	0xb9b009dd	-0.00033576685
233	0x3bfdbc62	0.0077434042
234	0x38d64ad9	0.00010218257
235	0x3bc6ea24	0.006070392
236	0x395cbda5	0.00021051483
237	0x37d64a00	2.5545247e-05
238	0x397d14fd	0.00024135779
239	0xb95de0ee	-0.00021159995
240	0xbb5689cf	-0.003273595
241	0x3d03dbd6	0.032192074
242	0x3b5f6048	0.0034084488
243	0xbbbf38b3	-0.0058356165
244	0x3c09f01c	0.008419063
245	0x3b2238aa	0.0024753013
246	0xbc8455a1	-0.016154112
247	0x3b758070	0.0037460588
248	0xbd12efd2	-0.03587324
249	0x3b3239fc	0.0027195206
250	0x3d5c520a	0.053789176
251	0x3953a7c5	0.00020185027
252	0x3bb71d5a	0.005588216
253	0x3a21a317	0.0006165965
254	0x3c6905e5	0.014222597
255	0x374fc557	1.2384108e-05

rnn.bias_ih_l0 f4 [60]
0	0x3b2b96f7	0.0026182511
1	0x3edb11f5	0.42787138
2	0xbb210066	-0.0024566888
3	0x39443150	0.00018710387
4	0x39c6862e	0.00037865475
5	0xbb39234f	-0.0028249805
6	0xbb1ebc34	-0.0024221065
7	0x3d2d7607	0.042348888
8	0x3f09394a	0.5360304
9	0xba18e287	-0.0005832095
10	0x3ecfdf15	0.40599886
11	0xba7e2c00	-0.00096958876
12	0x39e7a49c	0.00044182397
13	0xbad98713	-0.0016596041
14	0x3e976b6c	0.29574144
15	0x3b7c2021	0.0038471299
16	0xbb9a475d	-0.004708214
17	0xbb2fc534	-0.0026820423
18	0x39f51729	0.00046747297
19	0x3a5469cd	0.0008102924
20	0xbb28bbff	-0.002574682
21	0xbb117427	-0.0022194476
22	0xbcafe0c5	-0.021469483
23	0xbe21a655	-0.15786107
24	0xb9f51ae4	-0.00046750077
25	0xbc29e5ae	-0.010369701
26	0xba9fbbb1	-0.0012186674
27	0x3a5b3841	0.00083625695
28	0xbae1148b	-0.001717226
29	0xbdb4cd17	-0.0882818
30	0x3c3a6805	0.011377339
31	0xbbb0b087	-0.0053921374
32	0x3b034237	0.002002848
33	0xbbf20117	-0.007385384
34	0x3b791d95	0.0038012017
35	0x3b9cf2d6	0.0047896905
36	0xbb6031b3	-0.003420931
37	0xbc8f61d8	-0.01750271
38	0xbe91571b	-0.2838677
39	0x3a9a94da	0.0011793629
40	0xbec2a0a9	-0.380132
41	0x3b2ce8c7	0.0026383863
42	0x3be768ae	0.0070620393
43	0xbb6e0d60	-0.003632389
44	0x3e84c5cf	0.25932166
45	0x3b26523a	0.00253786
46	0x3e9f8338	0.311548
47	0xbb206988	-0.0024476964
48	0x393bd929	0.00017914608
49	0x39c5078d	0.00037580394
50	0xbb35ac90	-0.0027721263
51	0xbb1e2af7	-0.0024134496
52	0x3d30319f	0.043016072
53	0x3f106e41	0.56418234
54	0xba17dac9	-0.00057927944
55	0x3e8c9cb7	0.27463314
56	0xba784ef6	-0.00094722153
57	0x39e13ac8	0.0004295914
58	0xbad7ff84	-0.0016479348
59	0x3ea37bab	0.3193029

rnn.bias_hh_l0 f4 [60]
0	0x3b2b96f7	0.0026182511
1	0x3edb11f5	0.42787138
2	0xbb210066	-0.0024566888
3	0x39443150	0.00018710387
4	0x39c6862e	0.00037865475
5	0xbb39234f	-0.0028249805
6	0xbb1ebc34	-0.0024221065
7	0x3d2d7607	0.042348888
8	0x3f09394a	0.5360304
9	0xba18e287	-0.0005832095
10	0x3ecfdf15	0.40599886
11	0xba7e2c00	-0.00096958876
12	0x39e7a49c	0.00044182397
13	0xbad98713	-0.0016596041
14	0x3e976b6c	0.29574144
15	0x3b7c2021	0.0038471299
16	0xbb99f600	-0.004698515
17	0xbb2fc534	-0.0026820423
18	0x39f51729	0.00046747297
19	0x3a5469cd	0.0008102924
20	0xbb28bbff	-0.002574682
21	0xbb117427	-0.0022194476
22	0xbcafe0c5	-0.021469483
23	0xbe21a655	-0.15786107
24	0xb9f51ae4	-0.00046750077
25	0xbc29e970	-0.010370597
26	0xba9fbbb1	-0.0012186674
27	0x3a5b3841	0.00083625695
28	0xbae1148b	-0.001717226
29	0xbdb4cd17	-0.0882818
30	0x3c3a6805	0.011377339
31	0xbcab9acd	-0.020947838
32	0x3b034237	0.002002848
33	0xbbf20117	-0.007385384
34	0x3b791d95	0.0038012017
35	0x3b9cf2d6	0.0047896905
36	0xbb6031b3	-0.003420931
37	0xbc8f61d2	-0.017502699
38	0xbe91746a	-0.2840913
39	0x3a9a94da	0.0011793629
40	0xbe9ed623	-0.31022748
41	0x3b2ce8c7	0.0026383863
42	0x3be768ae	0.0070620393
43	0xbb6e0d6e	-0.0036323923
44	0x3e7ec479	0.24879636
45	0x3b26523a	0.00253786
46	0x3e9f8339	0.31154802
47	0xbb206988	-0.0024476964
48	0x393bd929	0.00017914608
49	0x39c5078d	0.00037580394
50	0xbb35ac90	-0.0027721263
51	0xbb1e2af7	-0.0024134496
52	0x3d30319f	0.043016072
53	0x3f106e41	0.56418234
54	0xba17dac9	-0.00057927944
55	0x3e8c9cb7	0.27463314
56	0xba784ef6	-0.00094722153
57	0x39e13ac8	0.0004295914
58	0xbad7ff84	-0.0016479348
59	0x3ea37bab	0.3193029

fc.weight f4 [5, 15]
0	0xbd4220ab	-0.047394436
1	0x3dabea36	0.083942816
2	0xbbffa390	-0.0078014806
3	0x3c1e163f	0.009648859
4	0x3b59cbbf	0.0033233014
5	0xbc67eeb1	-0.01415603
6	0x3b9e2675	0.004826362
7	0xbd85e752	-0.065382615
8	0x3f5676d5	0.83775073
9	0xbc694cc4	-0.014239494
10	0xbe19a3e6	-0.15003929
11	0xba0e6021	-0.00054311944
12	0xbb944461	-0.004524753
13	0xbad59901	-0.0016296209
14	0xbd41d90e	-0.04732614
15	0x3ab62221	0.0013895669
16	0x3f4c0a12	0.79702866
17	0xbc2a36dc	-0.010389056
18	0x3bb2188d	0.0054350556
19	0xbc5b2c1e	-0.013377218
20	0xbc3d79be	-0.01156467
21	0x3cb90788	0.022586599
22	0xbe7c1f10	-0.24621224
23	0x3da979b7	0.082751684
24	0xbc4137d6	-0.0117930975
25	0x3f563763	0.83678263
26	0x3c2647ea	0.010148982
27	0xbb866654	-0.004101554
28	0xbb0ef9d5	-0.0021816392
29	0xbdad6014	-0.08465591
30	0x3c417948	0.011808701
31	0x3eb23541	0.34806255
32	0x398a6a23	0.0002640049
33	0xbc21de49	-0.009879657
34	0x3b5d2b21	0.003374763
35	0x3b98a6d2	0.0046585584
36	0xbb982b56	-0.004643838
37	0xbb6d5bd4	-0.0036218064
38	0x3ed7e168	0.4216416
39	0x3b0ec9a5	0.002178767
40	0xbebdf0ae	-0.37097687
41	0xbb0a0bd4	-0.002106418
42	0x3c346cdc	0.011012282
43	0xba1800d9	-0.0005798466
44	0x3d33501d	0.043777574
45	0x3bf07b90	0.0073389485
46	0xbf4562d3	-0.7710392
47	0x3b9e75ec	0.0048358347
48	0xbc42ea46	-0.011896675
49	0x3b89abd5	0.004201392
50	0x3b566854	0.0032715993
51	0xbc4873b8	-0.012234621
52	0xbe5cf8d5	-0.21579297
53	0xbd840b80	-0.06447506
54	0x39748d45	0.0002332228
55	0xbf5488a2	-0.83020985
56	0x3c61b85d	0.013776866
57	0x3c3200a5	0.0108644115
58	0xbbe2a2cc	-0.0069163796
59	0xbe60ee8d	-0.21966
60	0xbb007c9d	-0.0019605525
61	0xbd4a1ebb	-0.049345713
62	0xb99d0d36	-0.00029955216
63	0xbb9e6d97	-0.0048348415
64	0x3a1a9f4c	0.0005898371
65	0x3afefbe7	0.0019453735
66	0x3b99efdc	0.004697783
67	0xbe02a1b4	-0.12756997
68	0xbc8ba2c1	-0.01704538
69	0xbbdbe229	-0.00671031
70	0xbcc50420	-0.024049819
71	0x3c1738c2	0.009229841
72	0x3b96e8f3	0.0046054064
73	0xbacd62a1	-0.0015669652
74	0x3f8367e2	1.0266078

fc.bias f4 [5]
0	0x3eca8943	0.39557847
1	0x3f27c068	0.65527964
2	0x3eea8451	0.45804074
3	0x3ea4cfe6	0.32189864
4	0x3e6d7be0	0.23191786
