checkpoints/linear_signals_model_weights0.pth (torch_old, 6261 bytes, 6 tensors)

rnn.weight_ih_l0 f4 [60, 4]
0.14787826 0.33971897 0.25451028 0.529871 -0.84849995 0.37095684 0.4813101 -0.66863674
-0.06678822 -0.33276004 -0.32136503 -1.2698455 0.60865664 0.34517998 0.41851094 0.16710913
0.20188445 -0.2030983 0.7765396 0.16806072 -1.0766453 0.17800318 0.17501302 -1.3124396
-0.599043 -0.08835215 1.0072002 -0.53447115 0.42484343 0.4618163 0.18213257 0.36020935
0.15904444 0.31936163 0.05799313 -0.43838704 0.70341444 -0.5109571 -1.2742934 0.83428365
-0.112979345 -0.43929583 -0.89358354 -1.2920488 0.37107942 0.1874916 0.45575467 0.22821723
-0.24877992 -1.0271502 -0.31153825 0.17325228 0.4488063 0.19298056 0.23462772 0.57746774
-1.0508622 -0.19133483 0.4613507 -1.6014475 0.61976224 0.3626741 0.6066217 0.49460822
-0.5223669 0.17841144 0.26307023 -1.1070651 -0.21740049 -0.203703 -0.66877335 -1.479932
0.5257921 0.593883 0.404044 0.51491517 -0.33297938 -0.57652885 0.7396373 -0.3539682
-0.66496086 -0.1875903 -0.061160296 -1.4036473 -0.1342012 -0.29594833 0.1851818 -1.1183505
0.4276841 0.323015 0.39263022 0.39485615 -0.12910491 0.23258199 0.19880259 -0.5166427
0.3444474 -0.58999467 -0.8751118 0.2817458 -0.6256638 -0.27250838 -0.46929553 -1.0460323
0.33453232 0.11968309 0.2593146 0.37354967 -0.5126373 -0.49357736 -0.024405565 0.2213732
0.5836629 0.42847738 0.33071828 0.27632904 -1.0919008 -0.17956017 -0.0836126 -1.7449914
0.14446312 0.3771477 0.55770516 0.33593962 0.13363561 -0.23830758 -0.6730646 0.091906555
0.7313587 0.63378406 0.5868139 -0.36689284 0.15757114 0.11057572 0.544604 0.46105465
0.56419426 -0.16203712 0.8423759 -0.085452415 0.16084014 -0.43256024 -0.5236674 0.45674774
0.35156724 -0.3823218 1.0690192 -0.8172592 0.5179012 0.20044012 0.14116165 0.5164889
-0.3290133 -0.2964893 -0.17501955 -0.035253275 -0.5462934 -0.08628249 -0.057880096 -0.8233706
0.31513864 0.3543861 0.27792782 -0.29128048 0.07094753 0.27163538 0.00014493441 0.39394695
0.26616 -0.45339286 0.18715715 0.16916643 -0.5421177 -0.4723971 -0.27154174 -0.2145499
0.15462206 -0.3438253 -0.8407666 0.61278415 -0.9723599 -0.12654135 0.83593947 0.8600321
-0.7778509 0.19524674 0.4352703 -0.9243953 -0.12578845 -0.27626666 -0.38697925 -1.8162022
-1.4549608 -0.07170188 -0.8747369 -0.028600624 0.14693587 -0.19774398 0.5749435 0.2806546
-1.2626429 -0.15424804 0.16077845 -1.5998679 -0.67165524 -0.0661975 0.7811207 -0.8335505
-1.1496263 0.12329116 1.6017337 0.5334832 0.21958077 0.18352787 -0.19586824 -0.27685353
0.38675728 -0.82158643 -1.5795041 0.6159448 -0.5764876 -0.14906935 -0.6328496 -1.4651711
-0.50601166 -0.7157585 -0.46722034 -0.16246347 -0.41773826 -0.5634537 0.1135978 0.2316342
0.8061902 0.026236309 -1.9537908 0.78920346 -1.1428487 0.27858725 0.37697694 -1.6217775
00000000: 666d 173e a5ef ad3e 2c4f 823e a0a5 073f
00000010: 4b37 59bf 0eee bd3e 476e f63e c72b 2bbf
00000020: 43c8 88bd 865f aabe f589 a4be 4c8a a2bf
00000030: ecd0 1b3f 6ebb b03e 1147 d63e a81e 2b3e
00000040: ccba 4e3e 00f9 4fbe 4dcb 463f 1c18 2c3e
00000050: 83cf 89bf 7746 363e 9d36 333e 05fe a7bf
00000060: e25a 19bf f9f1 b4bd f0eb 803f 1ad3 08bf
00000070: 1485 d93e 3073 ec3e f680 3a3e 5c6d b83e
00000080: 8cdc 223e 5e83 a33e 348a 6d3d 4474 e0be
00000090: f812 343f 16ce 02bf 0c1c a3bf 9d93 553f
000000a0: b761 e7bd 62eb e0be e4c1 64bf db61 a5bf
000000b0: 1ffe bd3e ccfd 3f3e ad58 e93e c7b1 693e
000000c0: 2ac0 7ebe a879 83bf f181 9fbe 0c69 313e
000000d0: f0c9 e53e b29c 453e 4042 703e edd4 133f
000000e0: a782 86bf 47ed 43be 2936 ec3e 3bfc ccbf
000000f0: bda8 1e3f 6bb0 b93e 8f4b 1b3f 4a3d fd3e
00000100: d6b9 05bf 7db1 363e 24b1 863e 4fb4 8dbf
00000110: 3c9e 5ebe 8597 50be bb34 2bbf 696e bdbf
00000120: 509a 063f b708 183f dbde ce3e 7bd1 033f
00000130: 467c aabe 6597 13bf df58 3d3f 523b b5be
00000140: e03a 2abf ac17 40be 3883 7abd b7aa b3bf
00000150: 0a6c 09be 8a86 97be 4ca0 3d3e 1c26 8fbf
00000160: 69f9 da3e 3962 a53e d406 c93e 962a ca3e
00000170: 1434 04be f929 6e3e e892 4b3e b242 04bf
00000180: 695b b03e e409 17bf 5407 60bf fc40 903e
00000190: 812b 20bf 3886 8bbe 8147 f0be 63e4 85bf
000001a0: d247 ab3e 681c f53d e2c4 843e e741 bf3e
000001b0: 333c 03bf 2cb6 fcbe 2eee c7bc a8af 623e
000001c0: ef6a 153f 6361 db3e e853 a93e 007b 8d3e
000001d0: 68c3 8bbf 9fde 37be 153d abbd e15b dfbf
000001e0: 24ee 133e 8119 c13e c4c5 0e3f 4700 ac3e
000001f0: c6d7 083e e706 74be f64d 2cbf 8139 bc3d
00000200: 533a 3b3f ac3f 223f 7039 163f 61d9 bbbe
00000210: 545a 213e 8675 e23d 2b6b 0b3f 5b0f ec3e
00000220: 096f 103f 0fed 25be f2a5 573f ad01 afbd
00000230: 47b3 243e 8978 ddbe 110f 06bf d7da e93e
00000240: 9f00 b43e afbf c3be 9fd5 883f e637 51bf
00000250: 2c95 043f 2d40 4d3e ae8c 103e 9e38 043f
00000260: 6e74 a8be 72cd 97be 5338 33be bd65 10bd
00000270: e2d9 0bbf e0b4 b0bd ae13 6dbd 6ac8 52bf
00000280: da59 a13e 1872 b53e 8e4c 8e3e b722 95be
00000290: f04c 913d cb13 8b3e 89f9 1739 6ab3 c93e
000002a0: 2046 883e 1c23 e8be 20a6 3f3e f739 2d3e
000002b0: 3ac8 0abf 08de f1be 8507 8bbe f8b2 5bbe
000002c0: 3f55 1e3e df09 b0be 7b3c 57bf 6cdf 1c3f
000002d0: 94ec 78bf 0e94 01be 2100 563f 102b 5c3f
000002e0: 3d21 47bf c3ee 473e c0db de3e 2ca5 6cbf
000002f0: b0ce 00be d372 8dbe 2522 c6be 5079 e8bf
00000300: 283c babf 6fd8 92bd c2ee 5fbf db4b eabc
00000310: 5b76 163e 667d 4abe 7f2f 133f f6b1 8f3e
00000320: 489e a1bf 33f3 1dbe 1ba3 243e 79c8 ccbf
00000330: 99f1 2bbf 8e92 87bd 87f7 473f 9163 55bf
00000340: f426 93bf 1380 fc3d 9c05 cd3f 5b92 083f
00000350: c8d9 603e bbee 3b3e af91 48be bfbf 8dbe
00000360: 0d05 c63e 7d53 52bf 312d cabf 8fae 1d3f
00000370: b194 13bf a3a5 18be 6e02 22bf ba8a bbbf
00000380: fb89 01bf f33b 37bf 8137 efbe d35c 26be
00000390: cae1 d5be 803e 10bf f7a5 e83d 8431 6d3e
000003a0: 7b62 4e3f 87ed d63c d115 fabf 3d09 4a3f
000003b0: de48 92bf fda2 8e3e 1f03 c13e 6896 cfbf

rnn.weight_hh_l0 f4 [60, 15]
0.167587 0.17828377 -0.38512996 0.34214556 0.24209443 0.19513333 -0.08040848 0.46856642
0.18282436 -0.29536527 -0.051685683 0.15962845 0.25217485 -0.07811744 0.07500241 0.58079636
-0.45660076 -0.6482311 0.28602397 -0.7222301 -0.40761074 0.25950208 0.35358357 0.50498605
1.5874623 -0.97217333 -0.15859321 0.045881927 0.94615155 -0.63723445 0.022733768 0.3810509
-0.007101135 -0.17408572 -0.33412763 0.0857903 -0.13809352 -0.07475036 -0.15488172 0.051118057
-0.27460775 0.13171186 0.4500509 -0.37914586 0.33308092 0.3387434 0.3903176 -0.43592548
0.58279926 0.03365656 0.19162285 -0.4619119 0.2347535 0.1859193 0.2742345 -0.2716161
0.5733858 0.51199645 -0.59599847 0.10198375 0.23186852 0.10264714 -1.7754049 -0.43850726
-0.18701537 1.0712252 -0.6844901 -0.037736814 0.420264 0.049421728 -0.7519146 -0.2510102
0.23242909 -0.08489878 0.5285055 -0.053992566 0.37402207 -0.6621576 -0.1729787 -0.7060315
0.07317068 0.74223465 -0.3951559 1.3053657 0.57603365 0.3454882 -0.57182556 0.8106993
0.81464356 0.102049634 -0.32778713 -0.04146949 -0.064254135 -0.0904001 -0.21640003 -0.13863875
-0.17571802 -0.34515402 0.38725618 -0.9562537 0.16227001 -0.18854049 -0.15032233 -0.0975943
0.28173608 0.12646815 0.32108268 -0.019134942 0.031148687 0.03865652 -0.0244898 -0.08608306
0.5446285 0.3330589 -0.4299599 -0.26597762 0.18422405 0.27477643 -0.34604493 0.15991443
0.4236658 -1.04917 -0.22823715 0.3059226 -0.12416568 -0.62919855 0.17490579 0.101671875
-0.3207715 1.5536495 -0.5250606 0.21183933 -0.04409741 0.36770758 -0.86937344 -0.39492384
0.44057313 -0.85647374 -0.1482041 1.2672284 0.7651739 -0.85984594 -0.23708802 -0.26111013
-0.4061201 -0.9405991 0.0035527584 -0.5081435 -0.37021583 0.74084026 -0.3610927 1.2182592
-0.40514478 -0.35998574 0.33080935 0.8582517 0.6917388 -0.06454194 0.4325299 -0.84405106
0.054151587 0.046983946 0.8725255 -0.3448914 1.2177842 0.47539023 0.47662607 -0.29546237
0.09538959 -0.15880872 -0.037990104 -0.21283959 0.16285962 -0.052760612 -0.05904843 -0.18465623
0.04205025 0.25288013 -0.49563697 0.2204896 -1.1079379 0.62411445 -0.53730834 -0.68257964
0.04148144 1.3288176 -0.96735406 -1.1614536 1.4054809 -1.1181246 0.17342989 -0.35067904
-0.29281312 -0.24985445 0.53910285 0.44119948 0.08389442 -0.5206179 0.056287162 -0.16701916
-0.15869802 -0.023451725 0.33755457 0.096565805 0.08795642 -0.2329769 0.425244 0.04918842
-0.22042143 0.19013415 0.07154396 0.015525613 -0.4781314 -0.05192619 -0.70875525 -0.20401423
1.0324627 -0.049248178 0.74456364 1.0661108 0.05862305 -0.24122263 0.5225013 0.7366812
0.22733715 0.22785124 0.3388693 -0.537605 0.4514307 0.29857656 -0.064234555 0.10965731
0.5312466 0.116909415 -0.43878326 -0.15780765 0.45677426 -0.064306326 -0.56052595 0.15727253
-0.019478664 -1.3413082 0.09373475 0.17050767 0.568064 -1.1904862 0.8397964 -0.11968812
-0.17687759 2.1345315 -0.42480922 -0.3847124 -0.17752612 0.56931674 -1.056236 -0.38777494
00000000: ed9b 2b3e 0590 363e c12f c5be b42d af3e
00000010: 9ae7 773e 08d1 473e 33ad a4bd f0e7 ef3e
00000020: 4f36 3b3e 1e3a 97be 5eb4 53bd a475 233e
00000030: 101d 813e 09fc 9fbd dd9a 993d 12af 143f
00000040: 93c7 e9be 79f2 25bf bc71 923e 12e4 38bf
00000050: 5bb2 d0be 75dd 843e e808 b53e c446 013f
00000060: f731 cb3f 5ae0 78bf 4266 22be b0ee 3b3d
00000070: fd36 723f cc21 23bf 2b3c ba3c 1b19 c33e
00000080: a3b0 e8bb 8743 32be c712 abbe d3b2 af3d
00000090: 6368 0dbe b716 99bd 5099 1ebe 2b61 513d
000000a0: 6399 8cbe 79df 063e 126d e63e 681f c2be
000000b0: 9589 aa3e c66f ad3e b5d7 c73e a031 dfbe
000000c0: 5532 153f 76db 093d c838 443e b77f ecbe
000000d0: 3963 703e a161 3e3e 7768 8c3e 4411 8bbe
000000e0: 69c9 123f 3312 033f 5b93 18bf dbdc d03d
000000f0: f16e 6d3e aa38 d23d 7840 e3bf 0684 e0be
00000100: f580 3fbe e81d 893f be3a 2fbf eb91 1abd
00000110: d82c d73e 706e 4a3d 7a7d 40bf 6984 80be
00000120: e401 6e3e 69df adbd 234c 073f 4f27 5dbd
00000130: d27f bf3e 2983 29bf 5421 31be 7bbe 34bf
00000140: 82da 953d 1703 3e3f e051 cabe 3916 a73f
00000150: f176 133f d4e3 b03e 2963 12bf fd89 4f3f
00000160: 7b8c 503f 66ff d03d b7d3 a7be e9db 29bd
00000170: ac97 83bd b023 b9bd f897 5dbe 51f7 0dbe
00000180: 6def 33be 07b8 b0be 7146 c63e 0bcd 74bf
00000190: 1c2a 263e c210 41be 19ee 19be 85df c7bd
000001a0: b63f 903e de80 013e f364 a43e e2c0 9cbc
000001b0: 882b ff3c 4d56 1e3d d59e c8bc 514c b0bd
000001c0: c66c 0b3f b286 aa3e b423 dcbe 382e 88be
000001d0: 3ba5 3c3e 7faf 8c3e cd2c b1be 9cc0 233e
000001e0: b9ea d83e 344b 86bf 00b7 69be e3a1 9c3e
000001f0: 934a febd 2813 21bf 811a 333e 5839 d03d
00000200: 293c a4be fddd c63f 5f6a 06bf 69ec 583e
00000210: 7c9f 34bd 2b44 bc3e 428f 5ebf 7533 cabe
00000220: cd92 e13e dd41 5bbf d1c2 17be 8a34 a23f
00000230: 70e2 433f dd1e 5cbf 34c7 72be 3ab0 85be
00000240: f9ee cfbe 1acb 70bf 65d5 683b b115 02bf
00000250: ee8c bdbe b5a7 3d3f 24e1 b8be ebef 9b3f
00000260: 236f cfbe 0d50 b8be d85f a93e 62b6 5b3f
00000270: cb15 313f 912e 84bd 8f74 dd3e bb13 58bf
00000280: 0ece 5d3d 3d72 403d d55d 5f3f 9b95 b0be
00000290: 5ae0 9b3f 5966 f33e 5508 f43e d846 97be
000002a0: 9e5b c33d c19e 22be 839b 1bbd 9ff2 59be
000002b0: acc4 263e 831b 58bd c4dc 71bd 8616 3dbe
000002c0: e23c 2c3d 8179 813e 21c4 fdbe 07c8 613e
000002d0: e9d0 8dbf f7c5 1f3f 0a8d 09bf 8abd 2ebf
000002e0: 71e8 293d b216 aa3f 84a4 77bf 83aa 94bf
000002f0: cce6 b33f b51e 8fbf 9b97 313e 348c b3be
00000300: 9aeb 95be d8d9 7fbe a502 0a3f e6e4 e13e
00000310: d6d0 ab3d 3747 05bf 5e8d 663d 1207 2bbe
00000320: bc81 22be d51d c0bc f4d3 ac3e 4bc4 c53d
00000330: 7f22 b43d 7f91 6ebe 95b9 d93e cc79 493d
00000340: 28b6 61be 87b2 423e a485 923d 245f 7e3c
00000350: a4cd f4be 8eb0 54bd fc70 35bf 1be9 50be
00000360: bd27 843f 75b8 49bd b99b 3e3f 5276 883f
00000370: b91e 703d 1103 77be a5c2 053f 2497 3c3f
00000380: 12cb 683e d651 693e 4780 ad3e 7ba0 09bf
00000390: ed21 e73e 07df 983e 688d 83bd 0394 e03d
000003a0: c7ff 073f 346e ef3d 33a8 e0be 5498 21be
000003b0: 51de e93e 09b3 83bd a17e 0fbf 0d0c 213e
000003c0: b891 9fbc fdaf abbf 01f8 bf3d 9099 2e3e
000003d0: a46c 113f da61 98bf e6fc 563f 0c1f f5bd
000003e0: 661f 35be 2a9c 0840 9880 d9be 06f9 c4be
000003f0: 68c9 35be bebe 113f be32 87bf 708a c6be

rnn.bias_ih_l0 f4 [60]
0.41851023 -0.2163574 -0.30619004 0.45438746 0.052306253 -0.34516767 -0.007119398 0.6008752
-0.3584264 0.092661016 -0.21853773 0.37071776 -0.46039668 0.33425912 -0.1687332 0.29528674
-0.53788114 -0.3464143 0.61234874 -0.32222056 -0.2689256 -0.5380851 0.43120116 -0.30564335
-0.21801767 -0.32082632 0.4219571 0.05637396 0.59767777 -0.686352 0.32929724 0.05430883
0.67838347 0.48716247 -0.065810315 -0.1546249 0.06326571 0.26916394 -0.33206022 -0.4852409
1.0052742 0.29971445 -0.1707409 -0.34112588 -0.33100227 -0.5996654 -0.5313719 -0.013312371
-0.6109035 -0.010633976 -0.5499898 0.056991585 -0.08639842 0.0110097155 0.08846961 0.024711085
-0.77513033 -0.2744311 -0.04256824 -0.2131913
00000000: f946 d63e cb8c 5dbe f1c4 9cbe 79a5 e83e
00000010: 153f 563d d1b9 b0be d749 e9bb f5d2 193f
00000020: aa83 b7be 0fc5 bd3d 5bc8 5fbe b8ce bd3e
00000030: 1db9 ebbe 0324 ab3e 65c8 2cbe d32f 973e
00000040: 94b2 09bf 375d b1be e3c2 1c3f 18fa a4be
00000050: 9eb0 89be f2bf 09bf 66c6 dc3e 497d 9cbe
00000060: 0640 5fbe 5943 a4be c30a d83e 62e8 663d
00000070: 6901 193f c4b4 2fbf a699 a83e f072 5e3d
00000080: 8aaa 2d3f 5c6d f93e 8fc7 86bd fd55 1ebe
00000090: 7491 813d dbcf 893e cc03 aabe 7f71 f8be
000000a0: d3ac 803f 2c74 993e b4d6 2ebe 0da8 aebe
000000b0: 2179 a9be ac83 19bf fd07 08bf 221c 5abc
000000c0: 2c64 1cbf 213a 2ebc 22cc 0cbf 0270 693d
000000d0: a8f1 b0bd 1862 343c 8e2f b53d e76e ca3c
000000e0: f16e 46bf 3c82 8cbe 095c 2ebd d24e 5abe

rnn.bias_hh_l0 f4 [60]
0.34492803 -0.21068534 0.05487448 0.119250156 -0.18814982 -0.66409874 -0.3387558 0.17345397
-0.11108831 0.18871811 0.15526155 0.50221443 -0.53820765 0.43278357 -0.47320405 0.35088107
-0.5512402 -0.20592052 0.35390767 -0.19852288 -0.34087935 -0.56614846 0.6642953 -0.022726372
0.20750052 -0.17866577 0.54374444 -0.23385239 0.61471 -0.5743014 0.3830615 0.0970474
0.43704695 0.4338918 -0.13055766 -0.20918433 -0.06410784 0.47489268 0.01718066 -0.07199158
0.5320493 0.29527193 0.18121964 -0.1856658 -0.13019288 -0.43289205 -0.30955932 -0.0871796
-0.3545672 0.08057571 -0.56115407 -0.35034862 -0.12623137 -0.33132586 -0.17340314 -0.025763743
-0.8338355 -0.19975166 -0.13567357 -0.5745292
00000000: 689a b03e e6bd 57be 10c4 603d 6d39 f43d
00000010: 59aa 40be 6002 2abf 6671 adbe eb9d 313e
00000020: 4582 e3bd 523f 413e e2fc 1e3e 2091 003f
00000030: fac7 09bf cf95 dd3e cd47 f2be afa6 b33e
00000040: 141e 0dbf d4dc 52be 6333 b53e 9549 4bbe
00000050: bd87 aebe 1bef 10bf 420f 2a3f a82c babc
00000060: 047b 543e 29f4 36be d632 0b3f 0077 6fbe
00000070: a25d 1d3f 6b05 13bf a320 c43e cac0 c63d
00000080: 9ec4 df3e 1127 de3e e8b0 05be 6b34 56be
00000090: f94a 83bd 2225 f33e 75be 8c3c 5270 93bd
000000a0: 6234 083f e22d 973e a491 393e 2d1f 3ebe
000000b0: 4851 05be 07a4 ddbe 8f7e 9ebe 388b b2bd
000000c0: d589 b5be e104 a53d cba7 0fbf e560 b3be
000000d0: cc42 01be 8ba3 a9be 9890 31be 7c0e d3bc
000000e0: 3e76 55bf b38b 4cbe 03ee 0abe 5814 13bf

fc.weight f4 [4, 15]
-0.2767512 0.069705226 0.17196591 -0.23637965 0.15493247 0.061905365 -0.04101355 -0.32084075
-0.36572444 -0.11024058 -0.008447062 0.23757333 -0.3013997 -0.5858081 0.054387588 0.18922941
-0.39393818 0.21339272 0.38971266 0.1675635 -0.38695306 -0.08331873 0.5688791 -0.06511945
0.33593857 0.030145673 0.1368509 0.06445354 0.052259255 -0.47703683 0.51301706 -0.105159834
-0.5542248 -0.0854983 0.2837162 0.15550311 0.15140235 0.61637235 0.2658803 0.06618292
-0.43571076 0.1842324 0.5380069 0.1958627 0.048132602 0.094922096 0.4057989 -0.46719563
0.2687944 -0.27464333 0.34096548 -0.5654493 0.007689866 0.19550563 -0.4043721 -0.10702159
0.10549105 0.057441175 -0.674081 0.5440883
00000000: 55b2 8dbe 9dc1 8e3d d517 303e 820d 72be
00000010: 9ea6 1e3e 7b90 7d3d d3fd 27bd 3d45 a4be
00000020: 3c40 bbbe d0c5 e1bd 8c65 0abc 6c46 733e
00000030: 1051 9abe 85f7 15bf 85c5 5e3d 5bc5 413e
00000040: 44b2 c9be 9f83 5a3e 6b88 c73e c495 2b3e
00000050: b61e c6be 03a3 aabd 10a2 113f 595d 85bd
00000060: 2400 ac3e 0ff4 f63c a422 0c3e 3800 843d
00000070: cd0d 563d 2c3e f4be 1655 033f 0a5e d7bd
00000080: ade1 0dbf bc19 afbd 4043 913e 353c 1f3e
00000090: 3809 1b3e 94ca 1d3f 7621 883e e98a 873d
000000a0: 7b15 dfbe 6ba7 3c3e d2ba 093f 3b90 483e
000000b0: b126 453d 8466 c23d e0c4 cf3e 4434 efbe
000000c0: 6b9f 893e 0d9e 8cbe 0793 ae3e 49c1 10bf
000000d0: 45fb fb3b a132 483e dc09 cfbe 232e dbbd
000000e0: b10b d83d 7047 6b3d 9390 2cbf 5f49 0b3f

fc.bias f4 [4]
0.4322425 0.22075939 0.21856487 0.20719834
00000000: e44e dd3e c00e 623e 78cf 5f3e cd2b 543e
