checkpoints/longlag_nonlinear_signals_model_weights3.pth (torch_old, 6261 bytes, 6 tensors)

rnn.weight_ih_l0 f4 [60, 4]
00000000: 30f9 903e 435a ab3c ab98 8c3e b0aa 473f
00000010: 9a9c 283e c52d 32be 1cc8 963e 7b44 223e
00000020: 66ff 893d 5205 27be 74e6 413d b89e b93e
00000030: 9892 473e 8ed6 c13d 7037 163f 2a4d d13e
00000040: 3e3a 253f 9962 d8bd 7c3f 8d3e 2ac7 6fbe
00000050: 10dd 963e 4e5a 1e3e e48b 663c bcd2 fb3c
00000060: dbd0 52be 29a0 7f3f 7c37 dbbd d06c a5be
00000070: c62f b7bf 4a99 a03d 2b30 1ebf a665 5cbf
00000080: ffc6 5dbf d468 21bf f9ac 1ebe 74bc 21bf
00000090: 42fc 8e3e 32c4 223f c0ce c5bd 4d09 1c3d
000000a0: 71bb 0abf 0dd3 9f3d 1f8d dbbf d62f 833f
000000b0: f9d1 09bf 775e 44bf 58b0 2ebe e7a7 073f
000000c0: 78a8 c7be c97b 1b3f de35 213e 6ea5 bd3c
000000d0: 3ac7 5cbe 5887 55be b901 e4be dda1 08bf
000000e0: c7ce 1d3f b7f6 ffbe 4b87 713e c734 4a3e
000000f0: ec48 5f3e a99f a8bd 236d 673c b8f3 303f
00000100: 906b 5b3e c5a9 7dbd ccd6 b6be 8fee ae3d
00000110: 8238 c53e c459 d23b f9ca 393d ca80 513f
00000120: 2d91 1cbf 5cde 62bd b0e8 69be 6d10 26bf
00000130: a76c af3e 8954 073f da78 febd 18c2 4fbf
00000140: 8dcf 203f d9ff 633e dd70 0b3e 6685 d03e
00000150: a20b 5ebf 9489 8e3c ec59 2dbf 5e6d 70bf
00000160: 1fea 0ebf dd59 75bf 340f 82be 98e3 3bbf
00000170: e126 c7be 5324 8abe a933 3f3e e512 0bbf
00000180: 8889 8cbe 5fc8 14bf 11c6 bb3d 2b3c 98be
00000190: ac76 a2bf f04d e3bb f914 93bf df9f 1cbe
000001a0: 2d0e 03bf 1f30 82bf 6fa4 133f e985 dc3e
000001b0: 0d01 c0bf 3398 18bf c708 82bf 8be0 f6be
000001c0: a98c 323f bbf4 d83e 3f6c fd3e f591 ad3e
000001d0: b240 02bf 2c20 03bf f720 a93d 4037 48bf
000001e0: 5ed0 f6bd ca1e ccbe a6e3 a2be 53ec 70bf
000001f0: f1e6 09bf 0858 a0bb bc9b 65be c086 a7be
00000200: a4e9 16be 3a2f 9f3c 070d 40be 4ebf ffbe
00000210: a123 71be 7ca4 7d3e c0f0 f53d 60dc 2b3f
00000220: e0e9 8bbf 5efe da3d f39d cc3d 6e90 7f3d
00000230: d15f 353f 1d08 713d 7dc3 d5bd f3cc ea3d
00000240: 83c2 d3bd 4ce0 bdbd 9f2b a13d 418b 8ebe
00000250: 9610 19bf e923 563e f6e7 cbbe 6474 2fbf
00000260: e2a9 d73d 9f4f c93e 8c87 f73d 0817 77bd
00000270: a223 383e 1abe acbd 6ab0 c4bb c65f 1b3f
00000280: c0c8 ccbd f248 23bf 1e43 87be 77cc 8abf
00000290: e08b a4be e878 093e 3d93 debe 59ae 83bf
000002a0: 0624 9fbe c7e6 8ebd a9e5 e7bd aac3 263f
000002b0: b1d9 cebe bba5 6a3e b3e5 9e3d eb08 213f
000002c0: 42e0 783f 9dd6 0c3e 4a1a f13c 3d5a 263e
000002d0: 44b2 ab3f 09d9 85bf 2cd6 493d 5008 66be
000002e0: 63f8 523f 4204 6a3f b29d 42be e3cd 853d
000002f0: 7dd2 003f 141e e43e 38ef a43d 07e4 353f
00000300: 5027 eebe 1147 1c3c 54a8 d83e 33da c43e
00000310: cc71 603f 1714 903e ca84 fa3e 2a7a 9cbe
00000320: 3de9 adbe f3ac 333f 4acc 293e baa1 ae3d
00000330: 1e16 883e dd80 b33f 1c50 233e b5f8 24bf
00000340: 22d1 99bf 0a6d f23e 8885 84be 4e3b 23bf
00000350: eb25 2bbf 1456 2fbe a9e7 57be 69ea 1dbf
00000360: 5ba3 2dbe 1bc1 9f3e ed74 8f3e a7df 853e
00000370: 449f 04bf be06 80bd a424 b5bf dbd8 a03f
00000380: 6eb7 27c0 4587 5abe 35a4 d9be c5c2 823f
00000390: 67c3 8cbe 4d60 023f 8eea fa3e 1426 003b
000003a0: 2863 38be bcfc 803e b390 2c3e e50a 01bf
000003b0: 171d 453f cb1b 9ebe 4544 d43e e156 70be
0.28315115 0.020917064 0.27460226 0.77994823 0.16465989 -0.17400272 0.29449546 0.15846436
0.067381665 -0.16310623 0.047338918 0.36253905 0.19489515 0.09464751 0.5867834 0.40879184
0.64541996 -0.10565681 0.27587497 -0.23415819 0.29465532 0.15464136 0.014071438 0.030740134
-0.20587485 0.9985376 -0.10703942 -0.3230958 -1.4311454 0.078417376 -0.6179225 -0.86092603
-0.8663177 -0.6305058 -0.15495671 -0.6317818 0.27926832 0.6358062 -0.09658575 0.038094807
-0.5419226 0.078039266 -1.7152442 1.0248973 -0.5383602 -0.7670664 -0.17059457 0.52990574
-0.3899572 0.60735756 0.15743205 0.023150172 -0.21560374 -0.20852411 -0.44532564 -0.53371984
0.6164364 -0.49992916 0.23586766 0.19746695 0.21805161 -0.08233578 0.014125141 0.69121885
0.2142775 -0.061929483 -0.35710752 0.08541595 0.38519675 0.0064193923 0.045359585 0.8183714
-0.6115902 -0.05538784 -0.2284267 -0.64868814 0.34262583 0.52863365 -0.12425394 -0.8115554
0.628167 0.22265567 0.13617273 0.40726775 -0.867365 0.017399587 -0.67715335 -0.9391688
-0.5582599 -0.95840245 -0.25402224 -0.73394156 -0.3889685 -0.26980838 0.1867205 -0.54325706
-0.27448678 -0.5811824 0.091686375 -0.29733405 -1.2692466 -0.006936781 -1.1490775 -0.15295361
-0.51193506 -1.0170935 0.5767278 0.43070915 -1.5000321 -0.5960724 -1.0158929 -0.48218188
0.6974588 0.42374215 0.49496648 0.3390042 -0.5087997 -0.51220965 0.08258241 -0.78209305
-0.12051462 -0.3986724 -0.31814307 -0.941106 -0.53868014 -0.0048933066 -0.22422689 -0.32719994
-0.14737564 0.019431699 -0.1875497 -0.4995064 -0.23548748 0.24769777 0.1200881 0.6713314
-1.0930748 0.10693048 0.09991064 0.0623936 0.7084933 0.058845628 -0.10437677 0.11464872
-0.103398345 -0.09271297 0.07869648 -0.27840617 -0.59790933 0.20912136 -0.3982541 -0.68536973
0.105304495 0.3931856 0.120864004 -0.0603247 0.17982343 -0.084346965 -0.0060024755 0.60693014
-0.099992275 -0.6378318 -0.26418394 -1.0843648 -0.32137966 0.13425028 -0.4347171 -1.0287582
-0.3108217 -0.06977611 -0.11323101 0.6514231 -0.4040046 0.22914784 0.077586554 0.6290423
0.9721719 0.13753743 0.02943148 0.1624536 1.3413777 -1.0456859 0.049276516 -0.22464108
0.8241026 0.91412747 -0.19005468 0.065334104 0.5032118 0.44554198 0.0805344 0.7105107
-0.46514368 0.009538428 0.42315924 0.38447723 0.8767364 0.28140327 0.48929435 -0.30561954
-0.3396701 0.70185775 0.16581836 0.08526941 0.26579374 1.4023701 0.15948528 -0.64441997
-1.2016947 0.47348815 -0.25883126 -0.63762367 -0.66854733 -0.1712268 -0.21084465 -0.61685807
-0.16956846 0.31202015 0.28018895 0.26147196 -0.5180552 -0.06251286 -1.4151807 1.2566179
-2.6205707 -0.21340664 -0.42508093 1.0215689 -0.2749283 0.50928193 0.49007076 0.0019553946
-0.18006575 0.2519282 0.16852073 -0.5040725 0.7699751 -0.3088058 0.41458336 -0.23470642

rnn.weight_hh_l0 f4 [60, 15]
00000000: f1af ddbd 144a 833d 32cb acbf de1a a9be
00000010: c0c8 34be 43e7 47bf 5332 c23e ae7f b9be
00000020: 830f 96bf fa3b 8dbe 2210 11bf 3b71 293f
00000030: c2db 693e 1dd2 363f 6a72 12bf e6a3 83bd
00000040: 4b61 1d3e 01b5 00bf 9b88 1abf 46b9 ae3e
00000050: cb4e 963f d9f5 793e 699c 83be 0d95 0fbf
00000060: 3779 ba3d 2309 2f3f 499c 173e 1a50 18bd
00000070: 38b3 a43e a82c ee3f 4d33 663c f970 b33e
00000080: b17a a13e 587e 38bf 94e4 423f 3dd3 28c0
00000090: 3b92 e5be 1b76 7bbe 238b 9ebf fc04 913f
000000a0: 52be 10bc 5266 443f 9017 1f3e 25ef 003f
000000b0: 41c8 18bf 8228 5dbe 3b5f da3c c916 343f
000000c0: a295 c3be 7347 14be 6857 863f 4c8a e2be
000000d0: 5987 03be 9161 09bf a4e6 6bbf bb2b c73d
000000e0: d983 01bf 76f4 4d3f 9786 efbe f2be 40bf
000000f0: 6a36 28bf 6a85 3fbe 5017 58be 1d70 f8bf
00000100: f239 123f d55e e33e aafa 843e 5bb5 cf3b
00000110: 0410 31bf a435 883f 42fa 1b3f bda1 a1bf
00000120: 1d73 013f 7b45 51bd 4229 fabf 7ab5 8fbd
00000130: a69e d2be 93f8 4bbf 7c12 a2be 0bb2 80be
00000140: 2e1c 95bd 9af3 683e 6894 473f 09d4 88be
00000150: 6065 043d 1df5 a5be 0a00 32bd dbfe 56be
00000160: d2f3 073f 716d 163d 1ac3 06bf 46ca 15be
00000170: 479d cfbe 201d e3be 4e46 bbbe c270 a83d
00000180: a550 a33f b2bb abbf 65f9 b7bd 15f8 58bf
00000190: 7773 19bf c894 06bf c7a1 393f 80db 9c3f
000001a0: 68d7 e7be 432a 833e cbff 313f 6a8c 953f
000001b0: 5057 d4be 1da4 aa3f 020e a33f fcd1 77bf
000001c0: 645e e9be 931f e5be 7ebe 413f bc5a 3dbf
000001d0: 02cf 3dbd 2f95 61bf d33e 23bf 8ea6 7ebe
000001e0: d4b0 dcbd 2f54 5cbe ce73 0a3f 401a 9fbc
000001f0: 32fd 0a3f 4164 df3f 2957 d03e af23 3cbf
00000200: 803a 0dbf e440 963f 8080 0540 6c72 333e
00000210: ad7b abbf b98b e1be 3a6a aebf 2d26 84be
00000220: d5ac 8b3b aeef 18bc f7dd 0c3f 22a2 a3bd
00000230: 00c3 b63f 4511 9dbd 4509 cabd fe74 163f
00000240: 236c 643d 2fbf a83e b4d1 b93d 9fb3 c0be
00000250: 6b10 83be 4eca a3be 97a7 09be 22db 2cbe
00000260: 7c2c 193f f8d8 0e3e 6363 8c3e d474 1440
00000270: d433 85be 771b 9cbe b767 21bf d1d6 a6be
00000280: 676a 5b3c 7521 463f 2ff3 19be ebbb b53e
00000290: 4703 45bf 7844 2abe 722e 80be 928b 983e
000002a0: 445b 763f bea8 32bf 2b05 d33f 7fef 323f
000002b0: 3ab2 1c3f afb8 363f b2ea 483f 805c b63e
000002c0: 0257 fdbe 7e38 21be 98cd 9bbf f0d0 3ebc
000002d0: bdf3 63bd 4691 ba3e 9509 78bf 3d5a 4f3f
000002e0: 1ecc d8be 7576 08c0 c411 88bf 86f4 8b3f
000002f0: 726f c73e 37ba 403f eac4 4e3f e65e 69be
00000300: a241 443f 0a6d a93f 4b80 473f 1426 c13e
00000310: 9c25 df3e d3a1 a0be da67 113f 6f2f 993e
00000320: 4687 933f 347a ddbf cdf7 6bbe c1e7 18be
00000330: ef71 d53e 0f5a 6abf d932 4a3e 83cb 67be
00000340: 41d6 943e 27d7 543f e73d e7be 493e abbe
00000350: 1cbc d1bd 5318 15bf 56e1 70bf c74d 0dbf
00000360: 99e6 d63e 0982 cd3d 7ccf 0f3f d656 9d3f
00000370: dc16 7dbd d1bb abbf 631f d3be 0007 cbbe
00000380: 252e 9a3f 9ef4 e83e 0f4e c63e debe a9bf
00000390: c611 15bf c2e6 5ebe 5063 78bf af72 bbbe
000003a0: f4f3 14bf adeb 4bbf 2934 7d3d d6c9 27bf
000003b0: a205 2d3f 1635 da3e aa8d 723f 73de 84bf
000003c0: b944 163d 1d4e 813e 2560 25bf 3c1e 8ebe
000003d0: 0140 e33c 7ee8 503f 1d70 10bd f4f0 ddbe
000003e0: 996c 10bf 9854 a93e 4f33 503f 2d61 ac3e
000003f0: 31d2 bb3d 4668 043f 355c fb3f 50c0 1fbd
-0.10824574 0.06410614 -1.349951 -0.3302831 -0.17654705 -0.7808725 0.3792902 -0.36230224
-1.1723484 -0.2758482 -0.5666524 0.661884 0.22837737 0.7141436 -0.5720583 -0.064277455
0.15369146 -0.5027619 -0.60364693 0.34125727 1.1742796 0.2441019 -0.2570527 -0.5608681
0.09105151 0.68373317 0.14805712 -0.037185766 0.32167983 1.8607378 0.014050317 0.3504713
0.3153892 -0.72067785 0.7613003 -2.637893 -0.44838127 -0.24556772 -1.2386211 1.1329646
-0.008834438 0.7671863 0.15536332 0.50364906 -0.59680563 -0.21597484 0.026656738 0.7034727
-0.38200098 -0.1448038 1.0495424 -0.44246137 -0.128446 -0.536645 -0.92148805 0.09725138
-0.5059181 0.8045114 -0.4678237 -0.7529136 -0.6570803 -0.18703237 -0.21102643 -1.9409214
0.5711967 0.4440829 0.25972492 0.006338758 -0.6916506 1.064137 0.6092874 -1.2627484
0.50566274 -0.051091652 -1.9543841 -0.07017036 -0.41136664 -0.7967617 -0.31654727 -0.25135836
-0.072807655 0.22749177 0.77960825 -0.2672427 0.03232324 -0.3241357 -0.04345707 -0.20995657
0.53106415 0.036725465 -0.5264145 -0.14627942 -0.4054968 -0.44358158 -0.36577076 0.08224632
1.2758986 -1.3416655 -0.08983115 -0.84753543 -0.5994181 -0.5257077 0.7251248 1.2254486
-0.4528153 0.2561818 0.69530934 1.1683476 -0.41472864 1.3331333 1.273865 -0.96804786
-0.45579827 -0.44750652 0.75681293 -0.73966575 -0.046339996 -0.8811826 -0.6376774 -0.24868223
-0.10775915 -0.21516488 0.54082954 -0.019421697 0.54292595 1.745247 0.40691498 -0.7349195
-0.5516739 1.1738553 2.085968 0.17524117 -1.3397118 -0.44051912 -1.3626168 -0.25810376
0.0042625465 -0.009334488 0.5502619 -0.07989909 1.4278259 -0.076693095 -0.09865049 0.58772266
0.05576719 0.32958362 0.09073201 -0.3763704 -0.25598463 -0.31990284 -0.13442837 -0.16880468
0.598335 0.13949955 0.27419576 2.3196306 -0.26016104 -0.30489704 -0.6304888 -0.32585767
0.0133920675 0.773948 -0.15034173 0.35494933 -0.76958126 -0.16627681 -0.25035435 0.29793984
0.9623301 -0.6978873 1.6485952 0.6989669 0.6120945 0.71375555 0.78483117 0.35617447
-0.49480444 -0.15744206 -1.2172117 -0.011646494 -0.05565237 0.3643896 -0.9688962 0.8099707
-0.4234323 -2.13223 -1.0630422 1.0933998 0.38952214 0.7528414 0.80769217 -0.22790107
0.7666265 1.3236401 0.77930135 0.37724364 0.4358338 -0.31373462 0.5679909 0.29919
1.1525657 -1.7302918 -0.23043747 -0.14932157 0.41688487 -0.9154367 0.1974596 -0.22636227
0.29069713 0.83140796 -0.45164415 -0.33445957 -0.10240957 -0.5824024 -0.94093835 -0.55196804
0.41972807 0.10034568 0.5617597 1.2292125 -0.06178938 -1.3416692 -0.41234884 -0.39653778
1.2045332 0.45499128 0.3873143 -1.3261373 -0.58230245 -0.21767715 -0.9702654 -0.36610934
-0.5818474 -0.7965649 0.061817322 -0.6554235 0.6758672 0.42618626 0.9474741 -1.0380386
0.036686633 0.25254908 -0.6459983 -0.27757442 0.02774048 0.81604755 -0.03526317 -0.43347895
-0.56415707 0.33072352 0.8132829 0.3366789 0.0917095 0.5172161 1.9637514 -0.039001763

rnn.bias_ih_l0 f4 [60]
00000000: 46d2 893e 1648 88bd 85cc 49be 37cb 9b3e
00000010: 2f28 8e3e 7839 57be 0db0 4e3c 0331 57bd
00000020: 4b9c 9abd ff82 5f3d 7224 ffbe 00ea f53e
00000030: f3b6 b5be e88c 86be fc7d 423f c655 063e
00000040: 7602 f3be b078 82be 74c7 12bf 3730 17bf
00000050: 20c3 d53e 2d70 06bf fde5 a83d 0e2d 87be
00000060: e418 893e f8ea 69bf 76ce 873e 669f a1bf
00000070: 4a3c 273f 69f6 2fbe 15bf bcbe f4df 91be
00000080: 41c1 c93d 3acb 7fbc e953 033e bbfb 1dbe
00000090: 1fc4 d43d 6bcd 913e 8f61 313d c965 9ebe
000000a0: d806 a73e 87c8 11bf 55c1 2abc 0cda 733d
000000b0: ff3b 44be 90ef 01bf 22a3 f6be 5cec d43d
000000c0: 6a85 54be a2f7 e83e ab0c 523e 0412 2cbe
000000d0: f685 b1bd 665c 99be c6da 8e3c 2e90 18bf
000000e0: f424 82be f4de 87be 9229 80be 8f84 253f
0.26918238 -0.06654374 -0.19706924 0.30428478 0.27765033 -0.21018016 0.012615216 -0.052536976
-0.07549342 0.054568287 -0.49832493 0.4803009 -0.35491142 -0.26279378 0.75973487 0.13118657
-0.47462815 -0.25482702 -0.5733559 -0.59057945 0.4175043 -0.52514917 0.08246992 -0.26401561
0.26776803 -0.9137416 0.26524705 -1.262677 0.6532637 -0.17183842 -0.36864534 -0.28491175
0.098513134 -0.015612418 0.12824978 -0.15428059 0.1038897 0.28477034 0.04330593 -0.3093703
0.3262241 -0.56946605 -0.0104220705 0.059534118 -0.19163512 -0.5075617 -0.48171335 0.103966445
-0.20754018 0.4550143 0.20512645 -0.16803747 -0.08668129 -0.29953307 0.017438304 -0.59595
-0.25418818 -0.26537287 -0.25031716 0.64655393

rnn.bias_hh_l0 f4 [60]
00000000: 5f44 273c f55d c2bd 0a09 e7be 07e6 0abe
00000010: b754 353e 8dc4 8dbd f6e1 31be 5620 62bd
00000020: 2ec7 b2be 678e 233e 4778 cbbe 8402 d73e
00000030: 08ce 75bd 6a87 8abe 58c6 323f 280f 36be
00000040: 337a 3abe 9128 aebe 1a7b cbbe a4c8 06bf
00000050: f4cf 873d de32 c4be c2c1 87be 84f3 80be
00000060: 08df 823e d554 83bf 9193 623e e940 93bf
00000070: 9b7f 413f ecd6 c6be 5680 c7bd 1238 03bf
00000080: 8546 bd3d 14a8 a4bb e2b2 003e 00f4 4dbe
00000090: 7478 8d3d 9752 ea3d 2c50 893d 3fe1 cb3b
000000a0: b41a a43e 5337 1cbf 41b2 303e bcc6 4cbe
000000b0: 6d58 91be 8888 58bf 2db1 1ebf 5b73 91be
000000c0: ec8f 8e3d cec8 b43e 542f 0e3f 1249 1c3e
000000d0: f990 98bd 3afb 15be 52e4 623e 7527 2dbf
000000e0: 7743 4bbe 948f 613b 3cf7 77bd 4d02 053f
0.010209172 -0.09490577 -0.45124084 -0.13564311 0.17708097 -0.06922255 -0.17371354 -0.05520662
-0.34917587 0.15972291 -0.39740202 0.41994107 -0.06001094 -0.27056438 0.698339 -0.17779219
-0.18210678 -0.34015325 -0.39742357 -0.52649903 0.06631461 -0.3832006 -0.26515013 -0.25185788
0.25560784 -1.0260264 0.22126605 -1.1504184 0.75585335 -0.38835847 -0.09741275 -0.5125743
0.09241966 -0.0050249193 0.12568238 -0.2011261 0.0690774 0.11441534 0.06704745 0.00622192
0.32051623 -0.6102192 0.17255498 -0.19997686 -0.28387776 -0.8458333 -0.619891 -0.28408322
0.06961045 0.35309452 0.55540967 0.15262249 -0.07449526 -0.14646617 0.2215741 -0.6763833
-0.19849955 0.0034417855 -0.060538515 0.51956636

fc.weight f4 [4, 15]
00000000: 3ba4 04bf a2cf c3be ead7 72bd d6fc 97be
00000010: 9ee4 16bf 96a1 523d 421b e0bc 55dc ebbd
00000020: b846 48be a2a0 573e fccd 2b3e fa14 083f
00000030: 842b 6a3c 9e4f 74bd 176c 2f3f 3980 9bbc
00000040: 364f c2be bbf5 db3d bb76 2e3e 8553 6d3e
00000050: c8df 133e 328d 69bf b7df cc3e 2524 dcbd
00000060: 5719 eebe 0b25 2c3d e5ac 8c3e a2e1 5bbe
00000070: 286d 033f b553 b93d 7fd2 75be b33b a3be
00000080: f7b4 3fbe 24e4 79be 01bb 10be 2d85 dabe
00000090: 9299 90bb f9a2 de3d c2c8 85be 9d60 5a3c
000000a0: 284e 383e 9a1c 873d 69e0 cb3e a7c0 5a3d
000000b0: 04d3 84bd eec9 953d bb12 d73d df4a 41bf
000000c0: b1d3 ec3e 7cac cd3c 060f 9b3e 3e85 85bd
000000d0: 5ca3 0ebe 320d 553e 2107 a53e 5472 53bf
000000e0: 7e11 90be 86ee 643f ff92 7e3e ee90 4e3e
-0.51813096 -0.3824435 -0.059287943 -0.29685086 -0.5894259 0.05142363 -0.027356748 -0.115166344
-0.19558227 0.2105737 0.16777796 0.5315701 0.0142926015 -0.05964624 0.68524307 -0.01898204
-0.37951058 0.10740229 0.1703748 0.23176391 0.14440835 -0.9123107 0.4001443 -0.107490815
-0.46503708 0.042027514 0.27475658 -0.21472791 0.51338434 0.09049169 -0.24006079 -0.31881484
-0.18721376 -0.24403435 -0.14133836 -0.4267973 -0.0044128383 0.10870928 -0.2612973 0.013328698
0.17998564 0.06597252 0.3981965 0.053406384 -0.064855605 0.07313906 0.105016194 -0.7550487
0.46255258 0.025106661 0.302849 -0.065195546 -0.13929504 0.20805815 0.32232 -0.82596326
-0.28138345 0.8942646 0.24860762 0.20172474

fc.bias f4 [4]
00000000: 676b d63e d95f 1d3e b8e4 eb3e 09d8 1c3e
0.41878816 0.15368594 0.46072936 0.15316786
