checkpoints/longlag_nonlinear_signals_model_weights1.pth (torch_old, 14317 bytes, 10 tensors)

rnn.weight_ih_l0 f4 [60, 4]
00000000: 6fd2 853e dd9a 3d3e 7e78 fa3e 4e36 ae3e
00000010: a3d5 0f3f 905f dd3e 94aa 663e 0e65 0c3f
00000020: 8db6 b93e c4fa e63e 404a babe d3e8 ff3f
00000030: 70fb d73d e861 d23c 535a ef3e da07 033f
00000040: 8afb 6e3f 08cb 863f 081c be3e 561b 8e3e
00000050: 059f 913e a86d a43e e4a5 413e 24ab df3e
00000060: 0131 c1bf 381f e53e 94ab 7b3e ba80 01be
00000070: 22b8 d93d 9d53 c13e ec05 1f3d bd19 483d
00000080: 2d67 173f 93d4 273f 6edc 163f c3f0 ad3e
00000090: 352e ea3e 8e74 df3d 3dc0 8f3e 8991 e03e
000000a0: 741e 593f 0cf3 bb3e bc48 ed3e 3f21 fb3e
000000b0: 8577 c23e 080b d33d 7d15 d73d a2b3 e23e
000000c0: 36ad 3cbf f7e8 71be 6f86 5e3e e9cb 6d3e
000000d0: 825a ab3e 3807 893e baf6 4dbe 3403 303f
000000e0: 2fee d83e af0a d63e cc30 fa3e 8ef3 b83e
000000f0: 9aeb 013f 1676 443e 0683 103f 5943 b23e
00000100: b115 0e3f 7ff8 d03e 05ad fa3e 2159 983e
00000110: a283 963e ff60 fb3a 3c4e 80be 7139 b53f
00000120: 5a70 6d3e ebeb 933e 9f3d d63e e0c7 133e
00000130: 76a6 983f c30a 123f 0780 e63e b42b 7bbe
00000140: bb68 e63d 4600 e53e dd9f 773e 73c3 8a3e
00000150: 475c bebf 249c fb3e b318 0c3e 9e11 aebe
00000160: 9f56 cc3e dd07 c23d 7847 7d3d 7499 b23e
00000170: 585f 253e 5bd6 653e fae5 ed3c 4b9f 3c3e
00000180: a57a b63e a64c e63e 1a66 803e c558 463e
00000190: fe11 7a3f dbd8 883e 3c0c 9f3e cd59 a23d
000001a0: 43ec 553d f1cc c13e 6cd2 bd3e 55a7 a33e
000001b0: 0384 7bbf 5ace 47be 8581 41be a040 6abd
000001c0: 0ff5 bf3e c38e 4c3e 6a4b afbe 741b b43f
000001d0: 0676 713e 8e57 0d3f 2488 403e 8e38 ef3e
000001e0: 08cc 163d 236d a43e 7243 313e 7b91 8b3e
000001f0: 1f71 c33e 8364 013f 8cf1 453e 89f6 cf3e
00000200: b760 81be 34fb bebe 4989 063d 5ccb d1be
00000210: 3d9c b73e edfe de3e 1d44 c03e 8053 f63d
00000220: 3149 5dbf e18a a8be b2e7 18bf 9ead 6c3c
00000230: bdba 8e3e eea9 f23e e533 793e fefc e13e
00000240: bf1f 20be 465f 02bf 454e 05bf 7f96 27bf
00000250: 824d ec3d ac41 593e 4fe7 44bd 0fa5 d73e
00000260: 5401 ddbe 1782 01bf abbd 7abe 6947 8dbe
00000270: aeb1 0ebf 166c e4be edcb 1abe 9b39 71be
00000280: 5b79 fb3e fd38 343e 4ed5 143f 2b95 c83e
00000290: fa38 4cbd 5e67 d2be 2b2a 25bd 9804 28be
000002a0: 3ad6 083f c88e 363f f0dc 193f c1fa fb3e
000002b0: 5d17 b43c af6d 493e d141 c93e a257 e93e
000002c0: cf9d 553e e88e 7d3e d0b3 973e fd7e d63e
000002d0: a70b 2d40 376b fabd 8169 89bf 1925 713e
000002e0: c5d4 3f40 529e 943e 9008 e9be 5d2b e53e
000002f0: 9d24 8e3e 1ea4 ccbc 02f3 15c0 ca99 9b3f
00000300: 35f8 1c40 067d 4cbe bd36 443c a06c 86bf
00000310: c050 0b40 10b3 e1bb f1a6 803f 995b c8bf
00000320: d61d ea3f eaba 173f ccf6 7d3e 0a0b a1bd
00000330: f952 11c0 2c48 263f acb6 25be 8eb3 43be
00000340: 5811 273f 12ab a0bc d643 febf 1ea0 9fbe
00000350: 5d37 d4be 749f 0d3e 4f39 d83e f455 663f
00000360: eff8 e03e 06cb 0dbf c8d5 0f3e f810 913f
00000370: ea3a 2e40 c618 543e a307 af3e dd93 bfbe
00000380: d6e6 153f 1747 6d3f 3db8 50bf f657 8e3f
00000390: 357d 85bf 4479 353e 0fa7 c93c a0d1 8f3d
000003a0: 8fc1 39be 8db9 08be 6f40 f5bf b8b3 7f3f
000003b0: 98ae 0a40 454c 7a3e c5bf acbf 3962 d83f
0.2613711 0.18516107 0.48920053 0.34025806 0.5618536 0.4323697 0.22526008 0.548417
0.36272088 0.45113194 -0.36384773 1.9992927 0.10546005 0.025681451 0.467486 0.51183856
0.9335257 1.053071 0.3713076 0.2775523 0.28441635 0.3211491 0.18910939 0.43685257
-1.509308 0.4475038 0.2457717 -0.12646762 0.10630824 0.37759104 0.038824007 0.04885267
0.5914181 0.6555874 0.589301 0.3397275 0.45738378 0.10910903 0.28076354 0.43861035
0.8481209 0.36708868 0.46344554 0.49048802 0.3798181 0.103048384 0.105021454 0.44277674
-0.737018 -0.23624025 0.2173097 0.23222317 0.3346749 0.2676332 -0.2011365 0.6875489
0.4236922 0.41805026 0.48865354 0.36123317 0.50750124 0.19185671 0.56449926 0.34817007
0.5550185 0.40814587 0.48960128 0.297555 0.29397303 0.0019178687 -0.25059688 1.4158155
0.2318739 0.2889093 0.41843888 0.14431715 1.19258 0.5704767 0.45019552 -0.2452839
0.112504445 0.4472677 0.24182077 0.2710224 -1.4871911 0.49142563 0.13681297 -0.33997816
0.39909837 0.09474156 0.061835736 0.348827 0.16149652 0.22445051 0.029040325 0.1842014
0.35640445 0.44980353 0.25077897 0.193698 0.97683704 0.26727948 0.31064022 0.079272844
0.05222727 0.3785167 0.37074602 0.31963602 -0.9824831 -0.1951231 -0.18897064 -0.057190537
0.37491652 0.19976334 -0.34237224 1.4070878 0.23580179 0.5521172 0.18801934 0.46722835
0.036815673 0.32114515 0.17310885 0.2725943 0.38172242 0.50543994 0.19330424 0.4061778
-0.252691 -0.37301028 0.03284577 -0.40975463 0.35861388 0.43553868 0.37551966 0.12027645
-0.86439806 -0.32918456 -0.5972854 0.01444569 0.27876845 0.4739527 0.24336202 0.4413833
-0.1563711 -0.50926626 -0.52072555 -0.65464014 0.11538221 0.21216458 -0.048072156 0.42118117
-0.43165076 -0.50589126 -0.24486415 -0.27593544 -0.5573987 -0.44613713 -0.15116854 -0.23557131
0.49116024 0.17599864 0.5813798 0.39176306 -0.049859025 -0.41094488 -0.040323418 -0.16408002
0.53451884 0.71311617 0.6010275 0.49214748 0.021983797 0.19670747 0.39308026 0.4557467
0.2086098 0.24761546 0.29629374 0.4189376 2.7038362 -0.12227481 -1.0735322 0.23549308
2.9973614 0.2902704 -0.45514345 0.44759646 0.2776231 -0.0249806 -2.342957 1.2156308
2.4526494 -0.19969568 0.011975941 -1.05019 2.1768036 -0.006887801 1.0050946 -1.5652953
1.8290355 0.59269583 0.24801177 -0.07863434 -2.2706892 0.64953876 -0.16182965 -0.19111463
0.6526084 -0.019612823 -1.9864452 -0.31176847 -0.4144849 0.13830358 0.42231223 0.89974904
0.4393992 -0.55387914 0.14046395 1.1333303 2.7223458 0.20712575 0.34185514 -0.37417498
0.5855535 0.926866 -0.81531125 1.1120594 -1.0428835 0.1772204 0.024615793 0.07022405
-0.18140243 -0.13352032 -1.9160289 0.99883604 2.1669064 0.24443157 -1.3496023 1.6904975

rnn.weight_hh_l0 f4 [60, 15]
00000000: 77fd 313e 6915 eb3e 2f2e 65be 1af8 b23e
00000010: c886 cbbe 0262 b03e c97f 913e 3c14 f8be
00000020: 049e 84be e5e7 05be b59e b93e 814d 06bf
00000030: a386 663e c2c9 493e cbe5 043e bc49 123e
00000040: 700f b63e 3777 01be f69d 8e3e d34a 1fbe
00000050: 357d 033f 27bc d43e 3220 36be f86e f2be
00000060: 2a79 edbe 543b 8c3e a1a4 a1be 75c1 3d3e
00000070: b34d c83e 225f 9e3e 0fc3 963d af23 ae3e
00000080: 2142 a0be b588 9e3e eb4d 24be a54c 3f3e
00000090: 228e 1bbf a3d4 e43e 59bf 283d 5cd2 c3be
000000a0: b1a9 8e3e 6a3e 5ebe 07c8 173f 32db 473f
000000b0: 536c 8d3d 2449 973e 4941 0c3f 04d0 75be
000000c0: 1b40 a73e f8e9 69bd bd21 133f 78d3 393e
000000d0: 73df b3bd 12bf 6fbe ff2e 0bbe ac2f 093f
000000e0: 1e58 86be 8185 833e fcc5 c03c 930d ee3e
000000f0: 5aca ab3e 07ff 8b3e c490 bdbe 1b20 9f3d
00000100: 5b8d 62be 0bd2 623e c588 e73d bb1e f1be
00000110: 0225 05be eb1e 3d3d 3e8c afbc 0748 10bf
00000120: b467 d63e 20fd b33d b38e ae3e 0ee4 be3e
00000130: 0229 7c3e 1c82 d4bc 2c99 4a3e 0173 07bf
00000140: 334f 4a3e 8526 3b3e cc18 b7be 35fa 95bd
00000150: 2ea2 62be 0c13 ba3d 30e6 a1be 59b7 af3e
00000160: 5369 2c3e 8675 033f 2b00 a6bd 79f5 dfbe
00000170: 04c1 e83d f3f7 ac3e 8de0 96bd 0c14 e9be
00000180: aa39 2dbf 8528 0c3f 13de 3fbf 0634 0abf
00000190: 3eda df3d 69da ec3d feae 8e3e 40a2 be3e
000001a0: 48d0 32bf 9795 183e e0fe b53e 83bb f6bd
000001b0: c40c ea3e d4bd f7be 8378 323f af2e 39be
000001c0: 38b3 213f 7d50 aabe a20e 04be 5ee9 e03e
000001d0: 7821 f1bd b6fd 90be 4df4 1c3f 7a36 ca3e
000001e0: d900 ea3e 35c4 273f f978 c7be 33f9 163f
000001f0: 5167 f4be 2864 bf3e cb6c 073f d265 0abe
00000200: b3f5 cebe 7a9c 4ebe 9b9e 6f3e 27b7 08bf
00000210: c213 8ebd 307a f43e 1a09 f83e c095 193f
00000220: f73c cd3e 17ce d7be 64e2 c53e 602f 91be
00000230: cd4e 203d bf13 e93e 8c76 a3bc fcf2 76be
00000240: 0a85 c5be 8bfa ca3e abbd 04be 7ee8 c63e
00000250: 1c25 61bd 0a61 4c3e cab3 2e3e c4cf bc3e
00000260: 1795 8dbe d02a ee3e c34e 08bf 22fe 6c3e
00000270: de7e 143e 36d3 84be e2e6 bebe 4964 8dbe
00000280: efcc 363e a2bd 8bbe f5fe 483e f71a 0c3e
00000290: 010b cf3e 6c0d ac3e fc7b d23e 2128 debe
000002a0: a0bf b23e fd08 b6be be7b 063f 402e 123d
000002b0: 4a24 a03d f74d efbe 7720 d8be 7bc1 df3e
000002c0: d2a8 80be 714b b6bd 94f2 983e 4748 b93e
000002d0: b5d8 c3be 672c 42bf 6267 f2bd 4b71 ebbe
000002e0: 8a84 4e3e f6e8 09bf c346 35bf f02d 38be
000002f0: 2341 05be 2dd2 5e3e 3aa2 84be d03a 443d
00000300: dbe7 9a3e 927f 7e3e 37ef 19bf 787e 043f
00000310: 0773 013f 5c0d c9bd 363d d53e 4c89 f3be
00000320: f71a 203f be37 3cbf d11f 3c3f 0fe1 6bbe
00000330: 8d84 fdbd dd0a fb3e 06bf 47be d4f0 fc3e
00000340: 4c9e 2f3f a6b6 5a3e 66e7 bf3e 4d98 ff3e
00000350: 0a3d 81be 6516 6c3d b19f afbe 9ee6 c93e
00000360: 1820 763e bb8e 8dbe 6081 8dbe e3e4 5fbe
00000370: 37ec 573e 65ce babe 8d35 bc3d 55db 46bc
00000380: 038b 813e e78c 173f 671f a63e 0a22 6abe
00000390: 10c0 623e 285b d2be 7580 8c3e c099 9d3e
000003a0: 2db1 dabc a478 03bf 69a1 0fbf 3299 023f
000003b0: e093 d1be 4748 2a3e 8536 2b3e a6e3 8d3e
000003c0: bce7 d13e 2106 c83e 4d60 06be 07e7 553e
000003d0: 7c3d 7fbe 6b0d 0a3f 4b34 543e f0a3 b3bd
000003e0: ba70 c0be c98f cabe d5bf 053e c26e b8be
000003f0: a1ba 08be 6ec7 993d e2f3 013f f767 583e
0.17381845 0.45914772 -0.22380899 0.3495491 -0.39751267 0.34449774 0.28417805 -0.48452938
-0.25901806 -0.13076742 0.36253896 -0.5246201 0.22512297 0.19705871 0.12978284 0.1428594
0.35558653 -0.12643133 0.2785489 -0.15555887 0.51362926 0.415498 -0.17785719 -0.47350287
-0.46381503 0.27389014 -0.31570914 0.18530829 0.3912178 0.30931956 0.07361423 0.340116
-0.31300452 0.30963674 -0.16045348 0.18681581 -0.6076375 0.4469348 0.04119811 -0.3824643
0.2786384 -0.21703497 0.5928959 0.7806884 0.06905427 0.2954799 0.5478712 -0.24005133
0.32666096 -0.057107896 0.57473356 0.18147075 -0.08782854 -0.23412731 -0.13592146 0.53588367
-0.26239103 0.25687793 0.023531906 0.4649473 0.3355282 0.27343008 -0.3702451 0.077697955
-0.22124235 0.22150438 0.113053836 -0.47093758 -0.13002399 0.046172064 -0.021429177 -0.56359905
0.41875994 0.08788514 0.34093246 0.37283367 0.24625018 -0.025940947 0.19784993 -0.5290986
0.19756775 0.18276413 -0.35761106 -0.07323114 -0.22132179 0.09085664 -0.31620932 0.3431957
0.16837053 0.513512 -0.08105501 -0.43741968 0.1136494 0.3378292 -0.073670484 -0.45523107
-0.67666113 0.5474933 -0.74948233 -0.5398563 0.10930298 0.11565096 0.27867883 0.37233162
-0.6984906 0.14900814 0.35546017 -0.12047484 0.45712864 -0.48387015 0.69715136 -0.18084215
0.6316409 -0.33264533 -0.12896207 0.43928045 -0.11773962 -0.28318566 0.61310273 0.39494687
0.45703772 0.65533763 -0.38959482 0.58974 -0.47735074 0.373811 0.5290038 -0.13515404
-0.4042183 -0.20176879 0.23400347 -0.5340447 -0.06937362 0.47749472 0.48444444 0.59994125
0.40085575 -0.42149422 0.38649285 -0.28356457 0.03913765 0.45522878 -0.019953988 -0.24116129
-0.38578063 0.39644274 -0.12962978 0.38849252 -0.05496703 0.19958892 0.17060772 0.36877263
-0.2765281 0.46517038 -0.5324518 0.23143819 0.14501521 -0.2594239 -0.37285525 -0.27615574
0.17851613 -0.27293116 0.19628508 0.13682161 0.40438083 0.3360399 0.41110218 -0.4338999
0.34911823 -0.35553733 0.52532566 0.03568864 0.078194216 -0.4673917 -0.4221227 0.437023
-0.251288 -0.08901108 0.29872572 0.36187956 -0.38251272 -0.75849 -0.11836125 -0.45984873
0.20167747 -0.53871095 -0.708111 -0.17986274 -0.13013129 0.21759863 -0.2590502 0.04790765
0.30255017 0.24853352 -0.6013064 0.51755476 0.5056614 -0.09817001 0.41648263 -0.47565687
0.62541145 -0.73522556 0.7348605 -0.23035072 -0.12378798 0.49031726 -0.19506463 0.49402487
0.68600917 0.21358737 0.3748123 0.49920884 -0.25241882 0.057638545 -0.34301522 0.3943376
0.2403568 -0.27647957 -0.27637768 -0.21864657 0.21086203 -0.36485592 0.091899015 -0.012137254
0.2530137 0.59199375 0.32445833 -0.22864547 0.22143579 -0.41085172 0.27441755 0.30781364
-0.026695812 -0.5135596 -0.5610567 0.5101501 -0.40933132 0.16629134 0.16720016 0.27712744
0.40997112 0.39067176 -0.13122673 0.20888911 -0.24925798 0.53926724 0.20723073 -0.08771503
-0.37586004 -0.39562824 0.1306146 -0.36022002 -0.13352443 0.07508741 0.5076276 0.2113341

rnn.bias_ih_l0 f4 [60]
00000000: 3f42 c53e e489 0a3f 84fd 7bbd 7736 e83e
00000010: df4f f73e 49db d53d 647b b63e 838a b03e
00000020: 1edb 243f f4b1 cb3e d521 333f da56 ad3d
00000030: 37a1 fb3d b6b3 a93e b7dd e63e bbc3 b23e
00000040: 7b8e b83e 08b3 b53e 6d19 2a3d 82c9 27be
00000050: b6c1 c93e 0af8 a83d 9ae1 ea3d bfa2 633e
00000060: f91b d43e 12df 8e3e 6ed9 c83e a819 833d
00000070: 0b33 293e 6cb8 ab3e 35fd 353e f3fb 353e
00000080: f9ff babe a362 523e 14c9 60be c42d b53d
00000090: b957 f0be ec06 d63d ea31 27bf 7213 0bbf
000000a0: c91c a53e 0533 f2be 5a5c 5f3f a1fb 223d
000000b0: d693 9f3e 7182 03bf 3999 25bf 5d5c 02bc
000000c0: 395e d1be ef28 04be 0cf3 01be 215e 1b3e
000000d0: b591 2bbe 7be8 963e cd7d 11bd 3a48 b5be
000000e0: 28eb 5fbe a6f1 253e 585e b73d 036b 6cbe
0.38527104 0.54116654 -0.06152107 0.45354053 0.48303124 0.10442216 0.35641015 0.34480676
0.64396846 0.39784205 0.699735 0.08463831 0.12286609 0.3314492 0.4509103 0.34914955
0.36046204 0.35488153 0.041528154 -0.16385463 0.39405602 0.08250435 0.11468811 0.22230051
0.4142759 0.27904564 0.39228386 0.06401378 0.16523378 0.3353914 0.17772372 0.17771892
-0.36523417 0.2054544 -0.21951705 0.0884662 -0.46941927 0.10450539 -0.6531054 -0.54326546
0.32248524 -0.4730455 0.8725029 0.039790753 0.31167477 -0.5137091 -0.64686924 -0.007956591
-0.408922 -0.1290624 -0.12690371 0.15172626 -0.16754802 0.29474244 -0.035520364 -0.35406667
-0.21867049 0.16205463 0.089535415 -0.23087697

rnn.bias_hh_l0 f4 [60]
00000000: ac4e e13e 2a5f ee3d d176 aebb 9fa3 e23e
00000010: b294 ec3e 6c16 393e 2231 8e3e 4aa9 f63d
00000020: d02f d63e 5f1d 083f e001 083f 722b 243e
00000030: 36bd 913e a78e 383e 759f c13e 46f5 6d3e
00000040: f5cb da3e e4b6 7e3e 1885 033f 45d5 36be
00000050: 662a 6f3e d2b7 733e 70b9 3aba 72a1 e93e
00000060: c598 b13d 7c32 eb3d 2fd2 f63e 2361 143e
00000070: c995 9a3e 3128 be3e 956b ad3e 8572 ac3e
00000080: ce49 f7be 3403 d83e 6b41 67be 2062 693e
00000090: 7c58 20bf bfdb 433e fbf8 95be 406d ccbe
000000a0: 7a9c b63e ea36 f5be 6cc5 393f 2606 b53e
000000b0: c771 673e e14d 9bbe 6c0a ddbe 4df7 0d3e
000000c0: 13d6 17bf 7fe2 25be 03ba 0fbf c3a2 193e
000000d0: 4ef9 44be 4b2d 8f3d 51cf a0be 4899 95be
000000e0: 250d 2cbe 0f0e a83e ae3a c13d 1fdb f2bd
0.44005334 0.11639245 -0.0053242226 0.44265458 0.46207196 0.1807496 0.2777186 0.12044008
0.41833353 0.53169817 0.5312786 0.16032198 0.2846467 0.18023168 0.3781697 0.23238096
0.42733732 0.24874455 0.5137496 -0.17854793 0.23356017 0.2380059 -0.0007122969 0.45630985
0.086717166 0.114842385 0.48207232 0.1449018 0.30192402 0.3714004 0.3387114 0.3368112
-0.48298496 0.42189944 -0.22583549 0.22791338 -0.62635016 0.19126795 -0.2929152 -0.399271
0.35666257 -0.4789346 0.72566867 0.35356253 0.22601996 -0.30332854 -0.43172014 0.13863869
-0.59311026 -0.16199683 -0.56143206 0.15003495 -0.19235727 0.06991061 -0.3140817 -0.29218507
-0.16801889 0.32823226 0.094350204 -0.118582

rnn.weight_ih_l1 f4 [60, 15]
00000000: 93ab 083f f7b5 ff3e 496a 8dbe 1365 813e
00000010: 62ae 6ebe 0263 6e3e d66b e33d 61ec 183d
00000020: 01d4 debe 622d 0ebf 7e85 423e 776d 5cbe
00000030: d13e 6bbd e8b3 1e3e 57bb fe3e 2fbd afbe
00000040: 9ae0 37bf 2291 d7be 0ea7 ddbe 06bd 563f
00000050: 543f 33bf 828d 4bbe b678 23bf 7e7a 26bd
00000060: 8c4a 11be 0b40 5fbf afd3 f13e e06c eb3c
00000070: 5429 ed3e 634b aabe af04 fa3e 39d4 7e3e
00000080: 5fb3 b4be 514f 073f a73e fdbe e591 a83e
00000090: f797 e63d 1562 3bbe 8a5a 0cbe abc3 83bd
000000a0: 7344 f93e 3c00 c5be 17a9 5fbd 0202 193e
000000b0: a3ef 043e fcba 863d e52b 993e 19b7 7e3d
000000c0: 187a a13e 187e 17be cd51 113d 4145 d5bd
000000d0: 55e4 34be 54e4 76bd f0b8 85be 31d1 edbb
000000e0: 150f 86be 09cf f6bc e1d6 25bd ce00 e43e
000000f0: e590 d53e b1fa c03e 1165 fabe 70b9 df3e
00000100: cffc f5be 80c5 ad3e 335e 9a3c 32cb ddbe
00000110: 02d5 74be e239 fdbe 55dd 1b3e 3fef d5be
00000120: 6885 9a3e b1ae 8e3e 0816 f23e 82a2 4abf
00000130: 27b1 5cbf ffde 143f 3d3c 21bf f311 3f3d
00000140: 08b0 b8be 822f a6bf a116 30bf efb6 a93e
00000150: 9664 063f 2104 f9be 4765 4c3c 6174 823f
00000160: e0aa eebe 3673 26bf e0f6 0a3e a389 093f
00000170: 0e3d f8be 8069 e93e 480f f4be 113e b93e
00000180: fafd 183f bc76 05bd 4d1b 8bbe 25a8 4dbe
00000190: c712 db3e 5805 2dbe cca9 96bd cfd4 813d
000001a0: e701 f83e fdc3 0cbf 9fb3 3ebf f368 193f
000001b0: 52a9 a2be bae9 d93e c6e4 0dbf 02b4 723e
000001c0: faef 2bbe ce63 263f fd21 b53e 7a7d 3fbf
000001d0: 0b52 b63e 8236 37be 2a44 0cbf fdfa b7be
000001e0: 082f 2d3e aa4a 1a3f 0e08 50be 4b02 603e
000001f0: 1829 d0be da71 ea3e 7417 9d3d c18e cfbe
00000200: 45a9 bdbe 554a f0be 30aa 073f 450d 00bf
00000210: 316f 833e e89d 9a3e 5a56 cd3e 321f debe
00000220: 97cb eebe 5fb1 5f3f b7f8 bbbe 34fd 1c3f
00000230: 10b8 7bbe b747 303e a0d6 6fbf 8f41 303f
00000240: cc61 de3e a5e1 dbbe 2485 ee3e 91c1 d2bc
00000250: 080d 52bf 21d3 18bf 89b2 643e 6c5f 0bbf
00000260: b855 9bbe 9841 893d 5cf8 bd3e 789c 69bf
00000270: 278f a83e 70d8 8f3f 23f2 4cbe 8565 7cbd
00000280: 2def 57be 9268 743f 1d41 6fbf 9c3f dc3e
00000290: 42f2 5abf e768 bdbe eb44 1fbf 862a e3be
000002a0: af9b 033d 0699 d93e 3273 8cbe 2b05 6abe
000002b0: 3ab7 2f3f 49eb 48bd 38a1 f73d 2b3d 2fbf
000002c0: b75b 043f 191e d1be 8a50 193f f01e d6be
000002d0: 863a 67be 8597 edbe 1e61 97be 9361 4ebe
000002e0: 9122 fc3e e1b0 bbbe a984 e1be a838 59bd
000002f0: 5765 03bf fb33 34be 1aef febe 4518 383d
00000300: a9f8 c93e e458 123f b2bb 1dbf 6339 21bf
00000310: 7744 c7be 77b3 d5be 9cb3 80bf 0a96 8e3f
00000320: ca22 07bf bda2 23bf 7efd 4ebf e7b8 fc3e
00000330: db44 143f 4bf8 42bf 245d feba 7f84 3b3f
00000340: c54a 943e dcaa 9ebe 2041 2a3e a05e ec3e
00000350: 7a1c 0fbf 679e 383e ca62 0cbf e9dd 123f
00000360: e2ff cf3e 915b febd ba38 1abf 50dc cebe
00000370: 8632 333e 4351 5cbe 3d2a 983e 7cb1 70bd
00000380: 16e8 c73e df46 103e 81f4 1d3f 5b6e 97be
00000390: 824f 153e 07ed b9be 0645 723e 2964 8f3e
000003a0: 1a0c eabc 279e 0ebf fb39 81be 7bf5 073f
000003b0: 3b42 c0be 4356 c73a 69fd c03e a87c 883e
000003c0: eafa f53c 8217 4ebf 07a7 21bf ba4c 40bf
000003d0: 87c5 5a3f 6a99 45bf ffc7 cb3e 93b4 083b
000003e0: d201 e53d 3664 ddbd d968 89bf d5ec 5f3f
000003f0: f912 06be c8ef 413f c4a1 42bd ea65 9c3e
0.533868 0.49943516 -0.27620152 0.25272426 -0.2330871 0.23279956 0.111045524 0.037334803
-0.4352112 -0.55538 0.18996236 -0.21526133 -0.057432953 0.15498316 0.49752304 -0.34324023
-0.7182709 -0.42102915 -0.43291515 0.83882177 -0.70018506 -0.198782 -0.63856065 -0.04064416
-0.14188594 -0.87207097 0.47231814 0.02873844 0.46320593 -0.3326064 0.48831698 0.24885644
-0.352931 0.528554 -0.49461862 0.3292381 0.11259454 -0.18299134 -0.13706413 -0.06433805
0.48685035 -0.3847674 -0.054604616 0.14942172 0.12982039 0.06578633 0.299163 0.062186334
0.31538463 -0.14794195 0.035478402 -0.104136 -0.17665227 -0.060276344 -0.2611766 -0.0072576036
-0.26183382 -0.030128019 -0.040488128 0.44531864 0.41712108 0.37691262 -0.48905233 0.43696165
-0.4804444 0.33939743 0.018843746 -0.43319088 -0.23909381 -0.49458224 0.1522115 -0.41784093
0.30179906 0.27867654 0.47282434 -0.7915422 -0.86207813 0.58152765 -0.6298254 0.046647977
-0.360718 -1.2983248 -0.6878453 0.3314738 0.5249723 -0.48635963 0.012475318 1.0191766
-0.46614742 -0.6501955 0.13570738 0.5372564 -0.4848408 0.45588303 -0.4766791 0.36180165
0.5976254 -0.032583937 -0.27169266 -0.20083673 0.42787763 -0.1689657 -0.07356605 0.06339418
0.4843895 -0.54986554 -0.7449283 0.59925765 -0.31769806 0.42561132 -0.55427206 0.2370148
-0.16790763 0.6499604 0.35377494 -0.7480084 0.3560947 -0.17891887 -0.5479151 -0.35933676
0.16912472 0.6027018 -0.20315573 0.21875875 -0.40656352 0.45789987 0.07670489 -0.405386
-0.37043205 -0.4693171 0.5299406 -0.5002025 0.2567077 0.30198598 0.40104944 -0.43383175
-0.46639702 0.8738002 -0.36713192 0.6132386 -0.24581933 0.17214857 -0.93686867 0.68850034
0.43433988 -0.4294559 0.46585953 -0.025727065 -0.82051134 -0.5969716 0.22333731 -0.5444248
-0.30338836 0.06701964 0.37103546 -0.9125438 0.32921717 1.1237926 -0.20014243 -0.061620254
-0.21087332 0.9547206 -0.9345873 0.4301728 -0.85525906 -0.36994097 -0.62214535 -0.4436838
0.032130893 0.4249956 -0.27431637 -0.22853534 0.68638957 -0.04905251 0.12091297 -0.6845271
0.51702446 -0.40843275 0.5988852 -0.41820478 -0.22580919 -0.46404663 -0.29566282 -0.20154409
0.49245122 -0.36658385 -0.44046524 -0.053032547 -0.5132651 -0.17597954 -0.49791795 0.04494502
0.39447525 0.57166886 -0.61614525 -0.6297819 -0.38919422 -0.41738483 -1.0054812 1.1139538
-0.5278746 -0.63920194 -0.8085555 0.4935982 0.57917565 -0.76160115 -0.001940642 0.7324905
0.28963295 -0.3098973 0.16626406 0.46165943 -0.55902827 0.18029176 -0.5483824 0.5736986
0.4062491 -0.12419809 -0.6024281 -0.4040246 0.17499742 -0.21515374 0.29719725 -0.058763012
0.39044255 0.14089535 0.6170121 -0.29576382 0.14581111 -0.3631365 0.23659143 0.28006104
-0.028570224 -0.5571007 -0.25239548 0.5310895 -0.3755053 0.0015208203 0.37693337 0.26657605
0.030026872 -0.8050462 -0.6314549 -0.75117075 0.8545765 -0.77187216 0.39801022 0.0020859584
0.11181988 -0.10810129 -1.0735122 0.8747075 -0.13093175 0.757565 -0.047517553 0.30546504

rnn.weight_hh_l1 f4 [60, 15]
00000000: 38df d4be fc85 3bbe 98bd ebbe fce2 c03e
00000010: 9f1a 9cbe fdc7 f7bd 266c df3e 56ef 50be
00000020: 45e3 153f 3125 563e 622b 12be 3492 2fbe
00000030: b8c8 1fbd 23a4 afbe a46a 663e 2241 aabd
00000040: cad6 173f fa0f cc3d 0e4a 353e f935 99be
00000050: c5dd 5e3f 0539 b53e 179d bbbe 883f 793e
00000060: a98d 79be ccbf 7bbe b2e1 143e 11f1 69bf
00000070: 8334 71be cae1 803d 01ec bfbe 6e08 f9bd
00000080: ea4a 8cbe bc90 3a3e d4d1 2abe 2a26 113e
00000090: 9122 d13e 944a 9abe c445 a03e 0fb2 3cbe
000000a0: 26a4 58be 32bc 053e 9762 183d 16b8 46be
000000b0: 76b4 eb3d 7755 04be 8aea a8be 4fe0 bebe
000000c0: 7cf5 823e 70ad bcbd 34d9 ab3e c8e3 d83e
000000d0: 412a 09be 4381 e93e 197b 2ebe 8457 1ebd
000000e0: 58d2 e23d 8f6d 833d 52aa 833d 254c d23e
000000f0: 7cee a6be 918d 98be 8ce4 8cbe e9e7 ec3e
00000100: 31d2 0abf 1200 633e 99ae bf3e 14f1 8ebd
00000110: 0634 973e 5165 6c3e 0bbc 7cbe 4835 dabd
00000120: 7fa0 fcba 90e0 c3bd 657c 8b3e c33a de3e
00000130: 18e9 81be d8b9 acbe 6a8e c4be 3867 fd3c
00000140: 13fe 42bd 8912 90be 829c 033e 32ed 85be
00000150: 6730 213e 0239 c2be 9974 2abf d200 813f
00000160: 9cc9 9e3e f777 a1be 9b06 febe 5a56 b9be
00000170: a5ff 0ebf 386a b43e eee6 92be 9119 973c
00000180: 0f06 1a3e c717 20bd ab96 d23e 6e75 6c3e
00000190: cebf cc3d 751b 72bd 854d ca3d d039 dbbd
000001a0: a836 dc3e 4d0c 523f bb2a 933e 87ca 5b3f
000001b0: 143e d9be 0a44 1f3f 0504 933e 2631 dcbe
000001c0: 04c2 cebc 7cfe 34bf 930d ddbe ba09 863e
000001d0: 069a 853d 9c41 adbe ec8f ca3e 6e69 17bf
000001e0: 1183 11bf b228 d6be 4bba d9be ca47 933e
000001f0: d02e 14be 49e0 563e dac5 1b3f efc8 053e
00000200: ad67 193f da7c 173e 2d6f 503e 90bb b63c
00000210: d80c f93b 5788 38bd f22c f13d 0393 153f
00000220: e1c5 813e 3600 223f 9bd0 e5be a37b 343f
00000230: f23d 093f 2c5e 70be 8957 c0be 1c06 ffbe
00000240: 7e53 943d b6c2 a13e 2c88 ce3d a1d8 afbe
00000250: d7d4 dc3e 0003 aebe b1f4 1ebe 127f 313f
00000260: 885a d33e e840 623e c88a 253e 20e2 c03f
00000270: f037 0abd d07b 703e e1a7 d4be 113f 22bf
00000280: 020b b03e 8c1c 883e 078c 4cbf a25c f83f
00000290: b7fb 193f 8c01 fbbe cb51 503f e64c 143f
000002a0: 9fe9 443d 930e 33be c9ff 813f 380f 053f
000002b0: d0be 5fbe 40f4 cb3d 16a3 8abe d3ae 103f
000002c0: a7ce 7c3f 6bf1 a5bf d2f6 cb3e 44b8 0a3f
000002d0: c3e2 9bbe e220 f23d 82b9 243e 5352 df3d
000002e0: d5a9 0bbe dd19 7a3f 3d40 de3e 21d3 fabd
000002f0: 001c b13d 6e51 303c 77c7 4cbf 0991 edbe
00000300: bdb5 0abf a445 b63e a3ab c43e 7a1f 363f
00000310: b993 4fbf 80ff 32be 5329 1cbf 8705 973e
00000320: 394b 46bf d00d d5be 3d28 51bd 1b2b cabe
00000330: 7917 2c3f 50e0 e4be e5da 86be 38ef 4b3f
00000340: 323e 9dbe 83c2 36be 8e85 22bf 96d8 0c3d
00000350: 4e62 12bf 662d c13e 6fd5 0dbe 65d6 903e
00000360: e0de cc3e 9666 82bd aa07 153f d349 713d
00000370: cf2d 4e3e 448b e2bd faff 453e 9656 d8be
00000380: 6704 d83e fa13 0dbf cf50 4cbd 8a2b 7fbe
00000390: 724d e63e fb22 53be 2b4d 4e3e e9bb 213e
000003a0: 42bb 1a3d 3c65 133f f6f1 0e3e 9d13 2f3e
000003b0: 88fb 9c3e 0295 20be 1da9 9bbe 7034 d93e
000003c0: 7a22 e23d ec2f f73e 3a20 693f 53b2 61be
000003d0: 3909 dc3e 188e 543f 5945 36be 271c dcbd
000003e0: c27f b8be e381 aebd 1416 46bf 09b9 07bb
000003f0: 0f3a 22bf 8fe9 483e c38d f4be 3622 58be
-0.41576552 -0.1831283 -0.46043086 0.37673175 -0.3048906 -0.120986916 0.43637198 -0.204038
0.5854991 0.20912625 -0.14274362 -0.17145616 -0.03900978 -0.34304914 0.22501618 -0.08313204
0.5931212 0.09963985 0.17704031 -0.2992399 0.87057143 0.35395065 -0.36643288 0.24340641
-0.24370445 -0.24584883 0.14539221 -0.91383463 -0.23555188 0.06293066 -0.37484744 -0.12159811
-0.27400905 0.18219274 -0.16681606 0.14174715 0.40846685 -0.30135024 0.31303227 -0.18427299
-0.21156368 0.13060072 0.037203398 -0.1940616 0.115090296 -0.12923227 -0.3299144 -0.3728051
0.25577915 -0.09212768 0.3356415 0.42361283 -0.13395025 0.4560643 -0.17039146 -0.03865768
0.11075276 0.06417381 0.064289704 0.4107372 -0.32603824 -0.29795507 -0.27518117 0.46270683
-0.54226977 0.22167996 0.37437895 -0.06979576 0.29531878 0.23085524 -0.24681108 -0.10654694
-0.0019273906 -0.09564316 0.27243343 0.43404207 -0.2537315 -0.33735538 -0.38389903 0.030933008
-0.047605585 -0.2813914 0.12852672 -0.26157528 0.1574112 -0.37934119 -0.66584164 1.0078375
0.3101319 -0.31536838 -0.49614415 -0.36198694 -0.5585883 0.35237288 -0.2869181 0.018444808
0.15041374 -0.039085176 0.41130576 0.23091671 0.09997521 -0.059108216 0.09878067 -0.10704386
0.4301045 0.8205002 0.28743538 0.8585591 -0.42430174 0.62213194 0.28714004 -0.43006247
-0.025238998 -0.7070081 -0.4317442 0.26179296 0.06523518 -0.33839118 0.3956293 -0.5914525
-0.56840616 -0.41827923 -0.42524943 0.28765708 -0.14470983 0.20983995 0.6084877 0.13064931
0.5992382 0.14793721 0.2035491 0.022306234 0.007600408 -0.0450519 0.11776151 0.5842745
0.25346282 0.6328157 -0.44885716 0.70501155 0.53610146 -0.23473424 -0.37566784 -0.4980935
0.07242487 0.31593865 0.100845665 -0.34344962 0.43131134 -0.33986664 -0.1552303 0.6933452
0.41280007 0.22095072 0.16166222 1.5069008 -0.033744752 0.2348473 -0.4153433 -0.6337748
0.34383398 0.2658428 -0.79901165 1.9403269 0.6014971 -0.49024618 0.81374806 0.5792984
0.04807436 -0.17486028 1.0156184 0.51976347 -0.21850133 0.09958696 -0.2707755 0.5651676
0.98752826 -1.29643 0.39836746 0.5418742 -0.30446443 0.11822678 0.1608639 0.10904374
-0.13639005 0.97695714 0.43408385 -0.12247301 0.08647919 0.010761602 -0.7999186 -0.46399716
-0.5418356 0.35600007 0.38412198 0.7114178 -0.8108478 -0.17480278 -0.61000556 0.29496405
-0.7745853 -0.416121 -0.051063765 -0.39486012 0.67223316 -0.44702387 -0.26338878 0.79661894
-0.30711514 -0.17847638 -0.6348504 0.03438624 -0.5718125 0.3772995 -0.1385095 0.2828857
0.4001379 -0.06367223 0.5821482 0.058908295 0.20134662 -0.11061719 0.19335929 -0.4225356
0.4219086 -0.55108607 -0.049881753 -0.24918953 0.4498096 -0.20618813 0.20146625 0.15794338
0.03777624 0.57576346 0.13959488 0.17097326 0.30660653 -0.15681842 -0.3040246 0.4242282
0.11041732 0.4827875 0.910648 -0.22040682 0.42975786 0.8302932 -0.17799892 -0.10747557
-0.3603497 -0.08520868 -0.7737744 -0.0020709655 -0.6336984 0.19620346 -0.47764406 -0.211068

rnn.bias_ih_l1 f4 [60]
00000000: bb88 923e 2c62 c43d 08ab e23e f88a 353c
00000010: 68b9 a13e ce13 2b3d f488 083f 2e68 32bf
00000020: 1dd9 023f 43f2 49bf f64d 87be da89 283d
00000030: 2ad6 213e 68eb 2cbe 4cee d03e a3d3 ee3e
00000040: d30c 9abe 8881 2c3e d023 f93e d206 9e3e
00000050: 9b0f f7be d8df 7d3e 05d7 07be 440d cf3e
00000060: 5457 d1be ab05 33bf 984d ccbe 190f eb3d
00000070: 949c f53d f098 e63e f717 d1bc 8563 aebe
00000080: 0727 afbe 6732 863e 2b6a 77be 084d 02bf
00000090: 17a1 ef3d 11cb ea3d 98dd 9f3e 6792 dbbd
000000a0: 2f18 ad3d 169c 80be 8917 6c3e a8f5 d8be
000000b0: baaf e53e 9539 b0be 4d91 2b3e 5b01 ac3e
000000c0: 2d7f 04bd 42f0 e6bd 14c7 55be c651 9fbe
000000d0: 5f7e 23bf 0e2a 32be 7aa7 a0be 0cbf e5bd
000000e0: c1ef 9ebd 955f 443e 37de 593d a6dc a93d
0.28619942 0.09589037 0.4427111 0.011080496 0.31586766 0.041766934 0.53333974 -0.69690216
0.5111254 -0.7888529 -0.26426667 0.04114709 0.15804353 -0.16886675 0.40806806 0.4664584
-0.3008791 0.16846287 0.48660135 0.30864578 -0.48254094 0.24792421 -0.13265617 0.40439808
-0.4088694 -0.69930524 -0.3990295 0.11477489 0.119927555 0.45038557 -0.025524123 -0.34060302
-0.34209463 0.2621033 -0.24161594 -0.5089879 0.11700647 0.11464513 0.3122375 -0.107212834
0.08451878 -0.25119084 0.23055853 -0.4237492 0.4486063 -0.34418932 0.16754647 0.33594784
-0.032347847 -0.11276294 -0.20876724 -0.31117076 -0.638647 -0.17398855 -0.31377774 -0.1121808
-0.07760573 0.19177087 0.053190436 0.082940385

rnn.bias_hh_l1 f4 [60]
00000000: 758c cb3e eb4d 6a3e 3b09 ba3e b5bf 823e
00000010: 7c91 8d3e 1d10 59bc 07a9 823e ac40 13bf
00000020: 4b21 de3e e426 e2be 733e 453e a506 13be
00000030: c074 743e 5227 9dbe 23f3 353e d710 0f3f
00000040: 5e1b dabe f15c 493e cfa8 8e3d 137e f33e
00000050: f3c8 b6be 0e69 313e 8311 9dbd 78d5 253e
00000060: 7950 29be 6ef0 0dbf d342 00bf e08d 173d
00000070: ea84 d1bd c5d3 a53e b7d3 b3be 52d8 82be
00000080: f7ee bdbe 0b6e cd3e e141 adbe 28cb bdbe
00000090: 69f3 003f c1ab 03be c2ee 5b3e 5a2f 9b3e
000000a0: c179 99be 1248 f3bd c261 b53e f2ea d4be
000000b0: 066f 093e 7a43 183c 9828 95bd fc3b 8b3e
000000c0: 7a13 f43d 6b84 c63d 09be 14be e1a5 5fbd
000000d0: 8bbc a8be 38d9 373e 895b 16bf 2142 213d
000000e0: 8a63 8a3e 0203 413e a63a 39be d771 d7bd
0.39755598 0.22881286 0.36335167 0.25536886 0.27650058 -0.013248471 0.25519583 -0.57520556
0.43384776 -0.44170296 0.19262104 -0.14358003 0.23872662 -0.30694062 0.1776853 0.5588507
-0.42599005 0.1966436 0.069657914 0.47557124 -0.35700187 0.17325231 -0.07669356 0.16194713
-0.16534604 -0.5544499 -0.50101966 0.037000537 -0.102304295 0.3238813 -0.35122463 -0.25555664
-0.37096378 0.4012302 -0.33839324 -0.37069058 0.50371414 -0.12858488 0.21477798 0.30309564
-0.29975703 -0.11878981 0.35426146 -0.415855 0.13421258 0.009293431 -0.07283133 0.27194202
0.11917777 0.096932255 -0.14525618 -0.054601554 -0.32956347 0.17953956 -0.5873342 0.039369706
0.27029067 0.18848804 -0.18088779 -0.1051976

fc.weight f4 [4, 15]
00000000: 996e ffbe b01c 013f a2f1 813e f4b9 df3e
00000010: a2a4 1fbe 45b3 e73d 54ed 0a3e 6883 40bd
00000020: 5aeb ae3c 3430 5d3c 693e e63d dc67 553f
00000030: 36be 24bf f6ea 1dbd 098d 85bb 5f08 653d
00000040: ba2c e23d 8c51 cc3d 1c44 aebc 8f7a 2ebe
00000050: 874d d43d 276d 243e bba8 cc3c c341 983e
00000060: 12c4 96be 6d92 eb3e 829a 243e a4ac aabe
00000070: b488 62be 382b 493c e391 1abd f14f bcbe
00000080: 5ac2 14bf 4c24 3e3e 6e10 adbe ef56 e33e
00000090: b04a 403e 4af2 cd3a 68ac ef3e 6549 dfbd
000000a0: 58b1 5e3f ed7d 1d3f 53e7 c53e c576 603f
000000b0: 3d60 b23e c52d 1abf e2d8 85be b793 ad3e
000000c0: 0aa9 0cbf c408 a7be 10d3 923e e577 1d3e
000000d0: 8f2e 9dbc 5be4 63be 5ca9 bfbe 47bf 8c3e
000000e0: 57cf f9bd 2d75 7d3e 5593 94be 9a57 f5be
-0.49889067 0.504344 0.25379664 0.43696558 -0.15590146 0.1131349 0.13567096 -0.04700032
0.021352459 0.013500262 0.112423725 0.833616 -0.6435274 -0.038554154 -0.0040756506 0.055916186
0.11043687 0.09976491 -0.021272711 -0.1703894 0.1036635 0.16057263 0.0249828 0.29737672
-0.29446465 0.46010152 0.16074565 -0.3333484 -0.2212246 0.012278371 -0.037736785 -0.3677974
-0.58109057 0.18568534 -0.33801597 0.44402263 0.18778491 0.0015712467 0.46811223 -0.10902671
0.86989355 0.6152027 0.3865305 0.8768123 0.3483905 -0.6022609 -0.2614203 0.3390176
-0.54945433 -0.32623875 0.28676653 0.15377767 -0.01918724 -0.2225508 -0.37433898 0.27489683
-0.1219775 0.2475173 -0.29018655 -0.47918397

fc.bias f4 [4]
00000000: a5c4 cb3e 2d03 da3e 7ffc 2f3e e78e a03e
0.39798465 0.42580548 0.17186163 0.31359026
