checkpoints/longlag_nonlinear_signals_model_weights1.pth (torch_old, 6261 bytes, 6 tensors)

rnn.weight_ih_l0 f4 [60, 4]
0	0xbfae211e	-1.3603857
1	0xbe9a9ca5	-0.30197635
2	0xbe9a76fc	-0.30168903
3	0xbdee4b4f	-0.11635458
4	0xbf27b409	-0.65509087
5	0xbe8f786c	-0.28021562
6	0xbee7bc66	-0.45260924
7	0xbea79125	-0.32727924
8	0xbf650a0a	-0.89468443
9	0x3e8d4e97	0.27599022
10	0xbe49aa19	-0.19693793
11	0x3efb1586	0.4903986
12	0xbf12cce1	-0.5734387
13	0xbe623221	-0.22089435
14	0xbf047e90	-0.5175562
15	0x3f1189b0	0.5685072
16	0x3e9dc617	0.30815193
17	0x3e9632b3	0.29335555
18	0x3eee8aa7	0.46590158
19	0x3eaf4a5f	0.34236428
20	0xbed93fb5	-0.42431417
21	0x3e5975b7	0.21236311
22	0x3f2768c9	0.65394264
23	0x3fa6d4cc	1.303369
24	0x3e8c1b6f	0.2736468
25	0x3f17cd94	0.5929806
26	0x3e845fb8	0.25854278
27	0x3f075652	0.5286609
28	0xbf01c804	-0.50695825
29	0xbdb9c3ad	-0.09070525
30	0xbf464924	-0.77455354
31	0xbf8bb105	-1.0913397
32	0xbf9e4bbb	-1.2366861
33	0xbf53aede	-0.826887
34	0xbf00294d	-0.5006302
35	0xbf1b5d27	-0.60689014
36	0x3f0adad8	0.5424018
37	0x3edda8c2	0.43292814
38	0x3e8e220a	0.27760345
39	0x3ea37c6d	0.31930867
40	0x3e80d456	0.25162
41	0x3ea47d07	0.32126638
42	0x3eaeb86d	0.3412508
43	0x3e8241a6	0.2544071
44	0x3ec85a03	0.39131173
45	0x3e843d7a	0.25828153
46	0x3f004f99	0.50121456
47	0x3dc0840b	0.09400185
48	0x3f72475f	0.94640154
49	0xbdda884f	-0.1067053
50	0xbf17cbcb	-0.5929534
51	0x3ecdd794	0.40203536
52	0xbf85dec9	-1.0458614
53	0xbec1addc	-0.37827957
54	0x3a1e879d	0.00060474296
55	0xbe92e2f3	-0.28688774
56	0xbe4c4e0a	-0.19951645
57	0x3e08655f	0.1331992
58	0xbf6fe61d	-0.937105
59	0x3e1d4668	0.15358889
60	0xbf39954c	-0.72493434
61	0xbed43397	-0.4144561
62	0xbf1a79aa	-0.60341895
63	0x3dcaddc9	0.099055834
64	0xbf75430f	-0.9580545
65	0xbec0519c	-0.37562263
66	0xbef051a0	-0.46937275
67	0xbf46da6c	-0.77677035
68	0xbed0149c	-0.40640724
69	0xbde89b4d	-0.11357746
70	0xbe9205c8	-0.28520036
71	0xbe58bbbc	-0.21165365
72	0xbf078623	-0.5293905
73	0x3d76351a	0.060109235
74	0xbf1b56cd	-0.6067932
75	0x3f01e9f6	0.5074762
76	0x3f1c89f0	0.61147976
77	0x3e5efeba	0.21776858
78	0x3f400f85	0.7502368
79	0x3e80d14d	0.25159684
80	0xc006a373	-2.1037261
81	0x3d269501	0.040669445
82	0xbed4880c	-0.41510046
83	0xbdca445b	-0.09876319
84	0x3ec44912	0.38336998
85	0x3f0d8601	0.552826
86	0x3e8b5641	0.27214244
87	0x3f019839	0.506229
88	0xbed331bc	-0.41248882
89	0xbf252865	-0.6451476
90	0xbf58194e	-0.8441361
91	0xbf692e76	-0.9108652
92	0xbf49add1	-0.7878085
93	0xbf02d67b	-0.5110852
94	0xbf2e6947	-0.6812939
95	0xbf3cd855	-0.73767596
96	0x3ebf110d	0.37317696
97	0x3e8d0c69	0.2754853
98	0x3f20936c	0.6272495
99	0x3f0fe094	0.56202054
100	0x3ed6c86b	0.41949782
101	0x3f08c35f	0.5342311
102	0x3edd4b97	0.43221733
103	0x3edd2cd3	0.4319826
104	0x3e418a44	0.189004
105	0x3e92a944	0.28644764
106	0x3eff9449	0.4991782
107	0x3e2aa26f	0.16663526
108	0x3f392e98	0.7233672
109	0x3e2e2023	0.17004447
110	0xbe6fea02	-0.2342911
111	0x3f0585ef	0.5215749
112	0xbfa8d316	-1.3189418
113	0xbec8ef31	-0.3924499
114	0xbf054118	-0.5205245
115	0xbf26e023	-0.65185755
116	0xbebe69e8	-0.37190175
117	0xbef66c2e	-0.4812941
118	0xbf1689c3	-0.5880396
119	0xbeb795b6	-0.35856408
120	0xbebbe375	-0.36696973
121	0x3d2aa330	0.041659534
122	0xbe638511	-0.2221873
123	0x3a5b9ad8	0.00083772605
124	0xbd80fbd7	-0.06298035
125	0x3ef38dfc	0.47569263
126	0x3dde8625	0.1086543
127	0x3f210b10	0.62907505
128	0x3eee2d40	0.46518898
129	0xbc6abbc2	-0.0143269915
130	0xbd7d52ad	-0.061846424
131	0x3f053727	0.5203728
132	0x3edd1e05	0.43186966
133	0x3f393fe9	0.72363144
134	0x3e21d9f2	0.15805796
135	0x3f0aa6f0	0.54160976
136	0xbf23236b	-0.6372592
137	0xbe3abb3b	-0.18235485
138	0xbf0c84c1	-0.54890066
139	0xbf1a6214	-0.60305905
140	0x3fbfd0e0	1.4985619
141	0xbd9230ee	-0.07138239
142	0x3d7c21a8	0.061555535
143	0xbd151127	-0.03639331
144	0xbf11c3d0	-0.5693941
145	0xbeff0a7e	-0.49812692
146	0xbe31ac50	-0.17350888
147	0xbeb46fa0	-0.35241413
148	0xbe98dcc9	-0.29855946
149	0xbde0ab9a	-0.109702304
150	0x3c97fae4	0.018552251
151	0x3ea169b1	0.3152595
152	0xbe0a3569	-0.13496937
153	0x3ea4454c	0.3208412
154	0x3eb0b2de	0.34511465
155	0x3d70a6fa	0.05875299
156	0x3ecdba21	0.40181068
157	0x3e9c6ca4	0.30551636
158	0x3efde46e	0.4958834
159	0x3db5c3cb	0.08875235
160	0xbe2902fc	-0.16505045
161	0xbe1c4a1b	-0.15262644
162	0xbef9d0be	-0.4879207
163	0xbea5d3b5	-0.32388082
164	0xbea7f597	-0.32804558
165	0xbeaab4dc	-0.3334111
166	0xbedf60f8	-0.4362867
167	0xbee37e52	-0.44432312
168	0xbf5e1266	-0.86746824
169	0x3e14b880	0.14523506
170	0x3eaf9fb0	0.3430152
171	0x3bc0655d	0.0058714584
172	0x3ec429d7	0.3831317
173	0xbf04da3b	-0.51895493
174	0xbdd4574c	-0.10368213
175	0x3d91acee	0.07113062
176	0x3f2cf02b	0.6755397
177	0x3f0f3b98	0.5595031
178	0x3e4c5b7f	0.19956778
179	0x3f037aa6	0.5135902
180	0xbf42da61	-0.7611447
181	0xbde52df9	-0.11190409
182	0xbef19cb8	-0.4718988
183	0xbf209579	-0.6272808
184	0xbf5111eb	-0.81667966
185	0xbe90715b	-0.28211483
186	0xbed9ed32	-0.42563778
187	0xbe8194cb	-0.25308833
188	0x3e58cdb1	0.21172215
189	0x3eda180d	0.42596474
190	0xbe10adde	-0.14128825
191	0x3ec84713	0.39116725
192	0xbf47d6ec	-0.7806232
193	0x3d2dd9ee	0.042444162
194	0xbf9d63a9	-1.2296039
195	0xbef096fb	-0.4699019
196	0x3e04507b	0.12921326
197	0x3eb2432f	0.34816882
198	0x3e706738	0.23476875
199	0xbe9099f9	-0.28242472
200	0xbf446fa6	-0.7673286
201	0x3f4f0f88	0.80883074
202	0x3f0300c0	0.5117302
203	0x3f54ce89	0.8312765
204	0xbffa7b8f	-1.9568957
205	0xbf34a56a	-0.705649
206	0xbdcd622d	-0.10028491
207	0x3f8786b3	1.0587982
208	0xbf399b78	-0.7250285
209	0xbeecadf4	-0.46226466
210	0xbeaa0de7	-0.33213732
211	0xbfad7d55	-1.3553873
212	0xbfa0a731	-1.2551023
213	0xbf28828c	-0.658242
214	0xbf02b79d	-0.5106142
215	0xbf76ed4d	-0.9645584
216	0x3e351263	0.17682795
217	0x3e9c4ef2	0.3052898
218	0xbf364732	-0.71202385
219	0x3f51008e	0.8164147
220	0x3d01bda8	0.03167501
221	0xbd8f0062	-0.06982495
222	0x3fcad399	1.5845824
223	0xbf6d04a9	-0.92585236
224	0x3f4e7ec8	0.806622
225	0x3ceb46d7	0.028720303
226	0xbee2612d	-0.44214764
227	0x3f1e9aee	0.61955154
228	0x3eac4600	0.33647156
229	0x3db744ec	0.08948693
230	0x3dd9a458	0.10627049
231	0xbdb4da3a	-0.08830686
232	0xbf8c16f0	-1.09445
233	0xbbf54431	-0.0074849357
234	0x3cdeaa68	0.027180865
235	0xbe5f6f4f	-0.21819805
236	0x3ef72e6d	0.48277608
237	0xbe491a9c	-0.19639057
238	0xbf8b6466	-1.0890014
239	0xbee5ba61	-0.44868758

rnn.weight_hh_l0 f4 [60, 15]
0	0x3f2a75b7	0.6658587
1	0x3ead7bdb	0.33883557
2	0xbd2390c9	-0.039933
3	0x3f1138fe	0.5672759
4	0x3f1c963f	0.6116676
5	0xbfd1031a	-1.6329072
6	0xbf5d13f6	-0.8635858
7	0x3d3748d9	0.044747207
8	0x3e39c885	0.18142898
9	0xbe9e83c6	-0.3095991
10	0x3e699f5f	0.22814701
11	0x3f144834	0.57922673
12	0xbec019a5	-0.37519565
13	0xbf3d521b	-0.7395341
14	0xbe4716ec	-0.19442338
15	0xbf0312b5	-0.5120042
16	0xbea76db0	-0.32700872
17	0x3f8beb20	1.093113
18	0x3e912f70	0.28356504
19	0x3f07be8d	0.5302513
20	0xbf3bc124	-0.73341584
21	0x3f0fc57b	0.56160706
22	0x3edc2744	0.42998707
23	0xbe696e88	-0.2279607
24	0xbf44005f	-0.76563066
25	0x3e686455	0.22694524
26	0x3f0df330	0.554492
27	0xbea267f4	-0.31719935
28	0xbf08e0ac	-0.5346782
29	0xbf11c93c	-0.56947684
30	0x3f374aa0	0.71598244
31	0xbe5d2015	-0.2159427
32	0xbee8a0a1	-0.4543505
33	0x3f4bfad5	0.79679614
34	0x3e6edeb7	0.23327146
35	0xbfe06369	-1.7530338
36	0xbf3b0f42	-0.73070157
37	0x3d35ffaa	0.044433273
38	0xbe345a31	-0.1761253
39	0x3c3fa4b3	0.011696982
40	0xbeba4d25	-0.36386982
41	0x3ec71bd4	0.3888842
42	0x3f06055f	0.52351946
43	0xbe3e166d	-0.18563242
44	0x3e7bd7d3	0.24594049
45	0x3ea13ee2	0.31493288
46	0x3e0fa44a	0.14027515
47	0x3f59d850	0.8509569
48	0x3e8536e1	0.26018432
49	0x3e0c38c1	0.13693525
50	0xbe9d6c64	-0.30746758
51	0xbe3e73c9	-0.18598856
52	0x3e6e6db2	0.23284033
53	0xbde5c445	-0.11219076
54	0x3bd53865	0.006506967
55	0xbe83254f	-0.25614402
56	0xbd53eaf6	-0.051737748
57	0xbfa88b26	-1.3167465
58	0x3e3d714e	0.18500254
59	0x3e9ae9fd	0.30256644
60	0xbf32c4f4	-0.69831777
61	0xbe640479	-0.22267331
62	0x3cf0e067	0.029403878
63	0xbe3291b6	-0.17438397
64	0xbe467c05	-0.19383247
65	0x3ebb4336	0.36574715
66	0xbe8d1682	-0.27556235
67	0xbddc5759	-0.10758848
68	0xbd9f0615	-0.07764832
69	0x3eb833e1	0.3597708
70	0xbe185a14	-0.14878112
71	0xbe657bbe	-0.22410485
72	0x3e0fbd5e	0.14037082
73	0x3e964a97	0.29353783
74	0xbd552119	-0.052033518
75	0xbfb07f9e	-1.3788946
76	0xbcc301e4	-0.023804612
77	0x3fc00f9e	1.5004766
78	0x3f5b50d2	0.85670197
79	0xbf447970	-0.767478
80	0x3c3a3e55	0.0113674
81	0xbed7c993	-0.42145976
82	0xbed80eb7	-0.42198727
83	0x3da6f718	0.08152598
84	0x3f107108	0.5642247
85	0xbf659127	-0.8967461
86	0xbf56918c	-0.83815837
87	0xbf160219	-0.5859695
88	0xbf017cd3	-0.5058109
89	0x3f5314aa	0.82453406
90	0xbf0f2f8f	-0.55931944
91	0xbd033466	-0.032032393
92	0xbd90c435	-0.070686735
93	0xbed31f80	-0.4123497
94	0xbe301d0e	-0.17198583
95	0x3e8e5c8f	0.27804992
96	0xbe261695	-0.16219552
97	0x3d9a5b8c	0.075369924
98	0xbe78faf7	-0.24314485
99	0x3f0e75d7	0.5564856
100	0xbebd0771	-0.3691974
101	0xbee118d6	-0.4396426
102	0x3dd4bc1d	0.10387442
103	0x3e56e300	0.20985031
104	0xbe4a12d1	-0.1973374
105	0x3f89d8a0	1.0769234
106	0x3ebc4f65	0.36779323
107	0xbec0e28d	-0.37672845
108	0x3e867ff5	0.26269498
109	0x3dfdbe21	0.1238978
110	0x3eaed440	0.3414631
111	0x3eb563c1	0.3542767
112	0x3e1b182f	0.15145944
113	0xbde2c246	-0.11072211
114	0xbea1a2f2	-0.3156963
115	0xbe146039	-0.14489831
116	0x3f1661bf	0.587429
117	0x3fab7b29	1.339696
118	0x3fb11ce4	1.3836942
119	0x3e8fb63c	0.2806872
120	0x3e02afff	0.1276245
121	0xbe7d6865	-0.24746855
122	0x3f17950d	0.5921181
123	0xbcceaea3	-0.025229758
124	0x3f2a6c03	0.6657106
125	0xbe809cfc	-0.2511977
126	0x3f1b8a9e	0.6075839
127	0x3c95a46c	0.018266879
128	0xbe1c5ad5	-0.15269025
129	0xbee9cea8	-0.4566548
130	0x3f18ca6a	0.5968386
131	0x3f29034e	0.6602067
132	0x3eb0d806	0.34539813
133	0x3e8130c0	0.25232506
134	0xbe1bc98b	-0.15213601
135	0xbeea3b2e	-0.45748276
136	0xbe74b54e	-0.23897287
137	0xbec154d3	-0.37760028
138	0xbe051f03	-0.13000111
139	0xbe39c58d	-0.18141766
140	0x3d954a44	0.07289556
141	0xbe2bc174	-0.16773015
142	0xbe58c9a0	-0.21170664
143	0xbf056de9	-0.52120835
144	0x3e916f2e	0.28405136
145	0x3d763fbf	0.060119387
146	0xbeabab75	-0.3352925
147	0x3c5f842f	0.013642355
148	0x3e818ea8	0.2530415
149	0xbe5825f1	-0.21108223
150	0xbe804d46	-0.25058955
151	0x3eca0db2	0.39463574
152	0xbebe2a2c	-0.3714155
153	0xbe5826c5	-0.2110854
154	0xbe142f1a	-0.14471093
155	0x3e57134e	0.21003458
156	0xbeff65fb	-0.49882492
157	0xbe186f09	-0.14886107
158	0x3df85831	0.12126196
159	0x3ea5872d	0.32329693
160	0xbe8b3f63	-0.27196798
161	0xbe53e05c	-0.20691055
162	0x3e526d3c	0.20549482
163	0x3dd63220	0.10458779
164	0x3eddaa50	0.43294
165	0xbde92836	-0.11384623
166	0x3d05dcf5	0.032681424
167	0xbeb4fbbe	-0.35348314
168	0xbec236ff	-0.37932584
169	0xbee67c21	-0.45016578
170	0x3ed39351	0.4132333
171	0xbe9f06ae	-0.31059784
172	0xbeba152a	-0.36344272
173	0x3bf4f48e	0.0074754423
174	0x3f1c540c	0.61065745
175	0xbef4bfc3	-0.47802553
176	0xbf02177d	-0.5081709
177	0x3ea33f56	0.3188426
178	0x3dd21b23	0.10259082
179	0xbeb67868	-0.35638738
180	0xbf939db4	-1.1532502
181	0x3e91dd4e	0.28489155
182	0x3ec0fcef	0.37692973
183	0xbef7d3ae	-0.48403686
184	0x3c94a3cb	0.018144509
185	0x3fb4bf2f	1.4120845
186	0x3ee59635	0.4484116
187	0x3df02dc7	0.11727481
188	0x3e57da76	0.2107943
189	0x3e0ecd9f	0.13945626
190	0xbb022a28	-0.0019861553
191	0x3e082020	0.13293505
192	0xbf66f521	-0.9021779
193	0x3e94d46e	0.2906832
194	0xbe305ec5	-0.17223652
195	0x3f637417	0.88849014
196	0x3e436ba3	0.19084029
197	0x3e22702b	0.15863101
198	0xbd8cc4c3	-0.06873467
199	0xbd058009	-0.032592807
200	0x3ff4ccd6	1.9125011
201	0x3e99b22c	0.30018747
202	0x3e0a4f71	0.13506867
203	0xbea05e67	-0.31322023
204	0x3e01e303	0.12684254
205	0xbe91767c	-0.2841071
206	0xbec9ab46	-0.39388484
207	0xbdc9f7dc	-0.098617285
208	0x3f012ed6	0.5046209
209	0x3e6fd320	0.23420382
210	0xbe53e1ce	-0.20691606
211	0x3f305f8b	0.68895787
212	0x3d037eb8	0.03210327
213	0x3f4e993d	0.80702573
214	0x3eb40d0a	0.35166198
215	0xbf9a4763	-1.2053035
216	0xbebb6244	-0.36598408
217	0x3dfa438e	0.12219916
218	0x3f61bcd7	0.8817877
219	0xbb169643	-0.0022977747
220	0x3eae4718	0.34038615
221	0x3ef433ff	0.4769592
222	0x3dfcd0f7	0.123445444
223	0x3de0d3ef	0.10977923
224	0x3ec3e3c7	0.38259718
225	0x3e76ef95	0.24114831
226	0x3ec77118	0.3895347
227	0x3dd1d8af	0.10246407
228	0xbc8265e7	-0.015917731
229	0x3ebbb45e	0.36661047
230	0xbf45ca1f	-0.7726154
231	0xbf0cdf01	-0.55027777
232	0x3f31d01f	0.6945819
233	0x3e463e38	0.19359672
234	0x3e6797e9	0.22616543
235	0x3ebb23f9	0.36550882
236	0x3e9291ca	0.28626853
237	0xbf381268	-0.71903086
238	0xbe1736c8	-0.14766991
239	0xbe85e0ce	-0.26148075
240	0xbdc2c1c8	-0.09509617
241	0xbef26009	-0.47338894
242	0x3f59df9d	0.8510683
243	0xbe09727a	-0.13422576
244	0x3f496db5	0.78683025
245	0xbed89515	-0.4230124
246	0x3f1dfa17	0.6170973
247	0xbc9b8ea8	-0.018988922
248	0xbdf3ca76	-0.11903851
249	0xbf5b6aa1	-0.8570958
250	0x3e74da0e	0.23911306
251	0x3f11d37a	0.5696331
252	0xbe484ee1	-0.1956134
253	0xbde7319f	-0.11288761
254	0xbec3b9ed	-0.38227788
255	0x3e848385	0.2588159

rnn.bias_ih_l0 f4 [60]
0	0x3c580361	0.013184399
1	0xbf0e127d	-0.5549696
2	0xbd1191f5	-0.035539586
3	0xbdbcb45d	-0.09214089
4	0x3e7a8006	0.244629
5	0x3f230545	0.63679916
6	0x3f2636f9	0.6492763
7	0xbecaadef	-0.39585826
8	0xbf199edb	-0.6000802
9	0x3e1ee66a	0.15517583
10	0x3e0826a4	0.1329599
11	0x3ed5d72d	0.4176573
12	0xbea3b23e	-0.31971925
13	0xbebd3541	-0.36954692
14	0xbe6be267	-0.23035584
15	0xbede3d98	-0.43406367
16	0xbee6afd8	-0.45056033
17	0xbe2e4ad2	-0.17020729
18	0x3ddc817f	0.10766887
19	0x3e57c8e1	0.21072723
20	0xbeb41fb9	-0.35180452
21	0x3ef3b288	0.47597146
22	0xbefe3ff1	-0.49658158
23	0xbee45370	-0.44594908
24	0x3eb0eeb9	0.3455713
25	0x3ead29e7	0.3382103
26	0x3ebb59e5	0.36592022
27	0xbd956393	-0.07294383
28	0xbf4579fd	-0.77139264
29	0x3cfc6d6f	0.0308139
30	0x3e195eb0	0.14977527
31	0x3e8ebcca	0.2787841
32	0x396b24ff	0.00022425129
33	0x3f2c7d9b	0.6737916
34	0xbea7009b	-0.3261765
35	0xbdcab699	-0.09898109
36	0xbe909dbb	-0.2824534
37	0xbe8bd379	-0.27309778
38	0x3ee9e50c	0.4568256
39	0x3d45639a	0.04819069
40	0xbdf347ef	-0.118789546
41	0xbe7b69a5	-0.24552019
42	0x3e340069	0.17578281
43	0xbe4849e5	-0.19559439
44	0x3f01d8ab	0.50721234
45	0xbe846f03	-0.25865945
46	0xbf054a36	-0.5206636
47	0x3ea5384c	0.32269514
48	0xbe56f7d3	-0.20992975
49	0x3d818e7d	0.063260056
50	0x3f06ea98	0.5270171
51	0xbdb2f89b	-0.08738824
52	0xbea89bd2	-0.3293138
53	0xbecd5bcc	-0.40109098
54	0x3d24477f	0.040107246
55	0xbf21b994	-0.63173795
56	0xbea07e4b	-0.31346354
57	0x3e5275ee	0.20552799
58	0xbdacc34e	-0.08435689
59	0xbe254fca	-0.16143718

rnn.bias_hh_l0 f4 [60]
0	0xbebd3044	-0.36950886
1	0xbf1bd5e2	-0.60873234
2	0xbc87426b	-0.016511163
3	0x3df9dd40	0.12200403
4	0x3ec0254b	0.37528452
5	0x3f1fe7f0	0.62463284
6	0x3f230def	0.63693136
7	0xbe7a5e05	-0.24449928
8	0xbf61ab64	-0.88152146
9	0x3ef4e844	0.47833455
10	0x3ef1a6ed	0.47197667
11	0x3e4faff1	0.2028196
12	0xbefbb0c6	-0.49158305
13	0x3dae5743	0.085127376
14	0x3dcaa09b	0.09893914
15	0xbeec4116	-0.46143407
16	0xbf518760	-0.8184719
17	0xbdc86b5f	-0.097861044
18	0xbda0f357	-0.078589134
19	0x3f25428f	0.64554685
20	0xbe872695	-0.26396623
21	0x3e95a6dd	0.2922887
22	0xbe8ce2c6	-0.27516764
23	0xbed041e5	-0.40675274
24	0x3f19e0a8	0.60108423
25	0x3eab8773	0.33501777
26	0x3f19801f	0.5996112
27	0xbd2bac71	-0.0419125
28	0xbf2fa55c	-0.68611693
29	0xbdff041d	-0.124519564
30	0x3d3dc1a1	0.046327237
31	0x3eb1d245	0.34730735
32	0xbe954ef8	-0.2916181
33	0x3efee533	0.4978424
34	0xbe9f159a	-0.31071168
35	0xbea9a00f	-0.33129928
36	0xbf1e390a	-0.61805785
37	0xbf02b9c9	-0.51064736
38	0x3ea889bd	0.32917586
39	0x3ed7dab3	0.42159042
40	0xbedbf8b9	-0.42963198
41	0xbea77b5e	-0.3271131
42	0x3d5d5c72	0.05404324
43	0x3bee28c0	0.0072680414
44	0x3e9fe4a9	0.3122914
45	0xbe679ef3	-0.22619228
46	0xbf0d8cc9	-0.55292946
47	0x3d7dbc36	0.06194707
48	0x3da34d52	0.07973732
49	0xbe9602c3	-0.29298982
50	0x3f737907	0.9510655
51	0x3e8863f7	0.26638767
52	0xbe8255c5	-0.25456062
53	0xbf5ff8df	-0.8748912
54	0xbeb03e7b	-0.3442267
55	0xbe640ce9	-0.2227055
56	0xbe42deba	-0.19030276
57	0xbb5ba06f	-0.0033512374
58	0xbe34566d	-0.17611094
59	0xbeaf41e4	-0.34229958

fc.weight f4 [4, 15]
0	0x3c913e95	0.017730037
1	0x3d956f57	0.07296627
2	0xbd2e3b23	-0.042536866
3	0xbe96a321	-0.29421332
4	0xbe882443	-0.26590165
5	0x3f46dc29	0.7767969
6	0x3e65bf99	0.2243637
7	0x3e51a0f8	0.20471561
8	0xbe75d55f	-0.24007176
9	0x3e827485	0.25479522
10	0xbd916bb0	-0.07100618
11	0xbe87a17d	-0.26490393
12	0xbe33a229	-0.17542328
13	0x3f72b3ee	0.948058
14	0x3ebb6d73	0.3660694
15	0x3d8379af	0.06419694
16	0xbe9605f2	-0.2930141
17	0xbe836c67	-0.25668642
18	0xbd00975d	-0.03139435
19	0xbe98aaf9	-0.29817942
20	0x3d8f86c4	0.070081264
21	0x3d9f5001	0.077789314
22	0xbeb8e3c8	-0.36111283
23	0xbd73cfad	-0.059524227
24	0x3ee2e958	0.44318652
25	0xbdc74bd1	-0.09731258
26	0xbeecca84	-0.46248257
27	0x3e951942	0.29120833
28	0xbdd5ae20	-0.10433602
29	0x3d327c7d	0.043575753
30	0xbf5877e7	-0.84557956
31	0x3e665927	0.22494946
32	0x3f3880bb	0.7207143
33	0xbee4123a	-0.44545156
34	0xbea7ea51	-0.32795957
35	0x3d7d55d7	0.06184944
36	0xbf10d502	-0.56575024
37	0x3edbbb28	0.42916226
38	0xbe23e28e	-0.16004393
39	0x3e472d5a	0.19450894
40	0xbf02c9a6	-0.5108894
41	0xbe9eab1b	-0.30989918
42	0x3f833bba	1.0252602
43	0x3e8bbd6e	0.2729296
44	0xbf4c63d1	-0.7983981
45	0xbeb3ccae	-0.35117096
46	0x3d2fecbd	0.04295038
47	0x3e86cfe2	0.26330477
48	0x3f3b641e	0.7319964
49	0x3d6e6662	0.05820311
50	0xbd16f0d7	-0.036850777
51	0xbe9a991f	-0.30194947
52	0xbe6791f6	-0.22614273
53	0xbe8ebb19	-0.2787712
54	0x3f0c92fe	0.5491179
55	0x3f28bd7a	0.6591412
56	0xbeb13606	-0.3461153
57	0xbe8dbd54	-0.27683508
58	0x3e6b5900	0.2298317
59	0x3f1bd926	0.6087822

fc.bias f4 [4]
0	0x3eab0a03	0.33406076
1	0x3e07fa9c	0.13279194
2	0x3ece95f8	0.40348792
3	0x3dc84ad2	0.09779896
