checkpoints/longlag_nonlinear_signals_model_weights.pth (torch_old, 6566 bytes, 6 tensors)

rnn.weight_ih_l0 f4 [60, 5]
0	0xbf674226	-0.9033531
1	0xbf4da5f2	-0.8033134
2	0xbedcbccf	-0.431128
3	0xbef48943	-0.47760972
4	0x3ea29d0d	0.31760445
5	0x3ef8389d	0.48480693
6	0x3f4949ff	0.78628534
7	0x3ead6223	0.33863935
8	0x3f04a8d5	0.5182012
9	0x3f415851	0.75525385
10	0x3f98cb95	1.1937128
11	0xbe641e0a	-0.22277084
12	0x3f3f3f39	0.74705845
13	0x3cc7875c	0.024356537
14	0xbfc820b3	-1.5634979
15	0x3e6b0892	0.22952488
16	0x3da480a4	0.08032349
17	0x3d803a7b	0.06261154
18	0x3bc8e2a0	0.0061305314
19	0x3e7af22e	0.24506447
20	0xbf244376	-0.6416544
21	0xbfb09945	-1.3796774
22	0xbefac2ce	-0.4897675
23	0xbf2bd660	-0.67123985
24	0xbf538a8a	-0.8263327
25	0x3ed45d0d	0.41477242
26	0xbe6e65bc	-0.23280996
27	0xbec2ed90	-0.3807187
28	0x3e3523fb	0.17689507
29	0x3f9c8d33	1.223059
30	0xbefe35b2	-0.4965034
31	0xbfa3176a	-1.274152
32	0xbe60835e	-0.21925113
33	0xbefe683b	-0.49688897
34	0x3f58f091	0.84742075
35	0xbecd01de	-0.40040487
36	0xbf01ef56	-0.5075582
37	0xbeb8e824	-0.3611461
38	0x3e9e84c6	0.30960673
39	0xbfe96a71	-1.8235608
40	0x3ec94fc9	0.39318684
41	0x3e1f3771	0.15548493
42	0x3e1c2f27	0.15252362
43	0x3e156267	0.14588319
44	0x3d96400d	0.073364355
45	0x3f593c1e	0.84857357
46	0x3e8bfcfe	0.27341455
47	0x3b1a933b	0.0023586291
48	0xbe901c97	-0.28146812
49	0x3e001d74	0.12511235
50	0x3dfcac6e	0.12337576
51	0x3fb874f8	1.4410696
52	0x3e3f56e9	0.18685497
53	0x3b84bc57	0.004050772
54	0x3f555e9a	0.83347476
55	0x3eb550cd	0.3541321
56	0xbf281968	-0.65663767
57	0x3e4538c2	0.19259933
58	0x3e8a5e20	0.27024937
59	0x3fddee1a	1.7338288
60	0xbfa88778	-1.3166342
61	0x3c65499b	0.0139946
62	0x3dc61b7d	0.09673212
63	0xbe18368e	-0.14864561
64	0xbe991c67	-0.29904482
65	0x3edc83b5	0.43069234
66	0x3e2b070a	0.16701904
67	0x3ea7252d	0.3264555
68	0x3e9c9311	0.30580953
69	0x3da68bc4	0.08132127
70	0x3f43dbab	0.7650706
71	0xbd8df4a2	-0.06931426
72	0xbddd7841	-0.10813952
73	0xbf39febf	-0.72654337
74	0x3f37b475	0.7175973
75	0xbf224b03	-0.6339571
76	0xbf6c3285	-0.92264587
77	0xbf575611	-0.841157
78	0xbf2e8c97	-0.68183273
79	0x3ec741bd	0.38917342
80	0x3e533b41	0.20628072
81	0x3f836a46	1.0266807
82	0x3e4cb2ca	0.19990078
83	0x3e8a1d44	0.26975453
84	0x3f346f7e	0.70482624
85	0x3f5f9d2c	0.873492
86	0xbe0f5f0b	-0.140011
87	0x3f001a62	0.50040257
88	0x3d704acc	0.05866508
89	0xbf26a603	-0.65097064
90	0x3f1c2400	0.6099243
91	0x3eff6f67	0.4988968
92	0x3f204e34	0.6261933
93	0x3ed9dbad	0.42550412
94	0x3f0c3d5a	0.54781115
95	0xbec218df	-0.379096
96	0xbf1d8b99	-0.61541134
97	0xbdadc8b4	-0.08485547
98	0xbe8bc46f	-0.27298304
99	0xbeaf0439	-0.3418291
100	0x3edbc80e	0.42926067
101	0xbed9a8a0	-0.42511463
102	0xbbcf2134	-0.006321097
103	0x3d045ae0	0.032313228
104	0x3ec3437e	0.3813743
105	0xbebf6f4f	-0.3738961
106	0xbfe48844	-1.7854085
107	0xbdfc3050	-0.123139024
108	0xbe24cbfd	-0.1609344
109	0xbda1a77e	-0.07893275
110	0x3eb04e7c	0.3443488
111	0x3e2e4f1b	0.17022364
112	0x3e75ae63	0.23992305
113	0x3f189c2e	0.5961331
114	0xbf494bac	-0.7863109
115	0x3f08861f	0.5332965
116	0x3ed8da96	0.42354268
117	0x3f0b10c0	0.54322433
118	0x3e83bb7a	0.2572897
119	0x3ecfdf49	0.4060004
120	0x3f1266bf	0.5718803
121	0xbde616c4	-0.11234811
122	0xbd710b0d	-0.05884843
123	0xbe7e551a	-0.24837151
124	0xbdf2623f	-0.11835145
125	0x3e905fb3	0.28198013
126	0x3fe544bc	1.7911601
127	0xbe0368b2	-0.12832907
128	0xbc0c16cc	-0.008550357
129	0x3f941000	1.1567383
130	0x3dcba216	0.09943025
131	0xbdf8fca9	-0.12157566
132	0x3e115980	0.14194298
133	0x3ed5a3ae	0.4172644
134	0x3ea7e455	0.3279139
135	0xbfb7294f	-1.4309481
136	0x3e3da96f	0.18521665
137	0xbe3b83d4	-0.18312007
138	0xbedbd5ed	-0.4293665
139	0xbf077160	-0.5290737
140	0x3f16d0d1	0.5891238
141	0x3ec1a5f1	0.37821916
142	0x3e07b3f7	0.13252245
143	0x3f129e06	0.57272375
144	0x3d9812e2	0.074254766
145	0x3ecaaef7	0.39586613
146	0xbec17e55	-0.37791696
147	0x3e39cef5	0.18145354
148	0xbf5a2669	-0.8521486
149	0x3e90d677	0.28288624
150	0xbf0bc63f	-0.54599375
151	0x3f8a4ecd	1.0805298
152	0xbea3fbd0	-0.32028055
153	0xbf07626f	-0.5288457
154	0xbe25e37a	-0.16200057
155	0xbea4bb48	-0.32174134
156	0xbe871b1e	-0.26387876
157	0xbe60ded4	-0.21960002
158	0xbefb4118	-0.490731
159	0xbf1279da	-0.5721718
160	0xbf83c05d	-1.029308
161	0xbf093ee2	-0.53611577
162	0xbe4755a0	-0.19466257
163	0xbe438928	-0.1909529
164	0xbee744a4	-0.45169556
165	0xbe82f126	-0.25574607
166	0xbec84bff	-0.3912048
167	0x3e29914e	0.16559336
168	0x3dc129a7	0.09431773
169	0x3dc8c50d	0.098032095
170	0xbf06d88d	-0.5267418
171	0x3e3bdf65	0.18346937
172	0xbf1cd8d8	-0.6126838
173	0xbdf9c1c7	-0.12195163
174	0xbe8c14d9	-0.27359655
175	0x3fa96830	1.323492
176	0xbea08deb	-0.31358275
177	0x3bbf3231	0.0058348407
178	0x3e08b975	0.13351996
179	0x3dce349c	0.10068628
180	0xbd561095	-0.052261908
181	0xbfcbfdd0	-1.5936832
182	0xbeb44d77	-0.3521535
183	0xbe421d07	-0.18956386
184	0xbf6f96d7	-0.9358954
185	0x3ed432ae	0.41444916
186	0x3ed2122d	0.41029492
187	0x3c724de3	0.014789077
188	0x3e949b28	0.29024625
189	0x3e4ecd16	0.20195422
190	0xbec6a089	-0.38794354
191	0xbeb38437	-0.3506181
192	0xbe854fe0	-0.26037502
193	0xbe83c1d0	-0.25733805
194	0xbda1265b	-0.07868644
195	0x3e9bb79a	0.30413514
196	0xbdb51ae5	-0.0884302
197	0xbd573cce	-0.052548222
198	0x3cbb391d	0.022854382
199	0x3e0e307c	0.13885683
200	0x3f31ea1f	0.69497865
201	0x3f28335a	0.65703356
202	0x3ec91858	0.39276385
203	0x3f129a95	0.57267123
204	0x3f23b90b	0.6395423
205	0x3e18f367	0.149366
206	0x3e051c41	0.1299906
207	0xbcdaf418	-0.026727721
208	0xbf237a7a	-0.6385876
209	0x3e0e91e2	0.13922837
210	0x3ee3734e	0.44423908
211	0x3eefb4ee	0.46817726
212	0xbf022289	-0.50833946
213	0xbdd1a2c2	-0.10236122
214	0xbe5bfc44	-0.2148295
215	0x3e91aeed	0.2845377
216	0x3ebc028d	0.36720696
217	0x3eea314f	0.45740744
218	0x3ed74197	0.4204223
219	0x3dbaf6de	0.091291174
220	0xbe57bc2e	-0.21067879
221	0x3d8fe1e0	0.07025504
222	0xbdcaaf8d	-0.09896765
223	0x3e669dba	0.22521105
224	0x3e996106	0.29956836
225	0xbf977169	-1.1831485
226	0xbfae8636	-1.3634708
227	0xbf2f348e	-0.6843957
228	0xbeb62e2d	-0.35582104
229	0x3eadaf6c	0.339229
230	0xbe31d787	-0.17367373
231	0xbfbc1ba4	-1.4695935
232	0x3d6fdb64	0.058558837
233	0x3e91d8b4	0.28485644
234	0x3f79b041	0.9753457
235	0x3fc7d9c5	1.5613333
236	0xbed15fb0	-0.40893316
237	0xbc9ca9f3	-0.019124007
238	0x3e306337	0.17225347
239	0x3e4c3551	0.19942214
240	0x3fdaf4f6	1.7106006
241	0x40108ccf	2.2585943
242	0xbe8b2da4	-0.2718326
243	0xbecbdd6f	-0.39817378
244	0xbcbab30e	-0.022790458
245	0xbf2d1131	-0.67604357
246	0xbfcab5a6	-1.5836685
247	0xbf016bd9	-0.5055519
248	0xbf484959	-0.7823692
249	0xbe5ee6e2	-0.21767762
250	0x3effadeb	0.49937376
251	0xbea0c7a1	-0.31402305
252	0x3d44602c	0.04794328
253	0x3f79e62e	0.9761685
254	0x3f796159	0.97414166
255	0xbf2ac6a1	-0.66709334

rnn.weight_hh_l0 f4 [60, 15]
0	0x3e050715	0.12990983
1	0x3ed7e75b	0.42168698
2	0xbf1dc1f8	-0.616241
3	0xbccf53e0	-0.02530855
4	0xbcc86af8	-0.02446507
5	0x3f18adb8	0.59640074
6	0xbf41845c	-0.7559259
7	0xbeaecea2	-0.34142023
8	0xbe4aa87b	-0.19790833
9	0xbcf68e4c	-0.03009715
10	0xbf495219	-0.78640896
11	0x3dd0322a	0.10165818
12	0x3f636a2f	0.888339
13	0xbec73ed7	-0.3891513
14	0xbf79a8fb	-0.9752347
15	0x3e803d9d	0.25047007
16	0xbeab9247	-0.33510038
17	0xbecb4677	-0.39702198
18	0xbe8c3639	-0.2738512
19	0xbb3154a8	-0.0027058516
20	0x3ecb479f	0.3970308
21	0xbc53f6e2	-0.012937279
22	0xbc0f0494	-0.008729119
23	0xbead6b67	-0.33871004
24	0xbdf55a09	-0.119800635
25	0x3e925c27	0.28585932
26	0xbe754b43	-0.23954491
27	0xbe62a875	-0.22134574
28	0x3f0d8389	0.5527883
29	0x3de06fc5	0.10958818
30	0x3e54418a	0.20728126
31	0x3ebffcd5	0.37497583
32	0x3eb8b7d1	0.3607774
33	0xbe8fd0d1	-0.28089002
34	0xbe9191ab	-0.28431448
35	0xbfc17753	-1.511454
36	0x3f44e451	0.76910883
37	0x3ed0b4ce	0.40762943
38	0xbdca146b	-0.09867176
39	0x3be62ad3	0.007024148
40	0xbe004a2b	-0.12528293
41	0x3f86de87	1.053666
42	0xbf65a270	-0.89700985
43	0xbdd9059d	-0.10596774
44	0x3eee5b82	0.4655419
45	0xbdd9f3be	-0.10642193
46	0xbe8eb496	-0.2787215
47	0xbe21d429	-0.15803589
48	0xbec694b9	-0.3878534
49	0x3e68d511	0.22737528
50	0x3ba75a04	0.0051071662
51	0x3e8bae9c	0.27281654
52	0x3e6d775d	0.23190065
53	0xbee4b724	-0.44670975
54	0xbd922990	-0.07136834
55	0x3ed71ac7	0.42012617
56	0x3d100265	0.035158534
57	0xbdf930e5	-0.12167529
58	0x3ec91470	0.39273405
59	0x3ea3183c	0.31854427
60	0x3dd3a2d0	0.103337884
61	0x3ecbddb4	0.39817584
62	0xbebc32cf	-0.36757514
63	0x3db232d1	0.08701099
64	0xbe06b90c	-0.13156527
65	0x3f53e291	0.8276759
66	0xbecbf118	-0.39832377
67	0x3ecfee57	0.40611526
68	0x3d8430cc	0.0645462
69	0xbf08bd52	-0.5341388
70	0xbf1a5a35	-0.60293895
71	0xbfb897b3	-1.4421295
72	0x3ec33c77	0.3813207
73	0xbeb5c36e	-0.35500664
74	0xbf013085	-0.5046466
75	0xbd56f8b8	-0.05248329
76	0xbedc7d71	-0.43064454
77	0x3e8f869b	0.28032383
78	0xbcc2b271	-0.023766728
79	0x3e47370c	0.19454592
80	0xbf67bb63	-0.90520304
81	0xbf2c3dfc	-0.6728208
82	0xbf01e390	-0.5073786
83	0xbdd2ca78	-0.10292524
84	0xbeac5341	-0.33657268
85	0x3e97a511	0.29618123
86	0xbf231789	-0.63707787
87	0x3dc6f097	0.097138576
88	0xbe819e5a	-0.25316125
89	0xbf3800f9	-0.71876484
90	0x3f1ce323	0.61284083
91	0x3f6039a7	0.8758797
92	0x3e8b1b5a	0.27169305
93	0xbf1bd0ef	-0.6086568
94	0x3f533317	0.8249983
95	0xbf7af8a8	-0.9803567
96	0x3e54e916	0.2079204
97	0xbd8a03a9	-0.06738979
98	0xbf05072d	-0.51964074
99	0xbefe568a	-0.496754
100	0x3e602fb2	0.21893194
101	0xbfd33dc5	-1.6503226
102	0x3ebe8a1f	0.37214753
103	0x3e50eb1f	0.20402192
104	0xbfd696f9	-1.6764823
105	0xbdc5fc47	-0.09667259
106	0x3ee76d1c	0.4520043
107	0x3e827d98	0.25486445
108	0x3e57f198	0.21088254
109	0xbdd54285	-0.10413078
110	0x3f36d261	0.7141476
111	0xbdd89d2a	-0.10576852
112	0x3c5b2537	0.013375572
113	0x3dd472fa	0.103734925
114	0xbf492fc7	-0.7858853
115	0xbf495ec6	-0.7866024
116	0xbfbc7cd7	-1.4725598
117	0x3e0c0f92	0.13677815
118	0xbe9b9dd3	-0.30393848
119	0x3e98c879	0.29840448
120	0x3e7a5c80	0.24449348
121	0xbee2a8d8	-0.44269443
122	0x3da1501a	0.07876606
123	0xbe5a1da9	-0.21300377
124	0xbd522c5d	-0.05131184
125	0x3f01db54	0.50725293
126	0x3f02ef51	0.5114642
127	0x3db6c1bc	0.08923671
128	0xbe651020	-0.22369432
129	0xbebd3cc6	-0.3696043
130	0x3ee26239	0.44215563
131	0x3e323f5b	0.1740698
132	0x3d64a10b	0.055817645
133	0x3eb640cf	0.3559632
134	0x3e5b4581	0.21413232
135	0x3f11279b	0.5670106
136	0x3cd88b67	0.02643366
137	0xbeaa06d6	-0.3320834
138	0xbeee17d5	-0.46502557
139	0x3dd54f1c	0.104154795
140	0x3fc2a31f	1.5206031
141	0x3f0d5312	0.5520488
142	0xbd62f7a6	-0.055411957
143	0xbe34efb9	-0.17669572
144	0xbef215c7	-0.4728224
145	0xbeabfc02	-0.33590704
146	0x3ea24462	0.31692797
147	0x3eed076b	0.46294722
148	0xbee2660b	-0.44218478
149	0xbe698656	-0.22805151
150	0x3defa5ba	0.11701532
151	0xbe9fd608	-0.3121798
152	0xbe7a368b	-0.24434869
153	0xbef591aa	-0.47962695
154	0xbdb8f43f	-0.09030961
155	0xbef9044b	-0.48636088
156	0x3e9d9308	0.30776238
157	0xbe764830	-0.24050975
158	0xbea67659	-0.32512167
159	0x3f10fe8f	0.56638426
160	0x3e713c65	0.23558195
161	0x3ea8a8ad	0.3294119
162	0xbe82d216	-0.25550908
163	0x3e928680	0.2861824
164	0xbf08c566	-0.53426206
165	0xbcc4291a	-0.02394538
166	0xbee3dea3	-0.44505796
167	0xbb878711	-0.004135974
168	0xbe19b6ba	-0.15011111
169	0x3f43ccc8	0.76484346
170	0x3d3b6a17	0.045755472
171	0xbf21d62c	-0.63217425
172	0xbf0c7707	-0.5486912
173	0xbd981009	-0.074249335
174	0xbec210ed	-0.37903538
175	0x3f0b5856	0.54431665
176	0xbf0a1841	-0.5394326
177	0xbf86ea77	-1.0540303
178	0x3deeadea	0.11654265
179	0xbe47cfc9	-0.19512857
180	0xbe16fbb7	-0.14744459
181	0xbe0286b0	-0.12746692
182	0x3e98df05	0.2985765
183	0x3e9b66e5	0.3035194
184	0x3e09529b	0.13410418
185	0xc0284733	-2.6293457
186	0xbf59ac0c	-0.8502815
187	0x3e5c96fc	0.21541971
188	0x3ed8ba2b	0.42329535
189	0xbf6909ef	-0.9103078
190	0x3e1a8661	0.15090324
191	0x3e071046	0.13189802
192	0xbf0c150c	-0.54719615
193	0x3d02b8e1	0.031914596
194	0x3f7386bf	0.9512748
195	0x3e3ee538	0.18642128
196	0xbe90af9d	-0.28258982
197	0x3c5f3a98	0.01362481
198	0xbec46cee	-0.38364357
199	0xbe4051c4	-0.18781191
200	0x3ef1343e	0.4711017
201	0x3d7d6d46	0.06187179
202	0x3ecf3ea8	0.4047749
203	0xbea819e3	-0.3283225
204	0xbe514585	-0.20436676
205	0x3efa7220	0.48915195
206	0x3d84c2fa	0.06482501
207	0xbe1124f9	-0.1417426
208	0x3e4cd5e0	0.20003462
209	0x3c5feeec	0.013667803
210	0xbd7f934b	-0.06239633
211	0x3eb40a74	0.35164225
212	0xbf452746	-0.7701305
213	0xbf4271f1	-0.7595511
214	0x3baf4406	0.005348685
215	0x3fd560f0	1.6670208
216	0x3e206e28	0.15667021
217	0xbe764e0a	-0.24053207
218	0xbf3182d8	-0.69340277
219	0x3ea67daa	0.3251775
220	0xbf06810a	-0.5254065
221	0x3be2ab97	0.0069174278
222	0x3f0ada52	0.5423938
223	0xbea33ce6	-0.318824
224	0x3d4c4dd7	0.04987892
225	0xbe885129	-0.2662442
226	0x3e9719f7	0.29511997
227	0xbdb5ea1d	-0.08882544
228	0x3ea760ac	0.32690942
229	0x3d2bfa66	0.041986845
230	0xbe8ed140	-0.2789402
231	0xbf4c26f2	-0.79746926
232	0xbe6a53a7	-0.22883473
233	0x3ea8f8a6	0.33002204
234	0x3e25be0b	0.16185777
235	0xbe9d2bfd	-0.30697623
236	0x3f8982de	1.0743062
237	0x3f661614	0.8987744
238	0xbec522f7	-0.3850324
239	0xbf1468e8	-0.57972574
240	0xbd0a9927	-0.033837464
241	0xbece3d64	-0.40281212
242	0x3d96ae21	0.07357431
243	0xbed16e14	-0.40904295
244	0xb9eabc31	-0.00044772172
245	0x3f0fde86	0.5619892
246	0xbd02f49e	-0.031971566
247	0x3e764b1d	0.24052091
248	0xbed2d260	-0.41176128
249	0x3e09e3d1	0.13465811
250	0x3e9e2cf1	0.30893663
251	0x3db457be	0.08805798
252	0xbed3ded7	-0.4138095
253	0x3e7f3263	0.24921565
254	0x3d9a8bb1	0.07546175
255	0xbeae7b6c	-0.34078538

rnn.bias_ih_l0 f4 [60]
0	0xbedab568	-0.42716527
1	0x3f1d62c3	0.61478823
2	0xbea71e09	-0.32640103
3	0xbe40cdf4	-0.18828565
4	0xbe834546	-0.2563879
5	0x3d80f2f4	0.0629634
6	0xbe1f4dc7	-0.15557013
7	0xbefdafe4	-0.49548256
8	0xbe228113	-0.1586955
9	0xbee4285e	-0.44562048
10	0x3ef3f16a	0.47645122
11	0x3e477344	0.19477564
12	0xbe241602	-0.1602402
13	0x3dcc30cc	0.09970245
14	0xbe65fa4e	-0.22458765
15	0xbeb536a3	-0.35393247
16	0x3f1c6cb4	0.6110337
17	0x3e280a3b	0.16410153
18	0x3f0ee8dc	0.55824065
19	0x3dd29858	0.102829635
20	0xbeda8e5a	-0.4268673
21	0x3e9df0d8	0.30847812
22	0x3e30a644	0.17250925
23	0x3f2a22be	0.6645926
24	0xbe40ada6	-0.18816242
25	0x3ed5c2e4	0.41750252
26	0xbe0404a1	-0.12892391
27	0x3c9c53d0	0.019082934
28	0x3f073ee8	0.5283036
29	0xbe90db91	-0.28292516
30	0xbee18787	-0.44048712
31	0xbed1d831	-0.40985253
32	0x3d2c258a	0.042027988
33	0xbdbddb63	-0.0927036
34	0xbe9b5d3f	-0.3034458
35	0xbd990a06	-0.07472615
36	0xbedb378f	-0.42815825
37	0x3e15a4b9	0.14613618
38	0xbe705d00	-0.23472977
39	0xbc953a77	-0.018216355
40	0x3f2654d0	0.64973164
41	0x3d1d97d4	0.038474873
42	0xbef236a6	-0.47307318
43	0x3efacd0f	0.48984572
44	0x3e14ea8f	0.14542602
45	0xbe0c58b2	-0.1370571
46	0xbea2b0b2	-0.31775433
47	0xbeab47ef	-0.33453318
48	0xbe4db6af	-0.2008922
49	0xbf0d6d09	-0.552445
50	0x3eee2539	0.46512774
51	0x3da3d19b	0.079989634
52	0x3e25512f	0.1614425
53	0xbeb4bc15	-0.35299745
54	0xbe2d4e56	-0.16924414
55	0xbe3c0a36	-0.1836327
56	0x3e81ef60	0.2537794
57	0x3e35fdd8	0.17772615
58	0xbeca915c	-0.39564025
59	0xbe352c92	-0.17692783

rnn.bias_hh_l0 f4 [60]
0	0xbda81e35	-0.082088865
1	0x3f091056	0.5354055
2	0xbc6bee2c	-0.014400046
3	0xbdad66cf	-0.08466875
4	0xbed4e322	-0.4157954
5	0x3e968bf4	0.2940365
6	0x3e84e99d	0.25959483
7	0xbd9f8a6d	-0.077900745
8	0x3e2f2062	0.17102197
9	0xbe85fa20	-0.26167393
10	0x3f0ceb91	0.55046946
11	0x3ea5645c	0.3230313
12	0x3c567fd6	0.013092002
13	0x3d8c80ca	0.06860502
14	0xbe878193	-0.26466045
15	0xbe9e1287	-0.3087351
16	0x3e956b51	0.29183438
17	0x3e96180f	0.2931523
18	0x3f0f7ed0	0.56052876
19	0xbe9a4f3b	-0.30138573
20	0xbe70f1d6	-0.23529753
21	0x3d6d041d	0.05786525
22	0x3eb0d783	0.34539422
23	0x3f08d1c1	0.5344506
24	0xbdb6f4c4	-0.08933404
25	0x3e0fd61b	0.14046519
26	0xbdfd2b50	-0.12361777
27	0xbdb2a807	-0.08723455
28	0x3eb7507d	0.35803595
29	0xbe4257e7	-0.18978845
30	0xbea80296	-0.32814473
31	0xbeb4f49b	-0.3534287
32	0xbe029b60	-0.12754583
33	0xbe3f4b2f	-0.18681024
34	0xbe3f6b32	-0.18693236
35	0xbe5507a5	-0.20803697
36	0xbee3b0d9	-0.44470862
37	0x3e8a62d1	0.27028516
38	0x3d3a796d	0.045525957
39	0xbe61b352	-0.22041062
40	0x3f3edcfe	0.7455596
41	0xbd17c4e4	-0.037053004
42	0xbf3099be	-0.6898459
43	0x3e8af03c	0.2713641
44	0x3d8a7dd7	0.06762283
45	0xbe39f8d3	-0.18161325
46	0xbe8e1c1e	-0.27755827
47	0xbeb1c8e6	-0.34723586
48	0xbefc8c2a	-0.49325687
49	0xbf132a0b	-0.5748603
50	0x3f194100	0.5986481
51	0x3d4b9614	0.049703673
52	0xbe104cb4	-0.1409176
53	0xbe936de5	-0.2879478
54	0xbe12f12c	-0.14349812
55	0xbc594d7c	-0.013263103
56	0x3f174103	0.59083575
57	0x3ce9e66f	0.028552262
58	0xbed85745	-0.4225408
59	0x3dc4def0	0.096128345

fc.weight f4 [5, 15]
0	0x3f1734e3	0.59065074
1	0xbdc120ce	-0.09430085
2	0xbee699da	-0.45039254
3	0xbf249d3e	-0.6430243
4	0x3e9ab7a1	0.30218223
5	0x3f6df5a8	0.92952967
6	0x3d3cd0a4	0.046097413
7	0xbe16d40a	-0.14729324
8	0xbea254b9	-0.31705263
9	0xbd1f804d	-0.038940717
10	0xbee0c1e8	-0.4389794
11	0x3ea33147	0.31873533
12	0xbda23c7e	-0.07921694
13	0x3e23fab2	0.16013601
14	0x3e79f172	0.2440851
15	0xbf03904c	-0.51392055
16	0x3d44ce9a	0.048048593
17	0x3f1b7ebb	0.6074025
18	0xbee61df5	-0.4494473
19	0xbeac7065	-0.336795
20	0x3eca3cea	0.394996
21	0xbc3089f4	-0.010775078
22	0x3d11222f	0.03543299
23	0x3d32e4a7	0.04367509
24	0x3e438006	0.19091806
25	0x3f45df34	0.77293706
26	0xbe6be169	-0.23035206
27	0xbd8c186f	-0.06840598
28	0x3e32978d	0.17440625
29	0x3e30bd15	0.17259629
30	0x3e2dea63	0.16983943
31	0xbecad166	-0.39612883
32	0xbdddbf10	-0.10827458
33	0x3c478e56	0.012179932
34	0x3bd1bf07	0.006400946
35	0x3e841985	0.2580072
36	0x3e9e0cb5	0.3086907
37	0x3d53424c	0.051576898
38	0xbef5a415	-0.47976747
39	0xbeac5d4d	-0.33664933
40	0x3e63ce04	0.22246557
41	0x3ddf1641	0.108929165
42	0xbe65031b	-0.22364466
43	0x3efe48d6	0.49664944
44	0x3da01c1e	0.07817863
45	0xbdff9765	-0.12480048
46	0xbf2a0f1d	-0.6642931
47	0xbee4159f	-0.44547746
48	0xbdec21ca	-0.11529882
49	0x3e477a04	0.19480139
50	0xbe29fa67	-0.16599427
51	0xbde77a16	-0.11302583
52	0x3efe1d47	0.49631712
53	0x3e108404	0.1411286
54	0xbe950d43	-0.2911168
55	0x3e94fa6e	0.29097313
56	0xbeed1534	-0.4630524
57	0x3facefdc	1.3510699
58	0x3e603eed	0.21899004
59	0x3f8eeff5	1.1166979
60	0xbcf35181	-0.02970195
61	0x3bc6ed09	0.0060707373
62	0xbb437396	-0.0029823533
63	0xbd968edc	-0.07351467
64	0xbddade69	-0.106869526
65	0xbdd8e42e	-0.10590397
66	0xbec67c76	-0.3876683
67	0xbf30870d	-0.6895607
68	0xbcd7f0bd	-0.02635991
69	0xbe66e914	-0.2254985
70	0x3ef0b707	0.4701464
71	0x3f4a34c2	0.7898675
72	0x3e9ef76f	0.31048152
73	0xbce18d1e	-0.02753311
74	0xbedaa019	-0.4270027

fc.bias f4 [5]
0	0x3e8da0c7	0.27661726
1	0xbcc9fb58	-0.024655983
2	0x3e684f8a	0.22686592
3	0x3eb9f1b6	0.36317223
4	0x3ebe6f5b	0.37194332
