checkpoints/longlag_nonlinear_signals_model_weights4.pth (torch_old, 6261 bytes, 6 tensors)

rnn.weight_ih_l0 f4 [60, 4]
0	0x3e5f3577	0.21797739
1	0x3c38c5ee	0.011277659
2	0xbe7eefc8	-0.24896157
3	0xbe2b1774	-0.16708165
4	0xbfbe2b41	-1.485695
5	0x3f378bb8	0.7169757
6	0x3dc9e80c	0.098587126
7	0xbe1aec17	-0.15129124
8	0x3dd90bf1	0.10597981
9	0x3f121db6	0.57076585
10	0x3ea24be8	0.31698537
11	0x3e1263b8	0.14295852
12	0x3dac9b51	0.08428062
13	0xbfa85d3b	-1.3153452
14	0x3e1982fd	0.14991374
15	0xbef04f73	-0.46935615
16	0x3da605db	0.081065856
17	0x3f08291b	0.5318772
18	0x3e40e50f	0.18837379
19	0xbe81fad4	-0.2538668
20	0x3f5b6622	0.8570272
21	0x3edac470	0.42727995
22	0x3f6c7b46	0.923756
23	0x3f072088	0.52784014
24	0x3f072142	0.5278512
25	0x3ed7e47c	0.42166507
26	0x3e543c60	0.20726156
27	0x3e515ecc	0.20446318
28	0x3e681685	0.2266484
29	0xbeb614f6	-0.35562867
30	0xbe95b416	-0.29238957
31	0x3dc209bc	0.09474513
32	0xbf6f2235	-0.9341157
33	0xbe8495d8	-0.25895572
34	0x3e3cca86	0.18436632
35	0xbef9f676	-0.48820847
36	0xbd17ed0f	-0.03709131
37	0x3f83f266	1.0308349
38	0xbb37e28a	-0.0028058612
39	0xbeaa26c5	-0.33232704
40	0x3f0bf4ee	0.5467061
41	0x3e21707b	0.15765564
42	0x3ee6b795	0.45061937
43	0x3f2cbed0	0.67478657
44	0xbc1a3c09	-0.009413728
45	0x3fb46392	1.4092886
46	0xbc8a3ea5	-0.016875574
47	0x3eea5c66	0.4577362
48	0xbf50c44a	-0.81549513
49	0xbf45221b	-0.77005166
50	0xbf03e874	-0.5152657
51	0x3ecea9f2	0.40364033
52	0x3e4b90fb	0.19879524
53	0x3ef6c6e0	0.48198605
54	0x3dcabe99	0.09899635
55	0x3f134ebe	0.57542026
56	0x3ea118ff	0.31464383
57	0x3f29d253	0.66336554
58	0x3ec9107d	0.39270392
59	0x3f0fa240	0.5610695
60	0x3ea892d8	0.32924533
61	0xbebea127	-0.37232324
62	0x3df57125	0.11984471
63	0xbecc4829	-0.39898804
64	0xbf867fce	-1.0507753
65	0x3d74f034	0.059799388
66	0x3e23ad73	0.15984134
67	0xbe188dc1	-0.14897825
68	0xbf1fad05	-0.6237338
69	0xbe3cb838	-0.18429649
70	0xbe8ddd17	-0.2770774
71	0xbf03903d	-0.51391965
72	0xbe3e6297	-0.18592297
73	0xbd92b679	-0.0716371
74	0x3e3295e4	0.17439991
75	0x3d8cf1a2	0.06882025
76	0xbd31d01f	-0.04341137
77	0x3d89e288	0.067326605
78	0xbe58c8e5	-0.21170385
79	0xbef18bea	-0.47177058
80	0x3f310dde	0.69161785
81	0xbefa73db	-0.48916516
82	0x3f2890aa	0.6584574
83	0x3f12a7d4	0.57287335
84	0x3f01e9a3	0.50747126
85	0x3f4b1557	0.79329437
86	0x3e905276	0.28187913
87	0x3e4d6c95	0.20060952
88	0xbf9c64e6	-1.2218292
89	0xbeac1ea3	-0.33617124
90	0xbf996856	-1.1984966
91	0xbf47463d	-0.7784155
92	0xbf23b2a7	-0.63944477
93	0xbf196334	-0.59916997
94	0xbdd312ed	-0.10306344
95	0xbee357d6	-0.4440295
96	0xbeda41c7	-0.4262831
97	0xbf4a8e80	-0.7912369
98	0xbf11f6a8	-0.5701699
99	0xbf1188af	-0.5684919
100	0x3f071615	0.5276807
101	0xbcd4be89	-0.02596976
102	0x3e81b006	0.25329608
103	0x3f0c1fbc	0.5473592
104	0x3c944972	0.018101428
105	0x3fa12158	1.2588301
106	0xbe373b29	-0.17893662
107	0x3dd87af1	0.10570324
108	0x3e977978	0.2958486
109	0x3eefab42	0.46810347
110	0x3e7d8a7d	0.2475986
111	0x3f35c1ec	0.70999026
112	0x3edcdce1	0.43137267
113	0x3ef090c5	0.4698545
114	0x3e8524f1	0.26004747
115	0x3e87b222	0.26503092
116	0x3e463ae0	0.19358397
117	0x3f2fa900	0.6861725
118	0x3ee1cf87	0.44103643
119	0x3e325a7f	0.17417334
120	0x3f03ba9c	0.5145662
121	0x3d39ac33	0.045330238
122	0xbd4c4a7a	-0.049875714
123	0xbdfc01ad	-0.12305007
124	0x3d81143b	0.06302687
125	0x3f0e5004	0.55590844
126	0x3f0b9edd	0.5453928
127	0x3ee09bc6	0.43868846
128	0xbfcafc97	-1.5858334
129	0x3e1a987f	0.15097235
130	0xbcf2638b	-0.029588481
131	0x3e941435	0.28921667
132	0xbe189a4b	-0.14902608
133	0x3eaafef4	0.3339764
134	0xbde81289	-0.1133166
135	0x3e6be49e	0.2303643
136	0xbe43ad8b	-0.1910917
137	0x3f89bf24	1.0761456
138	0x3ce8c741	0.028415324
139	0x3db2f343	0.08737805
140	0x3f79e709	0.97618157
141	0x3f12fee6	0.57420194
142	0x3e26c882	0.16287425
143	0x3e8ae5e1	0.2712851
144	0xbf0ffc6c	-0.5624454
145	0xbe872742	-0.2639714
146	0xbf02e0af	-0.5112409
147	0xbf1a60f7	-0.60304207
148	0xbec0a679	-0.3762701
149	0x3e4b5665	0.19857176
150	0xbd870862	-0.06593396
151	0x3df67a0e	0.12034999
152	0xbe00c30b	-0.12574403
153	0x3f128bc6	0.5724453
154	0xbe4a0495	-0.1972831
155	0xbec5b587	-0.38615057
156	0x3ec65d70	0.38743162
157	0x3f149ce0	0.5805187
158	0xbd3562b8	-0.0442836
159	0xbe08730c	-0.13325137
160	0xbf30a095	-0.6899503
161	0xbe7b1085	-0.2451802
162	0xbee0db2a	-0.4391721
163	0xbf2669ef	-0.6500539
164	0xbf304568	-0.68855906
165	0xbf62837a	-0.8848187
166	0x3d7cd588	0.061727077
167	0xbe51e6d5	-0.20498212
168	0x3ef613ae	0.4806189
169	0xbe6b08c1	-0.22952558
170	0x3db1ad3f	0.08675622
171	0x3ec8766c	0.3915285
172	0x3f1b98be	0.6077994
173	0x3f17c8d7	0.5929083
174	0x3e3a7eb7	0.182124
175	0x3eb934ad	0.36173
176	0x3e54a072	0.2076433
177	0x3f02ddca	0.51119673
178	0x3f121942	0.5706979
179	0x3ee0f560	0.43937206
180	0x3ed42e08	0.4144137
181	0x3e941359	0.2892101
182	0x3e04f348	0.1298343
183	0x3d842af5	0.06453506
184	0xbf8f4473	-1.1192764
185	0xbe5b5c57	-0.21421944
186	0x3e4f3a90	0.20237184
187	0x3db7ae37	0.08968776
188	0x3e5fa61b	0.21840708
189	0x3ea17e4f	0.31541678
190	0x3f9a9b73	1.2078689
191	0x3f9ffeaa	1.2499592
192	0xbd974b9d	-0.07387469
193	0xbf753467	-0.95783085
194	0xbecce5d8	-0.40019107
195	0xbec96075	-0.39331403
196	0xbf441d1f	-0.76606935
197	0xbeecf99a	-0.4628418
198	0xbda7f9f3	-0.08201971
199	0xbf65b5ec	-0.89730716
200	0x3f9fa2f3	1.2471603
201	0xbf81aa12	-1.0130026
202	0x3db23efe	0.08703421
203	0x3e253e89	0.16137137
204	0xbf2e664d	-0.6812485
205	0x3f4bfa54	0.79678845
206	0x3e9c078f	0.30474517
207	0xbd18d495	-0.03731211
208	0x3ec2d6c7	0.38054487
209	0xbdee4362	-0.11633946
210	0xbc08b9fd	-0.008345124
211	0x3eb1ac8a	0.3470195
212	0xbf5fee8e	-0.8747338
213	0x3d6f1954	0.058373764
214	0xbdc470d3	-0.09591832
215	0xbf4d463c	-0.80185294
216	0x3eef95e8	0.46794057
217	0x3fc3c97a	1.5295861
218	0x3ef9b313	0.48769435
219	0x3efa6705	0.48906723
220	0xbf8a631b	-1.0811495
221	0xbf911c29	-1.1336719
222	0x3e06dcf8	0.1317023
223	0x3ed28a4e	0.41121143
224	0x3f03a2ce	0.51420295
225	0x3fa958d2	1.3230231
226	0x3b304353	0.0026895597
227	0x3f116cd4	0.56806684
228	0xbf081fae	-0.5317334
229	0xbee7fa2f	-0.45308062
230	0xbe15479c	-0.14578098
231	0x3cf5527b	0.029946556
232	0x3f95ba10	1.1697407
233	0x3e734c9d	0.23759694
234	0xbe7166ef	-0.23574422
235	0x3eea9144	0.45813954
236	0x3e151d61	0.14561988
237	0x3fce22bf	1.6104354
238	0xbba6868b	-0.0050819567
239	0xbe12acc9	-0.14323725

rnn.weight_hh_l0 f4 [60, 15]
0	0x3f52b657	0.8230948
1	0xbfd07c30	-1.6287899
2	0xbfc08957	-1.5041913
3	0x3f75ea6e	0.96060836
4	0xbe848f2b	-0.25890478
5	0x3d493944	0.04912688
6	0xbe0d9eee	-0.13830158
7	0xbf184494	-0.5947964
8	0x3f670db1	0.90255266
9	0x3f1d370c	0.6141212
10	0x3f38c624	0.7217734
11	0xbe0eadf1	-0.13933541
12	0xbea18949	-0.31550053
13	0x3e37a931	0.17935635
14	0x3ced5072	0.028969023
15	0xbf735dad	-0.9506481
16	0x3f0bb37a	0.54570735
17	0x3fc5dedb	1.5458635
18	0x3f312164	0.69191575
19	0xbdbb64c4	-0.09150079
20	0xbe9eceb5	-0.3101708
21	0x3f16b9d5	0.5887731
22	0x3e62543f	0.2210245
23	0x3d522971	0.051309053
24	0x3d8ad4d4	0.06778875
25	0xba3448c9	-0.0006877301
26	0x3ebaf289	0.36513165
27	0xbeba87d1	-0.36431745
28	0xbde1ee07	-0.11031728
29	0xbed6f7b4	-0.41985857
30	0x3f8597ad	1.0436913
31	0x3f10fd59	0.5663658
32	0xbf4db7de	-0.80358684
33	0xbf1fa8de	-0.62367046
34	0x400c6c24	2.1941004
35	0x3f67e310	0.90580845
36	0xbf8672fb	-1.0503839
37	0x3fad4e8e	1.3539598
38	0xbf1063cf	-0.56402296
39	0x3ee12bea	0.43978816
40	0xbf2f8098	-0.68555593
41	0xbf2cde27	-0.6752648
42	0x3d25ffe0	0.040527225
43	0x3e46b48f	0.19404815
44	0x3f14aa92	0.5807277
45	0x3f50c891	0.8155604
46	0xbfaba948	-1.3411036
47	0xbfa1eb13	-1.2649864
48	0x3ee03793	0.437924
49	0xbe4b9b6a	-0.19883505
50	0x3e808e5a	0.25108606
51	0x3d6b066b	0.057379168
52	0x3ee9290a	0.45539123
53	0x3f7413e7	0.9534287
54	0xbf0f2978	-0.5592265
55	0x3deabedd	0.114621855
56	0xbf1bf417	-0.60919327
57	0x3dfe224f	0.124088876
58	0x3ed5109d	0.41614237
59	0x3edb12cd	0.4278778
60	0x3fd8db8a	1.6941998
61	0xbf37f5d8	-0.718595
62	0xbedcc8b0	-0.43121862
63	0xbf6b32f9	-0.91874653
64	0x3e9aae48	0.3021109
65	0x3e7adefe	0.24499127
66	0xbe5c0458	-0.21486032
67	0xbd0eb22f	-0.034837898
68	0x3f4302ac	0.7617595
69	0x3f56ab48	0.83855104
70	0x3e97ca0e	0.29646343
71	0xbed4f2fd	-0.41591635
72	0xbe26437b	-0.1623668
73	0x3e82a76b	0.25518355
74	0x3e3f43bc	0.18678182
75	0x3ecd9cdb	0.40158734
76	0xbe0616d8	-0.13094652
77	0xbf24cf05	-0.64378387
78	0xbf8e9a8b	-1.1140913
79	0xbf800bcf	-1.0003604
80	0x3e69ec34	0.2284401
81	0xbf48e9f7	-0.78482
82	0xbe9adbb5	-0.30245748
83	0xbecddc92	-0.40207344
84	0x3f92eba9	1.1478168
85	0xbf000673	-0.5000984
86	0xbea09186	-0.31361026
87	0x3fa9c759	1.3263961
88	0x3f17012d	0.5898617
89	0x3ee621cf	0.4494767
90	0x3ea00b54	0.31258643
91	0x3bc426ce	0.005986071
92	0xbd9e6baa	-0.07735379
93	0x3e83144d	0.25601426
94	0xbddc342f	-0.10752141
95	0x3f0789d5	0.5294469
96	0xbe8f88d2	-0.28034073
97	0x3dcc8d1c	0.09987852
98	0xbe8caf69	-0.27477577
99	0x3e957fb3	0.2919899
100	0xbebb0ce8	-0.36533284
101	0xbe31292d	-0.17300864
102	0x3eab40e8	0.33447957
103	0x3f0faa7b	0.5611951
104	0x3e612120	0.21985292
105	0xbeb1ee19	-0.34751967
106	0xbd92d889	-0.07170207
107	0x3e0da214	0.13831359
108	0xbfa40380	-1.2813568
109	0x3eac86c0	0.33696556
110	0x3d91c042	0.071167484
111	0x3dbe1c89	0.092827864
112	0xbe63c507	-0.22243129
113	0x3e96288a	0.29327804
114	0xbe1fcb57	-0.15604912
115	0xbe7d8109	-0.24756254
116	0xbe281a3a	-0.16416255
117	0x3e2e042f	0.16993783
118	0x3e01f7bd	0.12692161
119	0xbd2ef852	-0.042717285
120	0xc0071229	-2.1104834
121	0x3f8f01fa	1.1172478
122	0x3fb9eeae	1.4525964
123	0x3ed72a9d	0.420247
124	0xbf14ba5f	-0.5809688
125	0xbf129a37	-0.57266563
126	0x3ed0d64b	0.40788493
127	0xbf3bb256	-0.73318994
128	0xbe806bb5	-0.25082174
129	0xbf10db1f	-0.5658435
130	0xbea74cc8	-0.32675767
131	0x3f31f703	0.69517535
132	0x3d28e8da	0.04123769
133	0xbe5b7448	-0.21431077
134	0xbeb449a6	-0.3521244
135	0x3f613c29	0.8798242
136	0x3ddd481c	0.108047694
137	0xbe86e452	-0.2634607
138	0x3eb8ae08	0.36070275
139	0x3e517844	0.20456034
140	0xbc84bd3b	-0.016203513
141	0xbf009cad	-0.5023907
142	0x3ee6face	0.45113224
143	0x3d83e2d7	0.06439751
144	0xbf1ff17b	-0.62477845
145	0xbe920db7	-0.2852609
146	0x3e3c7eb1	0.18407704
147	0xbfc44007	-1.533204
148	0x3d2be79d	0.04196893
149	0x3e1787b9	0.14797868
150	0x3f0bf2cc	0.54667354
151	0xbf4613c0	-0.77373886
152	0xbf7c05c1	-0.9844628
153	0xbdad5371	-0.08463181
154	0xbf044c5e	-0.5167903
155	0x3f367f7e	0.7128829
156	0xbeb37698	-0.35051417
157	0x3ef71646	0.4825918
158	0x3f128aef	0.57243246
159	0x3f5862a7	0.8452553
160	0xbe3860fc	-0.18005747
161	0xbef0e4a5	-0.47049442
162	0x3f94a50d	1.161287
163	0x3df989a8	0.12184459
164	0x3e5f2dca	0.21794811
165	0x3f2eec96	0.6832975
166	0x3f19af03	0.6003267
167	0xbec7beb6	-0.39012688
168	0xbcc3b260	-0.023888767
169	0xbdcd5cab	-0.10027441
170	0x3bee5b12	0.00727404
171	0xbe952c36	-0.29135293
172	0x3eabde51	0.3356805
173	0xbf215459	-0.6301933
174	0xbe503cd2	-0.20335701
175	0x3c6d4b07	0.01448322
176	0x3e06da5d	0.13169236
177	0xbf0ccbe3	-0.54998606
178	0xbe8e11b1	-0.27747872
179	0xbe4e55a1	-0.20149852
180	0xbffbe268	-1.9678469
181	0xbf208291	-0.6269923
182	0x400a1d1f	2.1580274
183	0x3fdcdaac	1.7254233
184	0xbf50fb29	-0.8163324
185	0xbe9c615c	-0.3054303
186	0x3e07c6b5	0.13259394
187	0xbf19e750	-0.6011858
188	0x3f743e43	0.95407504
189	0x3e17feae	0.14843246
190	0x3e7d2099	0.24719466
191	0xbd6a7d7f	-0.05724859
192	0xbe5b1dee	-0.21398136
193	0xbe74a5d9	-0.23891391
194	0xbde6f335	-0.11276857
195	0x3ef7e92a	0.48420078
196	0xbdc2c718	-0.0951063
197	0xb9a2b21c	-0.0003103175
198	0x3d71b4ac	0.059010193
199	0x3d3b32c5	0.045702714
200	0x3f0d3bb0	0.551692
201	0xbf127b06	-0.5721897
202	0xbea55231	-0.3228927
203	0x3e81fa12	0.253861
204	0x3e9f07c2	0.31060606
205	0xbe977605	-0.2958223
206	0xbebd41e9	-0.36964348
207	0x3dde7ba5	0.10863427
208	0x3ed4b3a0	0.41543293
209	0x3eb9ef3d	0.36315337
210	0x3ee55ec9	0.44798878
211	0xbe27aeeb	-0.1637532
212	0xbe172b34	-0.14762574
213	0x3d5ef998	0.05443725
214	0x3d725369	0.059161577
215	0x3ef672a6	0.48134345
216	0xbda96fba	-0.08273263
217	0xbe7f5f80	-0.24938774
218	0xbdb1838c	-0.08667669
219	0x3ec73e5e	0.3891477
220	0xbec4a826	-0.38409537
221	0x3ce034b7	0.027368886
222	0x3e839bdd	0.25704852
223	0x3eb7094f	0.3574929
224	0x3ed4d5c6	0.41569346
225	0xbc7df7e5	-0.015500997
226	0xbf42477a	-0.75890315
227	0xc03e0ed6	-2.9696555
228	0x3f95e725	1.1711165
229	0xbf8abd54	-1.0839028
230	0x3d2dcf89	0.04243425
231	0xbdf7b289	-0.120946
232	0x3edfd773	0.43719062
233	0x3e911a85	0.28340545
234	0xbeb1d562	-0.3473311
235	0x3e4ed4a5	0.20198305
236	0x3d009842	0.031395204
237	0xbeb7cecc	-0.3589996
238	0x3a3e0be2	0.00072496955
239	0x3e6f4dd0	0.23369527
240	0xbf815161	-1.010296
241	0x3f10f0be	0.56617343
242	0x40014400	2.0197754
243	0x3f0a5d38	0.5404849
244	0x3ee9bbba	0.45651037
245	0xbeaa0c31	-0.33212426
246	0x3ea9a0dd	0.3313054
247	0x3f3b02ab	0.73050946
248	0xbd1634d4	-0.036671475
249	0x3f822439	1.0167304
250	0xbe20fc19	-0.15721168
251	0x3e6d44b8	0.23170745
252	0xbe55b27d	-0.20868869
253	0xbd890ac0	-0.066915035
254	0xbcb3b67a	-0.021937598
255	0x3f168bf5	0.5880731

rnn.bias_ih_l0 f4 [60]
0	0x3c03cc17	0.008044264
1	0x3dfb3f80	0.12267971
2	0x3f0a3a91	0.53995615
3	0xbe81d494	-0.25357497
4	0xbdf93465	-0.121681966
5	0x3f211c99	0.6293426
6	0x3eaeb4fe	0.3412246
7	0x3e79ed9e	0.2440705
8	0xbd8014fc	-0.062540025
9	0xbdc903cf	-0.098151796
10	0x3f0c1b89	0.54729515
11	0x3e853104	0.26013958
12	0xbe9b97c3	-0.30389223
13	0x3ed532c8	0.41640306
14	0x3ec73930	0.38910818
15	0xbe8ba8b0	-0.27277136
16	0x3de5c0bd	0.112184025
17	0xbd22d0de	-0.039749973
18	0xbee3f3b3	-0.44521865
19	0x3dab5b1a	0.083669856
20	0x3da0ac97	0.07845419
21	0x3edf73dc	0.4364308
22	0xbfab7bb9	-1.3397132
23	0x3e1e9d8a	0.15489784
24	0xbf26ff8b	-0.6523368
25	0xbe2ffda0	-0.17186594
26	0x3e574b8a	0.2102491
27	0x3e90eac8	0.28304124
28	0x3f1ba487	0.60797924
29	0x3f19600e	0.5991219
30	0xbe1defd1	-0.15423514
31	0x3f0bd366	0.54619443
32	0xbd2add65	-0.041715045
33	0xbcde29a5	-0.027119467
34	0x3ec5a6c4	0.38603795
35	0x3e7a3567	0.24434434
36	0xbe5cd891	-0.21566989
37	0xbceaa218	-0.028641745
38	0xbe39496d	-0.18094416
39	0x3b3bc248	0.0028649736
40	0xbead9af8	-0.33907294
41	0xbec58aeb	-0.38582548
42	0x3e62cbaa	0.22148004
43	0x3e9e4f9d	0.30920115
44	0x3ec9e15b	0.39429745
45	0x3ed329d7	0.4124286
46	0x3cc6a6bf	0.024249433
47	0x3fbe6862	1.4875605
48	0xbeb647fa	-0.3560179
49	0xbe1a36d9	-0.15059985
50	0xbec40bef	-0.38290355
51	0xbe33e5d6	-0.17568144
52	0xbc7f6a55	-0.015589316
53	0xbe0af5af	-0.13570283
54	0x3f128cd0	0.5724611
55	0x3e29915c	0.16559356
56	0xbe9cf68e	-0.30656856
57	0xbde6d7ed	-0.11271653
58	0xbee41d10	-0.44553423
59	0xbe4a6a08	-0.1976701

rnn.bias_hh_l0 f4 [60]
0	0xbea92327	-0.33034632
1	0xbe80880a	-0.2510379
2	0x3f65e6a5	0.8980506
3	0xbe3391a8	-0.17536032
4	0xbe35a9e6	-0.17740592
5	0x3e9890eb	0.29798064
6	0x3ee9d6fc	0.45671833
7	0xbe3758c8	-0.17904961
8	0xbda57e4c	-0.0808073
9	0x3e556136	0.20837864
10	0x3e60454d	0.21901436
11	0xbd85ce35	-0.065334715
12	0x3c542b57	0.012949786
13	0x3e31e9f1	0.17374398
14	0x3ee2559f	0.4420595
15	0xbebca9ba	-0.3684824
16	0x3ea70218	0.32618785
17	0xbe65d60e	-0.22444937
18	0xbe336b42	-0.17521384
19	0x3dd2d2e1	0.10294128
20	0x3daefd59	0.08544416
21	0x3e90e482	0.28299338
22	0xbfb85705	-1.4401556
23	0xbe7627a8	-0.24038565
24	0xbf4be534	-0.7964661
25	0x3e61cbd8	0.22050416
26	0x3e1a4ab4	0.1506756
27	0x3e8480eb	0.25879607
28	0x3f079dd3	0.52975196
29	0x3f1a173f	0.6019172
30	0x3df5bfef	0.11999499
31	0x3f225cfe	0.63423145
32	0x3eb569b0	0.35432196
33	0x3e8d1482	0.2755471
34	0x3e84bfbf	0.2592754
35	0x3e8f4940	0.27985573
36	0xbf133298	-0.57499075
37	0x3c930471	0.017946454
38	0xbe35abc8	-0.1774131
39	0x3d936cb6	0.07198469
40	0xbdd0620e	-0.101749524
41	0xbe0b1cb5	-0.1358517
42	0xbe310e1a	-0.17290536
43	0x3f18c5c0	0.5967674
44	0x3f0fac9d	0.5612276
45	0x3df6b520	0.120462656
46	0x3b3352cb	0.002736258
47	0x3fba78a7	1.456807
48	0xbebbbc95	-0.36667314
49	0xbea6a303	-0.32546243
50	0xbe982de0	-0.297225
51	0xbe8bc2ab	-0.27296957
52	0x3be5e4e0	0.0070158094
53	0xbeec3663	-0.46135244
54	0x3f232105	0.6372226
55	0xbdf31437	-0.1186909
56	0xbea789ac	-0.32722223
57	0x3de54bc9	0.111960955
58	0xbe0b146e	-0.13582012
59	0xbf18592f	-0.59511083

fc.weight f4 [4, 15]
0	0xbe024472	-0.12721422
1	0xbc321007	-0.010868079
2	0xbf37a70a	-0.71739256
3	0x3da308eb	0.07960685
4	0xbe261153	-0.16217546
5	0x3ec64fa9	0.3873265
6	0x3d08fb15	0.033442575
7	0xbd8ce6f7	-0.068799905
8	0xbe104cb7	-0.14091764
9	0x3d485a52	0.04891426
10	0x3e421cf7	0.18956362
11	0xbe334559	-0.17506923
12	0xbae01c11	-0.0017098208
13	0x3ec9cee7	0.39415666
14	0x3e2777f1	0.16354348
15	0xbddfb011	-0.10922254
16	0x3d1b9d7f	0.037991997
17	0x3e22e4e6	0.1590763
18	0x3ead603e	0.3386249
19	0x3d3ec48d	0.046574164
20	0xbe79f4d2	-0.24409798
21	0xbe41bfc6	-0.18920812
22	0xbe9cbd1a	-0.30613023
23	0x3e5469c8	0.20743477
24	0x3ee5faaf	0.4491782
25	0x3e599ba1	0.21250774
26	0xbf0108d0	-0.5040407
27	0xbef9daaf	-0.48799655
28	0x3dab920d	0.08377466
29	0x3ef83b1e	0.48482603
30	0xbe53bc36	-0.20677266
31	0x3e75671d	0.23965116
32	0xbe5e07e4	-0.21682698
33	0x3d1ae544	0.0378163
34	0xbe51b6e9	-0.20479931
35	0x3d762b00	0.0600996
36	0xbeee7de2	-0.46580416
37	0x3d6a414c	0.05719118
38	0xbe765189	-0.2405454
39	0xbcee449f	-0.029085455
40	0xbed936fa	-0.42424756
41	0xbe3402c3	-0.17579179
42	0x3e1f8a25	0.15580042
43	0x3d418cc1	0.047253374
44	0x3ea77458	0.3270595
45	0xbf758979	-0.9591289
46	0xbeba1f92	-0.3635221
47	0x3e01fc3f	0.1269388
48	0x3ed6082f	0.4180312
49	0xbe8c0cb5	-0.27353445
50	0x3ed672b7	0.41884395
51	0xbe1812b6	-0.14850888
52	0x3c97f79d	0.018550688
53	0x3f73678b	0.9507987
54	0xbe3e29a3	-0.1857057
55	0xbefd1a97	-0.4943435
56	0xbedf9b52	-0.43673187
57	0x3e52a3b2	0.20570257
58	0x3f045b8b	0.51702183
59	0x3e01004a	0.12597767

fc.bias f4 [4]
0	0x3e8c8f7a	0.27453214
1	0x3d76586d	0.060142923
2	0x3daaeb4c	0.083456606
3	0x3ec7c5a1	0.39017966
