checkpoints/model_weights.pth (torch_old, 6566 bytes, 6 tensors)

rnn.weight_ih_l0 f4 [60, 5]
00000000: 7418 84c0 eeb7 1dc0 f823 6340 82cc 33c0
00000010: 1899 cd3f bfa0 90bf 476f 7ebf 802d 773d
00000020: 9d17 0441 8c26 04c1 2182 00c0 e814 89c0
00000030: f4b2 b5bf 24d9 3dc0 d71d 35c0 3f51 dbbf
00000040: 69b8 cdbf c49a 09c0 5641 08c0 3b9a d5bf
00000050: ed5a c4bf 0b7d f2bf db9d ecbf 1f42 eebf
00000060: 77bb fcbf a263 18c1 35d2 8d3f 3048 de3e
00000070: 7c92 5dbf 6f9f 7b3e 70ac 2ac0 768b aac0
00000080: e9f5 bdbe be9b 1dc0 dc20 2dc0 694d f840
00000090: ac4c d23f ef2c 7640 c84f 4c40 a88d 9e3e
000000a0: 307f e440 82ec c83f 0e96 66be 63a1 cdc0
000000b0: 9474 2dbf db78 9940 a5ec 0440 15da cc3f
000000c0: 0ac3 343f f0cc febf 6491 22c0 d795 ddbf
000000d0: fd91 2bc0 6e86 09c0 acd9 bebf 37b8 7cc0
000000e0: 0f13 a0c0 d3f6 a3bf 1dcf 7cbf db9f 46c0
000000f0: 990f 503f 2570 8d3f e9e4 353f e243 503f
00000100: dcd0 573f 7f01 733f 5ec5 3f3f e0d4 363f
00000110: b395 443f 10f6 3b3f 6dfb dfbf 25ae 40c0
00000120: 3b74 babf 42fd 58c0 8c7f 3dc0 f4ca 1dc0
00000130: 8ea8 d7bf 3a6d f2bf d102 49c0 2729 0ac0
00000140: 532f 0bc0 608e 26c0 28fe fcbf 84c8 bdbf
00000150: 3274 0fc0 4f08 aabf bbd6 b3bf 27c9 babf
00000160: c13f 9bbf 9459 b0bf 8d64 87bf b4e0 4ebf
00000170: 7445 1ebf 7bb7 86bf 696c 34bf f261 9ebf
00000180: b0c7 a0bf 1df5 93bf 9f4d 92bf 663c 78bf
00000190: 5b4e 01c0 da07 29c0 8a06 20c0 a1c4 0dc0
000001a0: 7406 15c0 f6db 5dbf 79c4 2cbf 4410 84bf
000001b0: 575f 81bf a3a0 4abf d665 4bbf 4ca4 853f
000001c0: 5b18 3ac0 0a76 97bf cfb3 0fc1 e1f2 f2bf
000001d0: c0b8 65c0 3723 00c0 4421 07c0 0328 3fc0
000001e0: 3050 f1bf 343f 06c0 aefa fdbf 4701 03c0
000001f0: f3a0 04c0 2651 d6bf 0f6b f3bf 1754 babf
00000200: 8081 c0bf 4fb2 f1bf 2767 8fbf 231f a6bf
00000210: 9509 94bf 624e 8dbf 4669 a9bf 0702 f83e
00000220: a976 b13e a2d8 8e3e efd3 023f e9cd f93e
00000230: 4656 1e3f 2ff0 043f febb 493f bd04 333f
00000240: 62c8 403f 9d14 47bf 5823 4dbf 3f5e 3cbf
00000250: d3b6 1abf 9ad9 4ebf b22b 19c0 7100 89bf
00000260: 1971 b8bf 47da afbf b8cc f9bf e7f3 d3be
00000270: 9ac9 acbf 2fdd 26bf 493c 6ec0 0362 243e
00000280: 13ec 443f db6f 883f ca6b 7d3f 4620 573f
00000290: 9d9d 9d3f ea29 50bf eb9a 20bf d84e 76bf
000002a0: c622 4bbf a67e 5bbf 627d b5be 9b82 4f3e
000002b0: 0c68 a3bd a779 c7be f93d a4bd fa54 9dbf
000002c0: 4dee 20c0 1872 a63e a3fa d6bd 40d9 dbbf
000002d0: 49ef 773e 96c3 53bf ec26 753e c294 0abe
000002e0: 0a8f 18be f7f9 32c0 0ef6 f6bf 337a bdbf
000002f0: d5a3 04c0 1c88 5abf a756 1140 0f71 3b3f
00000300: 3f71 b43f f188 9040 3001 7e3f 359b 643f
00000310: c2e6 893f 5762 7a3f ec71 6b3f ab6d b13f
00000320: ecab 963f 1a62 ad3f 7a6f bc3f e6ef ad3f
00000330: 7cf3 ce3f f3dc 40bf 1090 17bf 3e89 09bf
00000340: 9588 22bf 7e06 f2be 7d73 86bf 7a72 4fbf
00000350: bceb 68bf fd73 54bf 64ca 95bf fe22 913f
00000360: 42a4 a53f 48cb 893f 7170 b93f 1639 853f
00000370: be9c d63e 0ed4 4d3f b87d 153f 0194 5a3f
00000380: d474 7a3f 4ebf 47bf 97c5 10bf 5ff3 893e
00000390: a587 b6c0 2c92 253f e322 06c0 b5af 56be
000003a0: f919 72be 3dbf 0540 89ed b2bf e8af aebf
000003b0: d021 51c0 0328 22bf 7505 06c0 4b6c c1bf
000003c0: bcdc 84bf ff4a 41c0 8181 86bf 5dfc a5bf
000003d0: cca5 41c0 9e10 a8bf 5ab4 c1bf e33d b5bf
000003e0: 6db6 aebf a68c d8bf 50a5 58c0 0483 20be
000003f0: eafc bbbc 4658 b9bc b5a3 a93d de9c f9bf
-4.127985 -2.4643512 3.5490704 -2.8093572 1.6062346 -1.1299056 -0.99388546 0.060346127
8.255765 -8.259411 -2.0079424 -4.283802 -1.4195237 -2.9663782 -2.8299463 -1.7134169
-1.6071903 -2.1500711 -2.1289878 -1.6687692 -1.5340248 -1.894441 -1.8485674 -1.8613929
-1.974471 -9.524324 1.1079775 0.4341445 -0.8655164 0.24572538 -2.6667747 -5.329524
-0.37101677 -2.4626307 -2.7051306 7.7594495 1.6429648 3.8464925 3.1923695 0.3096745
7.140526 1.5697176 -0.22518179 -6.4259505 -0.6775601 4.796003 2.0769436 1.6004053
0.70610106 -1.9906292 -2.540124 -1.7311352 -2.6807854 -2.14883 -1.4910178 -3.9487436
-5.0023265 -1.28097 -0.9875353 -3.1035068 0.812738 1.1049849 0.71052414 0.8135358
0.8430307 0.9492416 0.74910533 0.7141857 0.7679092 0.73422337 -1.7498604 -3.010629
-1.4566721 -3.3904576 -2.9609098 -2.4655123 -1.6848314 -1.8939583 -3.140797 -2.1587617
-2.1747634 -2.6024399 -1.9765062 -1.4826818 -2.241467 -1.3283786 -1.4049906 -1.4592637
-1.2128831 -1.3777337 -1.0577561 -0.8081162 -0.6182473 -1.0524744 -0.7047792 -1.237364
-1.256094 -1.1559178 -1.1429938 -0.9696716 -2.0204074 -2.6411042 -2.500399 -2.2151263
-2.3285189 -0.8666376 -0.67487293 -1.0317464 -1.010722 -0.7915136 -0.79452264 1.0440764
-2.9077365 -1.1832898 -8.981399 -1.8980371 -3.5894012 -2.0021493 -2.1114054 -2.9868171
-1.8852596 -2.0976076 -1.9842126 -2.046953 -2.0723236 -1.6743515 -1.9017047 -1.4556912
-1.503952 -1.888254 -1.1203355 -1.2978252 -1.1565424 -1.1039546 -1.3235252 0.48439047
0.34660843 0.27899653 0.51104635 0.4878991 0.6185039 0.5192899 0.7880248 0.69929105
0.7530576 -0.7776583 -0.80132055 -0.7358131 -0.6043522 -0.80800784 -2.393292 -1.070326
-1.4409515 -1.3738488 -1.95156 -0.4139702 -1.3499024 -0.6518125 -3.7224295 0.16053014
0.7692272 1.0659136 0.989926 0.8403362 1.2313725 -0.81313956 -0.62736386 -0.96214056
-0.79349935 -0.85740125 -0.35447222 0.20264666 -0.0797883 -0.3896 -0.08019633 -1.2291558
-2.5145447 0.32508922 -0.10497024 -1.7175674 0.24212374 -0.82720315 0.23940629 -0.13533309
-0.14898315 -2.7965066 -1.929384 -1.4802917 -2.0724995 -0.85363936 2.2709138 0.7321939
1.409706 4.5167165 0.9922056 0.8929933 1.0773547 0.97806305 0.91970706 1.3861593
1.1771216 1.3545563 1.472152 1.3588836 1.6168056 -0.7533714 -0.59204197 -0.5372504
-0.6348966 -0.47270578 -1.0503994 -0.8103405 -0.909847 -0.82989484 -1.170239 1.1338804
1.2940753 1.0765162 1.4487439 1.0408046 0.4191646 0.80401695 0.58394957 0.85382086
0.97834516 -0.7802628 -0.565515 0.2694349 -5.704058 0.64676166 -2.0958793 -0.20965464
-0.2364272 2.0897973 -1.397874 -1.3647432 -3.2676888 -0.63342303 -2.094083 -1.5111173
-1.0379863 -3.0202024 -1.0508271 -1.296764 -3.0257444 -1.3130071 -1.5133164 -1.4159511
-1.3649422 -1.6917922 -3.3850899 -0.15674978 -0.022947747 -0.0226251 0.08283178 -1.9500997

rnn.weight_hh_l0 f4 [60, 15]
00000000: 09c4 b8c0 f0cf 70c0 8a3d 2e3f 6a1b 9b3f
00000010: 325a b0bf 8589 9bc1 2d2e 993f 3de4 89bf
00000020: b79a 08bf 97de d3c0 ea64 b5bf da32 9040
00000030: 2f2d a1c0 6f60 43c0 098b 6f3f 7a14 6841
00000040: 007c b740 8721 a9bf 551a 56bf 9cc2 ee3e
00000050: 2273 4241 ff44 3cbf 10f6 cfbf 34f6 8040
00000060: d8aa c340 80a7 5abf bf4b 59c0 3850 1741
00000070: 9949 88c0 67a5 96bf 2c62 5040 82d4 743f
00000080: 8bdd edbf 6e8e 283e 40be eabe 54fe 0e3f
00000090: ef04 afbe 03fd 943f 9b94 eabf e199 4abf
000000a0: 6caa 0240 d86a 053f 2b0a 7a40 18d0 77c0
000000b0: c7e1 87bf 4d89 5840 ed94 493f 9984 48bf
000000c0: 8700 3fbf e6ae 0b40 b3d1 3b40 637f 6cbf
000000d0: 73bf e53f 7ede 41bf d3e0 ff3d 2cc9 5540
000000e0: 2187 a5bf 52eb 6040 60c7 60c0 87b4 54bf
000000f0: 7a4e bb3f 0ad8 4a3f baac 9bbf 49cb febe
00000100: a441 1fbe b936 0140 25db 12bf 0463 0240
00000110: 2acc 9fbf b072 26bf f9ea f43f 15e4 93bf
00000120: eebe 2540 bbba 02c0 7050 a4bf 73da 33c0
00000130: 6ac3 36c1 9e24 d23e ec7b c03f cc18 dbbf
00000140: d96a 15bf a315 e33f 0d7f c0bf e8c7 ee40
00000150: 427a 4bbc 6b35 02c0 1105 d6bf 145d 0441
00000160: dd4c 8bc0 47b1 28be d122 3a40 1292 b63f
00000170: 6ea8 4abf 5f69 25bf ad0d 373f 820d 6e40
00000180: 4258 5bbf 201a ef3f 83bd 51c0 e591 a73d
00000190: 9048 2540 15cd cebf 982f 4440 3584 30c0
000001a0: edba 86bf a8de 533f 0a3f e5bf 2726 383e
000001b0: 23e4 80bf a9b7 b63f 737b 8640 c88f 64bf
000001c0: e600 f5bf bc75 6a40 9fad 3340 1943 653f
000001d0: 4c8e 77c0 9d43 fa3d f2ec f63e 4d9d 09bf
000001e0: 6e5e a341 6ff1 04c1 539e 60bf 5742 44bf
000001f0: 95d4 943f 2439 6a41 beb6 89be 910d 58bf
00000200: fc5d 1a41 fd21 aa40 a877 eec0 5b39 2b3c
00000210: d887 eb40 2894 51c1 2b8f 2ebf 8534 c43f
00000220: 8746 20bf 6fcb d4bf f497 53bd 1a01 74bc
00000230: d572 1f41 0267 0cbf cfa0 1740 9eb8 8bbf
00000240: 521c 8ac0 aff7 1a3f e48b 18c0 88ab 4d3f
00000250: d968 7ebf 5b5a 94bf 6d60 f5be c90a 013e
00000260: 7187 f93e 436e 893f 3e71 ccbf d4bb c8c0
00000270: ef13 993f ea3f aa3f cdb1 cebf 7006 d6bf
00000280: a8c7 f0bf 0229 9740 3fae 06bf b994 3f3f
00000290: 815f 213f f273 b0bf d50f 8940 ba26 27bf
000002a0: b943 ab3f 23db 00c0 7c49 3440 f700 963f
000002b0: 79e3 7a40 19cd 99c0 2f2d e1be a784 13c0
000002c0: 1f92 9ebf b28e 02c0 ae76 bc3f 2373 46bf
000002d0: 04ff 2ec0 c804 86bf 19d6 8f3f c79d 583f
000002e0: 0946 57bf 2677 3ac0 78d3 2c3f 4da4 6fbf
000002f0: e633 8a3f b3e5 80bf 9071 22c0 8937 3c40
00000300: f78d 42c0 669e 3340 87dd 883f fd1e 35c0
00000310: 6634 5dbf 669b 763f f3ab 683f a79f 9cbf
00000320: 48c7 36c0 9a13 823f b34c 48bf 463e 5e3f
00000330: 009e 8bbf c6fc 1cc0 755b 4040 8ac2 2cc0
00000340: de3d 3c40 2259 7c3f 7302 8340 cf70 783f
00000350: 897a 8cbf d027 04bf b1fe 0e3e 1aef e63f
00000360: 7c20 4dbf 4556 9a3f c3a6 11c0 066c e6be
00000370: 3153 6140 49aa 97bf a4f0 8640 a2d6 93c0
00000380: d676 3cbf cb0e 43bf 03eb 2fbf 548f 023f
00000390: f7f7 9f3f c187 99bf 07bf adbf fba6 723f
000003a0: ee34 0e40 58ed 6fbe f395 01c0 bd77 8ebf
000003b0: 7dbc 6140 3016 c4bf 2464 9a3f faba 843f
000003c0: f3ff 4940 8b54 4f3f 4be0 ccbe 22d1 0abf
000003d0: 2b65 cb3e ef8a d540 6909 06bf 39e9 1640
000003e0: f543 97bf 5da6 bb3e 0428 3d40 7cd2 22c0
000003f0: 29dd 3340 8796 52c0 3a33 2dbf 3aa5 5140
-5.77393 -3.7626915 0.6806265 1.2117741 -1.3777525 -19.442148 1.1967217 -1.0772778
-0.53361076 -6.6209216 -1.4171422 4.5062075 -5.0367656 -3.0527608 0.93571526 14.504999
5.7338867 -1.3213357 -0.8363393 0.4663285 12.153109 -0.7354278 -1.6246967 4.030054
6.114605 -0.85411835 -3.3952482 9.457085 -4.258984 -1.1769227 3.255992 0.9563676
-1.8583235 0.16460583 -0.45848274 0.55856824 -0.34183452 1.1639713 -1.8326601 -0.7914105
2.0416517 0.52116156 3.9068706 -3.872076 -1.0615777 3.3833802 0.7874287 -0.7832733
-0.7461018 2.18255 2.934674 -0.92381877 1.7949051 -0.7573012 0.12494054 3.3404036
-1.2931863 3.5143628 -3.512169 -0.8308796 1.4633324 0.792359 -1.2162087 -0.4976447
-0.15552384 2.018965 -0.5736564 2.0372934 -1.2484181 -0.6501875 1.9134208 -1.155398
2.5897784 -2.0426471 -1.2837048 -2.810208 -11.4227085 0.41043562 1.5037818 -1.7116942
-0.5836616 1.7740978 -1.5038773 7.4619026 -0.012419285 -2.0345104 -1.6720296 8.272724
-4.3531327 -0.16473876 2.908375 1.4263327 -0.79163253 -0.6461391 0.7150524 3.7195745
-0.85681546 1.8679848 -3.2771919 0.08182124 2.5825539 -1.6156336 3.065405 -2.7580693
-1.0525795 0.8276162 -1.7909863 0.17983304 -1.0069622 1.4274799 4.2025695 -0.8928189
-1.9140899 3.663436 2.807472 0.8955551 -3.86806 0.122199275 0.4822765 -0.53755647
20.421108 -8.308944 -0.87741584 -0.76663727 1.1627375 14.63895 -0.26897234 -0.843957
9.647945 5.316649 -7.4521065 0.010450686 7.3603325 -13.098671 -0.68187207 1.5328528
-0.62607616 -1.6624583 -0.051658586 -0.014892841 9.965535 -0.5484468 2.36919 -1.0915716
-4.315957 0.60534185 -2.3835382 0.8033986 -0.99378735 -1.1590074 -0.4792513 0.1260177
0.48736146 1.0736774 -1.5972059 -6.272928 1.1959208 1.3300755 -1.614801 -1.6720715
-1.881093 4.723756 -0.5260963 0.7483631 0.6303635 -1.3785384 4.2831826 -0.6529347
1.3380042 -2.013375 2.8169851 1.1719044 3.9201338 -4.8062863 -0.43979785 -2.3049715
-1.2388343 -2.0399594 1.4723718 -0.77519435 -2.734315 -1.0470209 1.1237212 0.8461575
-0.8409124 -2.9135222 0.67510176 -0.9361008 1.0797088 -1.0070099 -2.5381813 2.9408896
-3.0399148 2.8065429 1.0692605 -2.8300164 -0.8640808 0.9633087 0.90887374 -1.2236222
-2.8559132 1.0162232 -0.78242034 0.8681377 -1.0907593 -2.452928 3.005582 -2.6993737
2.941276 0.98573506 4.094049 0.9704713 -1.0974895 -0.5162325 0.13964345 1.8041718
-0.8012769 1.2057577 -2.2758033 -0.4500429 3.5207026 -1.1848842 4.216875 -4.6199503
-0.7361883 -0.7619445 -0.68717974 0.5099995 1.2497548 -1.1994554 -1.3573922 0.9478604
2.2219806 -0.23430383 -2.0247772 -1.1130291 3.5271294 -1.5319271 1.206181 1.0369561
3.156247 0.8098838 -0.40014872 -0.5422536 0.39725623 6.6732097 -0.5235811 2.3579848
-1.1817614 0.36650363 2.9555674 -2.544097 2.8103735 -3.2904375 -0.6765629 3.2757096

rnn.bias_ih_l0 f4 [60]
00000000: 326c 313d 1d33 9a3f 45fc a3bf 2554 04c0
00000010: 4fd6 c1bf a5a2 1440 4db3 0cc0 e44c 1e40
00000020: 532d 443f a7f7 353e 8df5 05c0 43ec aebf
00000030: bf3b 6f3f a5bf 423f 48d3 e9bf 9500 63c0
00000040: 223b 32c0 689d c9bf 3dbb 17bf 5b4d abbf
00000050: 5414 3cc0 80fd 88bf bc65 e4bf 0e7e 3ac0
00000060: fe8f 17c0 8a80 f2bf 2e33 a6bf dd7c 1a3f
00000070: 8909 503f 8f86 6abf a00d 2abf a06e edbf
00000080: 81dc 7e3f b562 4dbf 7663 d0be c20e 85bf
00000090: fc97 debe d0b8 eabf be8e 0340 4e44 2c3f
000000a0: 1d22 d03f ec8d 74bf 3dec 8abf 8015 a73f
000000b0: b466 f23e c7e6 eabf 6e33 52bf 96b3 b0be
000000c0: bbb8 a2bf d567 e2bf c8c6 d43e 373d cebf
000000d0: 2758 2340 5762 b8be e17a 25c0 a008 3cc0
000000e0: 155f c0bf 8506 06c0 438f ccbf 5ede b2bf
0.043316074 1.2046849 -1.2811362 -2.0676358 -1.5143527 2.322427 -2.1984437 2.473443
0.7663166 0.17770253 -2.0931122 -1.3665851 0.9345054 0.76073676 -1.8267603 -3.5469105
-2.7848592 -1.5751162 -0.5927008 -1.3382982 -2.9387407 -1.0702362 -1.7843547 -2.9139438
-2.3681636 -1.8945477 -1.2984369 0.60346776 0.8126455 -0.9161157 -0.6642704 -1.8549385
0.9955521 -0.8022874 -0.40700883 -1.0395129 -0.4347533 -1.833765 2.0555873 0.67291725
1.626041 -0.95529056 -1.0853344 1.3053436 0.4734398 -1.8351678 -0.82109725 -0.34512013
-1.2712625 -1.7687937 0.41557908 -1.6112431 2.5522554 -0.36012527 -2.585625 -2.9380264
-1.5029017 -2.094148 -1.598122 -1.3974111

rnn.bias_hh_l0 f4 [60]
00000000: 1fdc f43d 034c a73f a1f5 aabf 8f12 11c0
00000010: b514 dcbf 1387 2040 b787 09c0 6562 1f40
00000020: ee64 7e3f 96fa d43e d164 ecbf 289d e1bf
00000030: 31e4 253f 4220 3a3f 8bba 00c0 ad78 67c0
00000040: 1683 30c0 af1a 9dbf 748d 5bbf 9cb1 aabf
00000050: d0f7 23c0 7895 5bbf 9015 f7bf 5b87 23c0
00000060: c82b 0cc0 2192 d0bf 41b7 91bf 8bcc 823e
00000070: 5eef dc3e 444f 52bf abe6 30bf 4f20 ddbf
00000080: f376 943f e657 84bf 9dc3 edbd 8e01 afbf
00000090: c9a0 04bf 1352 e1bf 9b84 0040 19ae 553f
000000a0: 1d35 a03f 77e2 3abf 45cc 74bf 09ca 863f
000000b0: cc5c 643f 80bf f8bf f352 27bf 4a3d c7be
000000c0: 1a28 bcbf 251a c7bf 9ded 8e3e b596 ccbf
000000d0: f584 2640 1b06 eebe 20ad 26c0 0828 42c0
000000e0: f730 bcbf f630 13c0 19b0 cbbf f1bc 70bf
0.11956047 1.3070072 -1.335621 -2.2667577 -1.7193819 2.5082443 -2.1489084 2.4903805
0.99372756 0.41597432 -1.8468267 -1.7626085 0.6480132 0.7270547 -2.0113857 -3.6167405
-2.7580009 -1.2273768 -0.85762715 -1.3335452 -2.5620003 -0.85774946 -1.9303455 -2.5551364
-2.1901722 -1.6294595 -1.138405 0.2554668 0.43151373 -0.821522 -0.6910197 -1.7275485
1.15988 -1.0339324 -0.11609576 -1.367235 -0.5180784 -1.7603172 2.0080936 0.83468777
1.2516209 -0.7300181 -0.9562419 1.0530406 0.89204097 -1.9433441 -0.65360945 -0.38913947
-1.4699738 -1.5554854 0.2791566 -1.5983492 2.601865 -0.46489033 -2.6043167 -3.0336933
-1.4702443 -2.2998633 -1.5913116 -0.940383

fc.weight f4 [5, 15]
00000000: fcb9 d0bf 9f63 5e3f 7e39 d2bd df46 af3d
00000010: f26e fa3d 473a 5040 d2fe ce3e d5bf 503f
00000020: 4f6a 8dbf 0503 7940 8241 0c3f b10a 0dc0
00000030: c1c8 8dbf 9546 1840 b2d4 0ebf 094d 1d40
00000040: 251e 28c0 dd6d 95be d61a 1bbc 9338 e1bc
00000050: 9cff 56be 41a2 92bc 5c9d 713f 1f20 1d40
00000060: dafd 6040 35d6 783e 9d1e 553f c49f 2c40
00000070: 055e cbbe a71e fabe c664 1a3e a46d 6cbf
00000080: 3204 613f 7ded b53e 8ea8 c0bf f042 a13f
00000090: 7b50 6f3f b38c 7a3f d5d1 02c0 cbb3 91be
000000a0: 779f 33bf 2129 c33f 222c 1ec0 0ade de3e
000000b0: 3137 5a3f 5bad cc3d f6a3 9b3f 9268 cebf
000000c0: 95be 6f3e b9af 50be 96a4 803e 61bb c7bf
000000d0: 4934 853f e861 15c0 9358 17c0 cc1d a43f
000000e0: be64 6d3d abda 3bc0 6e98 c1c0 2874 07c0
000000f0: 31b3 87c0 f30d 8f40 187c 56bf 8ce7 b1be
00000100: b3fe f23c abb9 30bf af31 473e 7747 b63f
00000110: df5a 8f3f 1f14 37c0 652d 803f bc6e 55c0
00000120: dedd df3f 3363 3dc0 99b9 90bd
-1.6306758 0.8687076 -0.10264872 0.085584395 0.122281924 3.253557 0.40428787 0.8154271
-1.1048068 3.8908093 0.54787457 -2.2037776 -1.107689 2.379308 -0.557933 2.4578269
-2.6268399 -0.29185382 -0.009466847 -0.027492797 -0.20995945 -0.017899634 0.94380736 2.4550855
3.5154939 0.24300463 0.8324984 2.6972513 -0.3972017 -0.4885151 0.15077505 -0.923548
0.87897027 0.35532752 -1.5051439 1.2598553 0.9348218 0.9787094 -2.0440571 -0.28457484
-0.701652 1.5246927 -2.4714437 0.43528777 0.85240465 0.099940024 1.2159412 -1.6125662
0.23412545 -0.20379533 0.2512557 -1.5604059 1.0406581 -2.3341007 -2.3647811 1.2821593
0.057957403 -2.9352214 -6.049857 -2.1164646 -4.240624 4.470453 -0.837831 -0.3474697
0.029662466 -0.69033307 0.19452547 1.4240559 1.1199607 -2.860603 1.0013853 -3.3348837
1.7489583 -2.9591796 -0.0706665

fc.bias f4 [5]
00000000: 68ce c23f 7c17 823f 527f af3f d773 af3f
00000010: 9d98 c83f
1.521924 1.0163417 1.371073 1.3707227 1.5671574
