checkpoints/nonlinear_signals_model_weights0.pth (torch_old, 6261 bytes, 6 tensors)

rnn.weight_ih_l0 f4 [60, 4]
0	0x3f4266a4	0.7593787
1	0x3f0e63ec	0.5562122
2	0x3edc1fd4	0.42993033
3	0x3f3f9b7b	0.7484662
4	0xc055da9b	-3.3414676
5	0xbd1c054c	-0.03809099
6	0x3eae17fe	0.3400268
7	0x3e004776	0.1252726
8	0xbfa5ca80	-1.2952423
9	0xbe91101b	-0.283326
10	0x3e9263d8	0.285918
11	0x3e5b5fd5	0.21423276
12	0xbfde8739	-1.7385017
13	0xbf53ccab	-0.82734174
14	0xbda8a931	-0.08235396
15	0xbf860476	-1.0470111
16	0x40e82e58	7.255657
17	0x3eabb484	0.3353616
18	0xbf852454	-1.0401711
19	0x3f28665f	0.65781206
20	0xbf0409e7	-0.5157761
21	0x3dc7b4ed	0.09751306
22	0x3ecae747	0.39629576
23	0x3f7982be	0.9746512
24	0xbeca82f2	-0.39553028
25	0x3db581bb	0.08862635
26	0x3f832f1c	1.0248752
27	0xbdfb2864	-0.12263563
28	0xbefff652	-0.49992615
29	0xbfd4c142	-1.6621478
30	0xbefa5d34	-0.48899233
31	0xbf903d69	-1.1268741
32	0x3f274240	0.65335464
33	0x3ef5f7d8	0.48040652
34	0x3e71ab48	0.23600495
35	0x3f6dd8b8	0.9290881
36	0x403ca78f	2.947727
37	0xbe15497b	-0.14578812
38	0xbf0e62de	-0.5561961
39	0x3e00d782	0.1258221
40	0x3efdf0a5	0.4959766
41	0x3ea1e782	0.3162194
42	0x3efc10e8	0.49231648
43	0x3ef4c996	0.47810048
44	0x3f830df9	1.0238639
45	0x3e395f65	0.18102796
46	0xbf2eb32f	-0.6824216
47	0x3f875122	1.0571635
48	0x3e90e2cd	0.28298035
49	0x3f30c468	0.6904969
50	0x3ea7ab5f	0.32747933
51	0x3f3dba3f	0.74112314
52	0xbfb0bee1	-1.3808252
53	0x3f6fdaab	0.93693036
54	0x3dcd4a61	0.10023952
55	0x3e837007	0.25671408
56	0x3f31bc3d	0.69427854
57	0xbf357894	-0.7088711
58	0xbf151863	-0.58240336
59	0x3ef3d42c	0.47622812
60	0x3dc8d427	0.0980609
61	0x3edc3e5f	0.43016335
62	0x3ef4271e	0.47686094
63	0x3f533f78	0.8251872
64	0xbff031f7	-1.8765248
65	0xbf1e4d0c	-0.61836314
66	0xbf811ce1	-1.0086938
67	0xbfa79ff6	-1.3095691
68	0xbe2af5ff	-0.16695403
69	0xbe006b97	-0.12541042
70	0xbe45f7b9	-0.1933278
71	0xbe0fa555	-0.14027913
72	0xbf4c720f	-0.7986154
73	0xbf864c61	-1.0492059
74	0xbf83648a	-1.0265057
75	0xbf7bed6a	-0.9840914
76	0xbf23bb57	-0.6395773
77	0xbe21d84f	-0.15805171
78	0xbe725ed4	-0.23668987
79	0x3e10ab28	0.14127791
80	0xc00266c2	-2.0375218
81	0xbf1ddfa8	-0.616694
82	0xbf1bfe78	-0.60935163
83	0xbf80c850	-1.006113
84	0xbf253e98	-0.64548635
85	0xbf437078	-0.7634349
86	0x3e846374	0.25857127
87	0xbf1e139e	-0.61748683
88	0xbe23f5c3	-0.1601172
89	0xbfb821c9	-1.438531
90	0xbf540839	-0.82825047
91	0xbf66ffe1	-0.9023419
92	0x3df7c6f8	0.12098497
93	0x3f215a10	0.6302805
94	0x3eaca7dc	0.33721817
95	0x3f53ad26	0.8268608
96	0xbd1552b3	-0.03645582
97	0xbe2ca53d	-0.16859908
98	0xbf09822e	-0.53714263
99	0xbf82cde9	-1.0219089
100	0x3f243ecc	0.6415832
101	0x3e92f762	0.28704363
102	0x3eac8970	0.33698606
103	0x3f33d35e	0.70244396
104	0x3f92b3f0	1.1461163
105	0x3ef1fbb3	0.47262344
106	0xbf1ba8fa	-0.6080471
107	0x3fa5991c	1.293735
108	0x3df4525d	0.11929772
109	0x3edf662a	0.43632632
110	0x3ec506a4	0.3848163
111	0x3ec5146c	0.38492143
112	0xbe9c4630	-0.305223
113	0x3da74090	0.08166611
114	0x3dd3805b	0.10327216
115	0xbf42945a	-0.76007617
116	0x3ea61220	0.32435703
117	0xbfa417ef	-1.2819804
118	0xbfac283c	-1.3449779
119	0xbf5eaf8d	-0.8698662
120	0xbe476325	-0.19471414
121	0xbed77e63	-0.42088613
122	0xbef6476e	-0.48101372
123	0xbf18dbf3	-0.59710616
124	0xbfec80e6	-1.8476837
125	0xbe0d80b1	-0.13818623
126	0xbedbafaa	-0.4290746
127	0x3eea32e4	0.4574195
128	0x4025b991	2.589451
129	0x3e9d4176	0.30714005
130	0xbe398e59	-0.18120708
131	0x3f2ca3cb	0.6743743
132	0x3e9bf747	0.30462095
133	0x3efc1998	0.49238276
134	0xbed66ca2	-0.41879755
135	0x3f8e8826	1.1135299
136	0xbe77e126	-0.24206981
137	0x401fb224	2.4952478
138	0xbe657c8c	-0.22410792
139	0x3e328f6c	0.17437524
140	0xbff4d067	-1.9126099
141	0x3d2009a1	0.039071683
142	0x3f0cdc70	0.5502386
143	0x3f33d43e	0.7024573
144	0x3f8404c5	1.0313956
145	0x3e2ebc78	0.17064083
146	0xbf704ed4	-0.9387028
147	0x3e46f940	0.19431019
148	0xbf8c3b6e	-1.0955637
149	0x3eb09400	0.34487915
150	0x3c071671	0.008245097
151	0x3f3c79b0	0.7362318
152	0x3f268d37	0.65059227
153	0x3f256189	0.6460195
154	0x3f0dc42d	0.55377465
155	0x3f65c97e	0.8976058
156	0x3fa0f362	1.2574275
157	0x3e0d6713	0.13808851
158	0xbed7cf41	-0.4215031
159	0xbf73572a	-0.95054877
160	0x3dd231c7	0.102634005
161	0x3e6bcf44	0.23028284
162	0x3edce3ad	0.43142453
163	0x3e40c808	0.18826306
164	0xbfa6c28d	-1.3028122
165	0xbe2c13c8	-0.16804421
166	0x3ec9d534	0.39420474
167	0xbf89d869	-1.0769168
168	0x3ec58a94	0.3858229
169	0x3e8b0585	0.2715265
170	0x3e98a519	0.2981346
171	0x3f22468a	0.63388884
172	0xbf942025	-1.157231
173	0x3ee0b262	0.43886095
174	0x3e5e4a38	0.21708
175	0xbdf0fa17	-0.11766451
176	0xbf931a4b	-1.1492399
177	0x3eb8fb72	0.36129338
178	0x3ef6cb42	0.48201948
179	0xbf2d8c2a	-0.67792
180	0x3f01ed20	0.5075245
181	0xbf0b646f	-0.54450125
182	0xbed07773	-0.40716133
183	0xbfd9fdd3	-1.7030586
184	0xc04aca2d	-3.1685898
185	0xbdeba590	-0.11506188
186	0x3f0f2a81	0.5592423
187	0x3e03fc86	0.12889299
188	0xbff7f5fb	-1.9371942
189	0xbf8438e0	-1.0329857
190	0x3ed2dd3b	0.4118441
191	0x3e94885a	0.29010278
192	0xbfdce61e	-1.7257726
193	0xbf5283f4	-0.82232594
194	0xbe229b94	-0.15879661
195	0xbf7dec9a	-0.9918915
196	0x4074fe0f	3.8280065
197	0x3ec61ff2	0.38696247
198	0xbf281d53	-0.65669745
199	0x3ebcb6f9	0.36858347
200	0xbf857fbc	-1.0429606
201	0x3de92564	0.11384085
202	0x3ec2ead7	0.38069794
203	0x3ef308de	0.47467703
204	0x3e5a4246	0.21314344
205	0x3d8fb8e4	0.07017687
206	0x3f68f6e5	0.9100173
207	0xbf6f3d6a	-0.93453085
208	0xbf3d3499	-0.7390838
209	0xbff2c539	-1.8966438
210	0xbed1e676	-0.4099614
211	0xbf9698a1	-1.1765329
212	0x3d909325	0.070593156
213	0xbe62c4ca	-0.22145382
214	0xbf705459	-0.93878704
215	0x3f7ae17a	0.980003
216	0x4089dca0	4.308182
217	0xbe84e0d5	-0.25952783
218	0xbf20901f	-0.6271991
219	0xbd63d868	-0.055626303
220	0xbfb3f117	-1.405795
221	0xbf0037f5	-0.50085384
222	0x3f4bde9b	0.79636544
223	0x3f01fd9d	0.5077761
224	0x3facc77a	1.3498375
225	0xbc8a174e	-0.016856816
226	0xbf351e91	-0.70749766
227	0x3f883b9f	1.0643195
228	0xbf09f72f	-0.538928
229	0xbeefa1ed	-0.46803227
230	0xbfa64116	-1.2988613
231	0xbe6b28f3	-0.2296484
232	0xbf5a23a3	-0.8521063
233	0x3e7e607c	0.24841493
234	0x3f294596	0.66121805
235	0xbbcd5408	-0.006266121
236	0x3f626ceb	0.88447446
237	0xbee4689e	-0.44611067
238	0xbf4e26c8	-0.80527925
239	0x3e46070d	0.19338627

rnn.weight_hh_l0 f4 [60, 15]
0	0xbeba48d3	-0.36383685
1	0x3eed27f8	0.46319556
2	0x3e321132	0.17389372
3	0x3e80aa04	0.25129712
4	0xbe809afa	-0.25118238
5	0x3dd0140c	0.10160074
6	0xbd206027	-0.039154198
7	0x3e4adfb2	0.19811895
8	0x3e2d9d1a	0.1695446
9	0xbeb47dcb	-0.35252222
10	0x3ec33be6	0.38131636
11	0xbf21f2b9	-0.6326099
12	0x3ef85875	0.48504987
13	0x3df1f907	0.11815076
14	0x3df7896f	0.1208676
15	0x3f32723d	0.69705564
16	0xbfc1d10d	-1.5141922
17	0x3f540b29	0.8282953
18	0xbe1156ca	-0.14193264
19	0xbca74716	-0.020419639
20	0xbf8e7292	-1.1128714
21	0x3f1168ed	0.5680073
22	0xbed5d405	-0.4176332
23	0x3d527d14	0.051388815
24	0xbe222328	-0.15833724
25	0xbf3ca11b	-0.7368333
26	0xbe361f42	-0.17785361
27	0xbf109ef3	-0.5649254
28	0x3e0e0042	0.13867286
29	0xbf62e3e3	-0.8862898
30	0xbe8cff80	-0.2753868
31	0xbcf250b7	-0.029579503
32	0x3d62da28	0.05538383
33	0xbe9cd0bc	-0.30628002
34	0x3e392beb	0.1808316
35	0xbee995e2	-0.45622164
36	0x3e65d99a	0.2244629
37	0xbe99270b	-0.299126
38	0x3f3586d9	0.70908886
39	0x3dcec019	0.100952335
40	0x3d4f79e0	0.05065334
41	0xbeb65c05	-0.3561708
42	0x3f0a3881	0.5399247
43	0x3e512a16	0.20426211
44	0xbf974403	-1.181763
45	0x3eee1776	0.46502274
46	0xbde01859	-0.10942144
47	0xbf380f51	-0.7189837
48	0x3eb37df8	0.35057044
49	0x3e857e79	0.26073053
50	0xbe472025	-0.19445856
51	0xbda76a75	-0.08174602
52	0x3ef8ee55	0.48619333
53	0xbed40503	-0.41410074
54	0x3db79f04	0.08965877
55	0xbe925437	-0.28579876
56	0x3f087b9e	0.53313625
57	0xbe06365e	-0.13106677
58	0xbeaf3d80	-0.34226608
59	0x3f0fc20a	0.56155455
60	0x3b303f46	0.0026893183
61	0x3f4e2f9d	0.805414
62	0xbebf2d59	-0.37339285
63	0x3fab4666	1.3380859
64	0x3f3f6506	0.74763525
65	0xbfe7bb31	-1.8104001
66	0x3f020b85	0.5079883
67	0x3f9f9d17	1.2469815
68	0x3e9ca639	0.30595568
69	0x4010f464	2.2649164
70	0xbf1067ed	-0.5640858
71	0xbea4723f	-0.32118413
72	0xbe84c3c6	-0.25930613
73	0xbf855215	-1.0415674
74	0x3f973abe	1.1814802
75	0xbf8b7b95	-1.0897089
76	0x3ed264ff	0.4109268
77	0xbde9a175	-0.114077486
78	0xbd4d4811	-0.050117556
79	0xbf29d75c	-0.6634424
80	0xbf2d55fd	-0.6770933
81	0xbf17fd5a	-0.5937096
82	0xbc1040c4	-0.008804504
83	0x3f3d7421	0.74005324
84	0x3e8779a4	0.26459992
85	0x3e589537	0.21150671
86	0xbe7fd168	-0.24982226
87	0x3ec18f1b	0.37804493
88	0xbef1be9e	-0.47215742
89	0xbf00e709	-0.5035253
90	0x3eef76bf	0.46770284
91	0x3fb1eff8	1.3901358
92	0xbd10d852	-0.03536255
93	0x3dc5e93d	0.09663627
94	0xbd9b2e2b	-0.07577165
95	0x3e3122e4	0.17298466
96	0x3ed89f1d	0.42308894
97	0xbd960644	-0.07325414
98	0xbe948c68	-0.2901337
99	0x3d8925fa	0.066966966
100	0xbe431a3e	-0.1905298
101	0xbe8ec654	-0.27885687
102	0xbcea62d0	-0.02861157
103	0xbe108a28	-0.14115202
104	0xbdb81803	-0.08988955
105	0x3ebda903	0.37043008
106	0x3e97f181	0.2967644
107	0xbfb46e3d	-1.4096142
108	0x3eac9eeb	0.33714995
109	0xbe88e983	-0.26740655
110	0xbe72c768	-0.2370888
111	0x3e75a7ad	0.23989744
112	0x3e94117d	0.28919592
113	0xbee22167	-0.4416611
114	0x3f4f718f	0.8103265
115	0xbf17517c	-0.5910871
116	0x3f149be6	0.5805038
117	0xbe84f926	-0.25971335
118	0xbf44ae92	-0.76828873
119	0xbda68306	-0.081304595
120	0xbe8a3780	-0.26995468
121	0x3f43ecbb	0.765331
122	0x3e947d34	0.29001772
123	0x3e123b42	0.14280418
124	0xbe8a1e91	-0.26976445
125	0xbed348f8	-0.41266608
126	0xbef5c241	-0.47999766
127	0x3ecaa147	0.3957617
128	0x3e3977d2	0.18112114
129	0x3c49bd77	0.012313238
130	0x3f26fa00	0.6522522
131	0xbe1521c4	-0.14563662
132	0x3eaccada	0.33748513
133	0x3e74b2aa	0.2389628
134	0x3ea49e0b	0.32151827
135	0x3f072063	0.52783793
136	0x3ec39916	0.38202733
137	0x3efe13b9	0.49624422
138	0x3dc7553b	0.09733053
139	0x3e73c784	0.23806578
140	0x3f965e27	1.1747483
141	0xbf1be7e8	-0.60900736
142	0xbf02d4a4	-0.51105714
143	0x3e45f074	0.19330007
144	0xbfd76778	-1.6828451
145	0x3f23f2e4	0.64042497
146	0xbf206ab1	-0.626628
147	0x3e8d4c17	0.27597114
148	0x3f1f2baf	0.6217603
149	0xbe947cc1	-0.2900143
150	0xbe4c7a46	-0.19968519
151	0x3e4b7425	0.19868524
152	0xbe467ad4	-0.19382793
153	0x3db1cc73	0.08681574
154	0x3ed092c2	0.40736967
155	0xbb8642a9	-0.004097302
156	0xbe5c9f8e	-0.2154524
157	0x3e043a35	0.12912829
158	0x3eb0150a	0.34391052
159	0xbe1b3bbd	-0.15159507
160	0x3e69f1d5	0.22846158
161	0xbe44393d	-0.1916246
162	0x3eea9f3f	0.4582462
163	0xbeb4b964	-0.35297692
164	0x3d95ac90	0.07308304
165	0x3eaa17d6	0.3322131
166	0x3e361265	0.17780454
167	0xbf4a7084	-0.79077935
168	0x3e2fe33d	0.17176528
169	0x3f025bf8	0.50921583
170	0xbe042f61	-0.12908699
171	0x3eee07db	0.46490368
172	0x3f57559c	0.84115005
173	0xbdd3e537	-0.10346454
174	0xbfed0ddb	-1.8519853
175	0xbdb41794	-0.0879356
176	0x3df30dbb	0.11867853
177	0xbd37b63b	-0.044851523
178	0xbeb10c8a	-0.3457988
179	0x3d65eb5f	0.05613267
180	0xbf02e270	-0.51126766
181	0x3f2f7d0f	0.685502
182	0x3e469d4e	0.19395944
183	0x3dbc7ba5	0.09203271
184	0xbe7c7f5b	-0.24657957
185	0xbee0be4c	-0.43895185
186	0xbf16912f	-0.5881528
187	0x3e228ca3	0.15873961
188	0x3e2d8820	0.16946459
189	0xbe7ceeb5	-0.24700435
190	0x3f15c581	0.5850449
191	0xbf20620b	-0.626496
192	0x3ed2d16f	0.4117541
193	0xbd61741e	-0.05504238
194	0x3df9a5b3	0.12189808
195	0x3e7bdd85	0.24596222
196	0x3f0576c2	0.52134335
197	0x3e20a769	0.15688862
198	0xbe4eccdc	-0.20195335
199	0x3f82de0b	1.0224012
200	0x40046b4d	2.0690491
201	0x3a574f56	0.0008213421
202	0xbe62a7cd	-0.22134323
203	0xbe0cba7f	-0.13743018
204	0xbf8d4a4b	-1.1038297
205	0x3d168a74	0.036753133
206	0xbf2bfe50	-0.67184925
207	0xbdbfd228	-0.09366256
208	0xbe9a9f67	-0.3019974
209	0xbf26250f	-0.64900297
210	0xbeb190c2	-0.34680754
211	0xbe850aab	-0.25984702
212	0x3e6733f6	0.22578415
213	0xbeb3805f	-0.35058877
214	0xbf14ba13	-0.58096427
215	0xbf32e682	-0.69882977
216	0x3e0416d0	0.12899327
217	0xbeefd841	-0.46844676
218	0x3d988d7a	0.074488595
219	0x3f90d668	1.1315432
220	0xbef07dbc	-0.46970928
221	0xbdabf43d	-0.08396194
222	0xbdfc4099	-0.123170085
223	0xbea0256b	-0.31278548
224	0x3f2e6cb2	0.68134606
225	0x3de88a25	0.11354474
226	0x3f2ce030	0.6752958
227	0x3d14e264	0.036348715
228	0x3eb0edff	0.34556577
229	0xbf0c9dc3	-0.54928225
230	0x3f2ceb5d	0.67546636
231	0xbda63521	-0.08115602
232	0x3f19f2ae	0.60135925
233	0x3d7eebfc	0.06223677
234	0x3d52be81	0.05145121
235	0x3efa70f9	0.48914316
236	0xbebf4444	-0.3735677
237	0x3dded269	0.10879976
238	0xbe47dfe0	-0.19518995
239	0x3c9f1e96	0.019423764
240	0x3fc20624	1.5158124
241	0x3f87250a	1.0558178
242	0xbfe42ec3	-1.782677
243	0x3ee6c9ba	0.4507578
244	0xbfb4cfad	-1.4125878
245	0x3f4bea61	0.7965451
246	0x3f2d7d94	0.6776974
247	0x3d8b1737	0.06791537
248	0xbfaf72f6	-1.3706958
249	0xbd808e69	-0.062771626
250	0xbf8aeaed	-1.0852944
251	0x3fe28319	1.7696258
252	0xbf62a685	-0.8853534
253	0xbf68e057	-0.90967315
254	0x3eeaa336	0.45827645
255	0x3e6509d9	0.22367038

rnn.bias_ih_l0 f4 [60]
0	0x3f1bf078	0.609138
1	0xbe9e84f9	-0.30960825
2	0x3e1665bd	0.14687248
3	0xbf062659	-0.52402264
4	0x3e8cb62b	0.27482733
5	0x3f166d17	0.5876021
6	0x3e4c6d1a	0.19963494
7	0xbea4b75a	-0.32171136
8	0x3f41f133	0.75758666
9	0xbdc11552	-0.09427895
10	0x3e9e934f	0.30971763
11	0xbe333b8c	-0.17503184
12	0x3ef32570	0.474895
13	0x3d94ae19	0.07259769
14	0x3eaee8a3	0.34161863
15	0x3f039fd8	0.5141578
16	0xbf952dba	-1.165458
17	0xbe9b0b07	-0.3028185
18	0xbfc79886	-1.5593421
19	0xbe5a42d7	-0.2131456
20	0xbf74267e	-0.95371234
21	0xbe835c07	-0.2565615
22	0xbf354db0	-0.70821667
23	0x3efecca4	0.49765503
24	0xbeab0c8e	-0.33408016
25	0x3f19a453	0.60016364
26	0xbdf79836	-0.12089579
27	0x3ed9d9ae	0.4254889
28	0x3dbe968e	0.0930606
29	0xbf4b0a10	-0.7931223
30	0xbf050786	-0.51964605
31	0x3e5b1151	0.21393324
32	0xbe48b0bc	-0.19598669
33	0xbd8e0d21	-0.06936098
34	0xbec6ad1a	-0.3880394
35	0xbd80b029	-0.062836
36	0xbdf787c5	-0.12086443
37	0xbecd6047	-0.40112516
38	0x3e965911	0.29364827
39	0xbdff4432	-0.12464179
40	0x3f0534d5	0.5203374
41	0xbe83e085	-0.25757232
42	0x3f3b526d	0.73172647
43	0xbd6cd080	-0.05781603
44	0xbe786dba	-0.24260607
45	0xbf45f2f5	-0.7732385
46	0xbca4bee6	-0.020110559
47	0xbf0c019c	-0.54689956
48	0xbec7fb43	-0.39058885
49	0x3e020ed9	0.12700976
50	0x3e08ff3e	0.13378617
51	0x3bbb9d60	0.0057255477
52	0xbe69457c	-0.22780412
53	0xbeb95bfe	-0.36202997
54	0xbe039534	-0.12849885
55	0xbe9a9cf2	-0.30197865
56	0xbeb5a5b2	-0.35477978
57	0xbf5893c0	-0.8460045
58	0xbde3ea4c	-0.11128673
59	0xbe85b564	-0.26114953

rnn.bias_hh_l0 f4 [60]
0	0x3f16d377	0.5891642
1	0x3e3883c3	0.18019013
2	0x3c835ae3	0.01603455
3	0xbebd1ba4	-0.3693515
4	0x3e9e0a71	0.3086734
5	0x3f15ac59	0.58466107
6	0x3c83df2f	0.016097633
7	0xbee406e6	-0.44536513
8	0x3ee1cd7b	0.44102082
9	0xbd743ef2	-0.05963034
10	0x3e8ee072	0.27905613
11	0xbe696452	-0.22792175
12	0x3f2731fd	0.6531065
13	0xbe32f7e4	-0.17477375
14	0x3e8db494	0.27676833
15	0x3e3e3441	0.18574621
16	0xbf90c7d4	-1.1310983
17	0xbe48c8c7	-0.1960784
18	0xbfabbe1a	-1.3417389
19	0xbe530a97	-0.20609508
20	0xbf5645d3	-0.83700293
21	0xbe9abc74	-0.30221903
22	0xbf850320	-1.0391579
23	0x3e5914d7	0.21199356
24	0xbeb2ddaf	-0.34934756
25	0x3f395d97	0.7240843
26	0xbd61b06c	-0.05509989
27	0x3e8d7bf8	0.27633643
28	0xbe4d1cbd	-0.20030494
29	0xbf56c2f6	-0.83891237
30	0xbf07dba4	-0.5306952
31	0x3e420116	0.18945727
32	0x3d930489	0.071785994
33	0xbd9f2452	-0.077705994
34	0xbe138828	-0.14407408
35	0xbe8b72b1	-0.2723594
36	0xbe1d2ee1	-0.15349914
37	0xbe508e08	-0.2036668
38	0x3f384c36	0.7199129
39	0xbe11d669	-0.14241947
40	0x3e251f8a	0.16125312
41	0xbe0296d5	-0.1275285
42	0x3f3110d8	0.69166327
43	0xbe2e640d	-0.17030354
44	0xbe00a113	-0.12561445
45	0xbf4f26c9	-0.80918556
46	0xbc801788	-0.01563622
47	0xbe817b0a	-0.25289184
48	0xbee9962d	-0.45622388
49	0x3e94dea7	0.2907612
50	0x3e4e9084	0.20172316
51	0xbea4dc39	-0.32199267
52	0xbf16a5ba	-0.5884663
53	0xbef20226	-0.47267264
54	0x3da778fa	0.08177371
55	0xbede9a7d	-0.4347724
56	0xbe96961f	-0.29411408
57	0xbf4f3e50	-0.80954456
58	0xbdb5570e	-0.08854495
59	0x3e1a1218	0.15045965

fc.weight f4 [4, 15]
0	0xbda2b8a6	-0.07945375
1	0x3f1ab021	0.60425
2	0x3dd932cf	0.10605394
3	0x3ec831e3	0.3910056
4	0x3ca68025	0.020324776
5	0xbda71e6c	-0.081600994
6	0x3e24ddc7	0.16100226
7	0x3e708565	0.23488386
8	0x3e4bc824	0.19900566
9	0x3f4d63bc	0.8023031
10	0xbd2b4b91	-0.041820113
11	0xbee74bb1	-0.45174935
12	0xbe0be0fb	-0.13660042
13	0xbe1cebb6	-0.15324292
14	0xbe0cf072	-0.13763598
15	0xbef700dd	-0.48242846
16	0x3eb4d279	0.35316828
17	0xbccd5271	-0.025063725
18	0xbd330202	-0.043703087
19	0x3ed45d3a	0.41477376
20	0xbe042293	-0.12903814
21	0xbe74289d	-0.23843618
22	0xbe4216b0	-0.18953967
23	0x3eac1855	0.33612314
24	0xbd12167f	-0.035665985
25	0x3e705ace	0.23472139
26	0xbda421c3	-0.08014252
27	0x3e9306b2	0.28716046
28	0xbd97aec4	-0.07406381
29	0xbd5fd3f9	-0.054645512
30	0xbdc47f70	-0.09594619
31	0xbf01ee38	-0.5075412
32	0x3e742011	0.23840357
33	0x3f271286	0.6526264
34	0x3d354b80	0.044261456
35	0x3c3b5f46	0.011436289
36	0xbee6d2f0	-0.45082808
37	0x3f036f11	0.5134135
38	0x3e467732	0.19381407
39	0xbf14d6b7	-0.5814013
40	0x3f17a4e5	0.59235984
41	0x3e2e1af5	0.17002471
42	0xbe337440	-0.17524815
43	0x3e551409	0.20808424
44	0x3e9815f2	0.29704243
45	0x3e5517e4	0.20809895
46	0x3e3df908	0.18552029
47	0xbd5a3e16	-0.053281866
48	0x3f0d64e4	0.5523207
49	0xbcb41487	-0.021982444
50	0x3dc42f55	0.0957934
51	0x3f0eae7d	0.55735
52	0x3e75b74a	0.239957
53	0x3f0b85da	0.54501116
54	0xbe019edd	-0.12658258
55	0xbe34fc43	-0.17674355
56	0xbed4ab2b	-0.4153684
57	0x3eaa05f2	0.3320766
58	0xbe34fb57	-0.17674004
59	0xbeb2a397	-0.34890434

fc.bias f4 [4]
0	0x3e012433	0.12611465
1	0x3e97c95a	0.29645807
2	0x3f155e87	0.5834736
3	0x3e8bf4a9	0.27335098
