checkpoints/nonlinear_signals_model_weights3.pth (torch_old, 6261 bytes, 6 tensors)

rnn.weight_ih_l0 f4 [60, 4]
000000 6f 25 b4 be 71 6c 89 3f b3 72 97 bd 98 db 33 3f
       -0.3518481 1.0736219 -0.07394924 0.7025695
000010 d2 01 25 3f c0 8a ed 3e b3 ba 46 3f 54 0d d6 3e
       0.644559 0.4639492 0.7762863 0.41807044
000020 e4 98 25 3e 9e 13 a0 3f 60 fa c4 3e cd df 53 be
       0.16171604 1.2505987 0.3847227 -0.20690842
000030 d4 e5 08 3f 21 7c ff bc 70 29 39 be 74 02 80 3f
       0.5347569 -0.031187119 -0.18082213 1.0000749
000040 f6 df bd 3e 4b ed b8 3e c6 d2 b1 3e 4c 5c 88 3e
       0.3708493 0.3611854 0.3473112 0.26632917
000050 70 ff 8d bf eb 7a 7a bd fa 4f 18 bf dc 6b 47 bf
       -1.1093578 -0.06115238 -0.59497035 -0.77898955
000060 6a ad 2f 3f 37 e6 a5 3f 3e 3c 75 3d d6 cc 59 be
       0.68623984 1.2960881 0.059871905 -0.21269545
000070 7a 67 07 3f b2 53 1b 3f c7 a4 99 bd 59 7c 21 3e
       0.5289227 0.60674584 -0.07502132 0.15770091
000080 28 63 70 bf f3 97 43 bf ea 79 13 bf a1 4f c4 bf
       -0.939013 -0.7640373 -0.576079 -1.5336801
000090 af ec a2 bf e6 23 8b 3e 8d 7c 27 bf f8 71 9e bd
       -1.272848 0.27175826 -0.65424424 -0.077365816
0000a0 25 8f ed be 0f fe eb 3e 15 45 a8 be ac 90 2d bd
       -0.46398273 0.4609227 -0.32865205 -0.042374298
0000b0 36 da bd 3e 26 3a 58 3f 29 82 d4 3e 20 ce c4 3e
       0.37080544 0.8446373 0.41505554 0.3843851
0000c0 f5 a2 3a 3e 51 a6 84 bf b4 bb 0f 3e 34 9e 9a be
       0.18226226 -1.0363256 0.14036447 -0.30198824
0000d0 17 26 c3 3e c9 db d4 be c7 2f 32 be 9d ff c5 3d
       0.38114998 -0.41573933 -0.17401038 0.09667895
0000e0 59 9b b7 be b2 e1 fe be 7a ca 27 bf 84 71 41 bf
       -0.35860708 -0.49781567 -0.6554333 -0.75563836
0000f0 20 dc 34 be 20 30 68 3f 98 1e 9d b9 53 5a 17 3f
       -0.17662096 0.9069843 -0.00029968168 0.591222
000100 49 56 af be f0 14 d5 3d 15 7c 43 bf aa c5 d3 be
       -0.34245518 0.10404384 -0.7636121 -0.41361743
000110 b2 68 86 be 6b 7f 2f bf 32 bf 9b be b6 00 72 3d
       -0.2625175 -0.685538 -0.30419308 0.05908271
000120 91 0a 28 bf 12 4b c4 be 98 fc 50 bf f3 6a ed be
       -0.65641123 -0.38338524 -0.8163543 -0.46370658
000130 74 b3 44 3f 13 39 a9 3e db 7f e7 3e 83 32 0f 3f
       0.76836324 0.33051357 0.45214733 0.5593645
000140 97 61 90 bf db 3c 07 3d 8c 27 bf be 65 f3 2f bf
       -1.1279782 0.03301702 -0.3733486 -0.68730766
000150 93 ed 03 3f 1f 90 bf 3e 2e d0 80 bd ad ed 23 3e
       0.51534384 0.37414643 -0.06289707 0.16008635
000160 16 93 8e bf 25 68 5d be d7 a6 54 bf 93 12 13 bd
       -1.1138637 -0.21621759 -0.8306708 -0.035906386
000170 28 73 62 bf 40 98 ac be eb cb 36 bf 82 b9 a7 bf
       -0.88456964 -0.33709908 -0.71404904 -1.3103487
000180 f6 f4 43 bf 2f 8a 0d bf 44 60 c5 be f7 d2 e0 be
       -0.76545656 -0.55288976 -0.38550007 -0.43910953
000190 43 2a a3 3d a7 93 0d bf 93 cc 41 3e 64 a3 76 bf
       0.07967045 -0.55303425 0.18925695 -0.96343064
0001a0 03 41 14 3f 1d d5 04 3f 58 cd cf 3e 4e ba c7 3c
       0.579117 0.51887685 0.40586352 0.02438083
0001b0 49 ff 19 bf 9f 3c 40 bf 15 b8 a6 bd 47 7b 5c 3e
       -0.6015516 -0.750925 -0.081405796 0.21531402
0001c0 5b 5b d3 3e 12 f6 03 3f 77 45 3b 3c f1 d3 1b 3e
       0.41280636 0.5154735 0.011430136 0.15217568
0001d0 3c 24 bd be 03 a9 27 be 5f 23 16 bf d1 4d df be
       -0.36941707 -0.16373067 -0.5864772 -0.43614057
0001e0 69 13 c6 3d 6f 1d 27 bf 10 3e 9d bd 8f 36 81 bf
       0.09671671 -0.6527929 -0.07677853 -1.0094775
0001f0 86 47 bf 3f e9 3a fb 3d f4 7e 32 3d cf 38 40 be
       1.4943702 0.122670956 0.043578103 -0.18771671
000200 5c 28 27 bd 81 df 90 3f 47 2c 45 3c 32 4d 28 3f
       -0.040809974 1.1318208 0.012034482 0.6574279
000210 b4 6c e5 be 1a bf 8f bd b8 b4 05 bd 81 42 84 bf
       -0.44809496 -0.070188716 -0.03264305 -1.0332795
000220 c6 4a e7 3e 1f e6 fc 3e f5 d6 42 3e d0 8e be 3e
       0.45174235 0.49394318 0.19027312 0.37218332
000230 42 25 1d 3e d0 7d 54 3f 6d 2b 24 3e 7f 5b 2f 3e
       0.15346244 0.83004475 0.1603219 0.17124747
000240 7e 00 79 bf ee 6e 30 bf fa 43 94 3e ae e7 0a be
       -0.97266376 -0.68919265 0.28958112 -0.13564941
000250 39 21 a8 3f 42 67 86 be f9 33 6d bc 54 8e 96 3c
       1.3135139 -0.26250654 -0.014477723 0.018378414
000260 80 ad f5 3d f0 23 5f 3f 31 cf 0e 3e 7a a1 e2 be
       0.11995983 0.8716421 0.13946225 -0.44263822
000270 2d 34 cc be e4 b0 24 3f 25 29 cf 3d ac 43 64 be
       -0.39883557 0.64332414 0.101152696 -0.2229144
000280 4b 67 c5 bd 0f 6b 47 3f 53 18 84 3e f6 c7 11 3d
       -0.09638842 0.77897733 0.25799808 0.03559109
000290 35 1b 09 3f 68 cb d5 3d 9b ac d4 bd 66 e1 86 bc
       0.5355714 0.10439187 -0.103844844 -0.0164649
0002a0 51 03 1c 3f 1c 39 52 3d 9a 31 09 be 5c b4 6e 3d
       0.6094256 0.051323995 -0.13397828 0.058277473
0002b0 f4 22 67 3f e9 b6 18 be f6 4e 80 3b 43 dd 1e 3d
       0.9028771 -0.14913525 0.003915663 0.03878523
0002c0 31 e6 68 3e 9a 38 6a be 08 84 c4 bd 13 52 af 3d
       0.22744061 -0.22873154 -0.095954955 0.08560576
0002d0 c7 62 81 be 59 1f 60 3f f0 2f 7c be 19 4d 4b 3f
       -0.25270674 0.8754783 -0.24627662 0.79414517
0002e0 ff e2 d0 3e 3a ec cf 3e 66 bf 7b 3f f0 c9 1f 3f
       0.40798184 0.40609914 0.98338926 0.6241751
0002f0 24 c8 a7 3e 31 7e aa 3f e6 51 a4 be 04 c0 e9 be
       0.32769883 1.331976 -0.32093734 -0.4565431
000300 8c 38 3a 3f d4 cc 2e bd e3 f6 de be 1d eb 4b 3f
       0.72742534 -0.042675808 -0.43547735 0.7965563
000310 28 38 81 3c 7b c0 1f bf a1 5b f0 bd f4 bd 85 3f
       0.015773848 -0.62403077 -0.11736227 1.0448594
000320 a3 3b 89 bf bd bb 79 be 79 8b 33 bf 1d 24 65 bf
       -1.0721325 -0.24388023 -0.70134693 -0.8950823
000330 dd 89 03 3f 9c 63 8d 3f 13 ab 2b 3e db f0 00 bf
       0.5138224 1.1046023 0.16764478 -0.50367516
000340 91 fb c6 3e 18 00 b0 3f 77 8f cb 3d f1 18 01 3f
       0.38863805 1.3750029 0.09939473 0.5042868
000350 f2 77 2f bf d1 21 35 be 76 61 1d bf 57 65 ee bf
       -0.685424 -0.17688681 -0.6147684 -1.8624676
000360 60 1f a3 bf c7 10 dc 3e 1d d3 2d bf 8d 83 fc be
       -1.274395 0.4298155 -0.6790026 -0.49319115
000370 1e b2 ad be 7c 5b 32 3f 2e b0 5d 3d 6e 5c e9 be
       -0.33924955 0.69670844 0.054123096 -0.4557833
000380 96 29 bc be 9e 19 1f 3e 17 29 29 3e 94 48 26 bc
       -0.36750478 0.15537116 0.16519581 -0.01014914
000390 99 a0 00 3f 69 2a 83 bf 94 e8 3d 3e 7e 27 a0 be
       0.5024505 -1.0247318 0.18545753 -0.3128013
0003a0 b8 fe 9b 3d 7f 42 c4 3e d0 6d 05 be e3 fa 66 bd
       0.07616943 0.38331982 -0.13030171 -0.056391608
0003b0 7e 9c c2 be 5c 16 ae bf 36 e2 85 bf 3d 69 94 bf
       -0.3801002 -1.3600574 -1.0459659 -1.1594616

rnn.weight_hh_l0 f4 [60, 15]
000000 40 d3 d6 3d 59 1a 1c bc 73 a6 e5 3d ff 6b 92 3e
       0.104895115 -0.009527766 0.11213388 0.2859802
000010 09 31 83 be 0d 28 65 3e a3 88 19 bf dc 7e 7b be
       -0.25623348 0.2237856 -0.59974116 -0.24560112
000020 d8 b8 40 be ed a7 a5 3e 94 da b9 3f 27 e7 9d bf
       -0.18820512 0.3235468 1.451983 -1.2336167
000030 92 0d af 3f 9b 57 67 bf 90 5c 0b 3d e9 fd 81 bf
       1.3676016 -0.9036805 0.03402382 -1.0155612
000040 20 2f 0a bf fb 1f 82 3e 79 fe c0 bd 76 26 9b 3e
       -0.5397816 0.25415024 -0.09423537 0.3030278
000050 82 af b0 bd d3 7b 14 bf af 47 cc bf 3d c3 3d 3e
       -0.086272255 -0.5800144 -1.5959376 0.18531509
000060 5a 7b 47 bd dc e2 41 be af 05 54 3f 68 a8 1e 3f
       -0.04870162 -0.18934196 0.8282117 0.6197572
000070 a3 71 1e bf 5b 07 ad be 14 13 89 be 25 ff 81 3f
       -0.61892146 -0.33794674 -0.26772368 1.0155989
000080 49 03 19 3f fe 0c 15 bf 0a c8 22 3e 0a e6 8d bf
       0.5977064 -0.5822295 0.15896621 -1.1085827
000090 ae 52 0a bf d1 b6 95 3f 7f 63 83 bf db f6 5d bf
       -0.5403241 1.1696416 -1.0264739 -0.86704797
0000a0 50 eb 67 3f f4 c5 0a bf 3b 44 a4 3e 51 9e 2a bf
       0.90593433 -0.542083 0.32083306 -0.6664782
0000b0 06 5a a5 3e a3 73 c1 be a9 95 b4 3d bb fd 5a 3f
       0.32295245 -0.37783536 0.08817608 0.8554341
0000c0 80 74 a6 3e 81 75 df be 46 76 04 3e 9b 53 0e bf
       0.32510757 -0.43644336 0.12935743 -0.5559632
0000d0 d5 aa 94 bf 6b 3c 99 be 3f 2b 9c bd d8 0c 7a 3e
       -1.1614634 -0.29928908 -0.07625436 0.24418962
0000e0 45 f3 0b bf 4d e0 a4 3d 0c 9c b9 bf 52 b7 8d be
       -0.54668075 0.080505945 -1.4500747 -0.27678925
0000f0 2a 64 cb be fc 97 46 3d 1b 67 c9 be 71 8d fa bd
       -0.39724857 0.048484787 -0.39336476 -0.12234009
000100 4d db b9 3e 2d 04 9f be bf f0 82 be 02 df 07 bd
       0.36300126 -0.31057873 -0.255743 -0.03317166
000110 be a8 d2 be 62 0b 8a bc b4 d0 13 be 54 d6 86 3d
       -0.41144365 -0.01685113 -0.14435083 0.065838486
000120 23 4b c4 bd 64 70 67 3e 60 68 d5 be a1 f4 c0 3e
       -0.09584644 0.22601467 -0.41681194 0.37686637
000130 fd cd 98 bf 30 88 36 3f b3 57 9e be 65 b7 2f bf
       -1.1937863 0.71301556 -0.30926284 -0.6863921
000140 91 3b 5f be 20 df 8e 3f 28 c3 6c bf 6b 95 0e bc
       -0.21800067 1.1161842 -0.92485285 -0.008702616
000150 18 e7 cf be e7 78 4d 3e cc a5 ff be 15 d7 95 be
       -0.40605998 0.20065652 -0.4993118 -0.29265657
000160 5c f5 9a bf c9 bc 43 3f 35 75 97 3d 15 71 69 bf
       -1.2106128 0.7645994 0.07395402 -0.91188174
000170 36 fe d7 3d f9 03 69 3e 6b a3 ff be 38 98 ee be
       0.10546534 0.22755422 -0.49929366 -0.4660051
000180 25 35 2b 3f f0 a5 c6 bf e0 e8 cd be b8 b8 89 be
       0.6687797 -1.551939 -0.40216732 -0.26898742
000190 7c 5b f7 be d4 0d 33 bf 5b a4 9c 3d 03 09 49 bf
       -0.48311985 -0.69942975 0.07648536 -0.78529376
0001a0 26 06 bd 3e eb 23 1c 3d a5 2e 5e 3e bd fa ef 3d
       0.36918753 0.03812019 0.21697481 0.117177464
0001b0 7f 44 51 bf c6 69 a7 3e 36 f1 08 3e 8b a7 16 bf
       -0.8174514 0.32697886 0.13373265 -0.588494
0001c0 ab 3c 09 3f 0e cc 2f 3f 44 0a aa bf 3e aa a2 bf
       0.53608197 0.6867074 -1.3284383 -1.2708204
0001d0 e2 e6 6d 3f ff f3 3d bf 31 92 cd be dd d5 cd be
       0.92930424 -0.74200433 -0.40150598 -0.40202227
0001e0 a6 a6 5e 3e 70 00 47 bf b1 14 01 3e 62 9c a1 bf
       0.21743259 -0.7773504 0.1260555 -1.2625849
0001f0 2d cf 96 bd 2a 4d fe be b2 b9 be 3f 51 1c 04 3f
       -0.073637344 -0.49668247 1.490042 0.5160571
000200 72 c6 9f be f7 48 7f bf fb d6 04 bf dc df d8 3d
       -0.3120609 -0.9972071 -0.51890534 0.10589573
000210 b7 66 39 bf d5 b2 41 bf 64 ca 13 3f 39 df f1 3e
       -0.72422355 -0.756635 0.577307 0.47240618
000220 e8 0a 1c c0 40 27 78 3f ac 72 b4 3d cc fa 16 be
       -2.4381657 0.9693489 0.088109344 -0.14744109
000230 c7 2c f3 3e 62 f7 dc 3f 91 f7 b2 bf 5e 49 e0 3d
       0.474951 1.7262995 -1.3981801 0.10951494
000240 9e d0 29 bf df a7 92 3f f5 e3 b6 bf 18 96 7a 3e
       -0.6633395 1.145748 -1.4288317 0.24471319
000250 d4 1e 61 c0 e9 32 f0 3e 54 4a 90 bd a6 f6 25 bf
       -3.5175066 0.4691384 -0.07045427 -0.6482948
000260 f7 9c 12 3f 60 8c d2 3e 90 07 dc be c5 1b 8e be
       0.5727076 0.41122723 -0.4297452 -0.2775556
000270 f7 e5 7a be 95 9b 03 bf 52 40 80 bd 2c c9 40 3e
       -0.24501787 -0.51409274 -0.06262268 0.18826741
000280 54 1e 01 bd 3a 23 e5 bc 6a c8 b0 bd 9d e2 3f bf
       -0.031523064 -0.027970899 -0.08631976 -0.7495516
000290 34 59 9b 3e 76 70 a3 be 1f 6e d6 3d da ff c5 bc
       0.30341494 -0.31921738 0.10470223 -0.024169851
0002a0 7d 23 08 3d ba 46 65 3e 8b b8 38 3e 6e 76 01 bf
       0.03323697 0.22390261 0.18039148 -0.50571334
0002b0 5f b5 be 3e 49 62 51 be cb b5 52 be e9 cb fa 3e
       0.3724775 -0.20447649 -0.20577161 0.48983696
0002c0 3d 2b 4f 3d bf 22 92 3e 3d 93 47 3c c4 77 92 be
       0.050578345 0.28542134 0.0121811 -0.28607
0002d0 d3 32 22 bc ff 55 63 be ff 2b c7 3d 01 65 f3 3e
       -0.009899813 -0.22200774 0.097251885 0.47537997
0002e0 31 67 4f be 2a 77 92 3e 8c ec 36 be 26 ea 2a 3f
       -0.20254208 0.2860654 -0.17863673 0.6676353
0002f0 18 8c fa bd 51 ee a8 bd 26 db df 3e fe 33 94 bf
       -0.12233752 -0.0824858 0.43721884 -1.1578367
000300 fb b5 3e 3e 0d cb 3e c0 40 68 68 be c0 d3 20 bf
       0.18624108 -2.9811432 -0.22696018 -0.62823105
000310 e9 a4 98 3f 50 9f de bc 5c fb 60 bf 3d 04 d6 bd
       1.1925327 -0.027175575 -0.87883544 -0.10450027
000320 ac 2c a8 bf 3b 54 10 bf e9 0e f2 3e a0 8e 29 bf
       -1.3138633 -0.56378525 0.47277 -0.66233253
000330 0e 91 e3 bf 69 d1 1a be e2 79 aa 3e 5b 9e 46 3d
       -1.7778642 -0.15118946 0.33296114 0.048490863
000340 af 91 87 bc 59 54 50 be da bf 72 3e 45 aa 28 bd
       -0.01654896 -0.20344676 0.23705998 -0.041178007
000350 54 3c 1a bc 38 a2 29 be b7 07 b1 be b7 cb 2d bf
       -0.009413797 -0.16565788 -0.34576198 -0.6788897
000360 da c7 2b be e2 c9 2c bf 27 ff 50 bf b8 7e 45 be
       -0.16775456 -0.6749555 -0.8163933 -0.1928662
000370 08 3b 34 3f 98 53 2f bf ad 4e ba 3e f9 6f c0 bf
       0.70402575 -0.6848693 0.3638815 -1.5034171
000380 0c ca 4d 3d a5 85 f2 3d 37 c2 8c 3f 68 38 8c bc
       0.050241515 0.11841897 1.099677 -0.01711674
000390 b6 ef 50 be 41 2e a7 be 1f 27 73 bd 4b 52 7c bf
       -0.20403942 -0.32652476 -0.05936348 -0.9856307
0003a0 d1 00 85 3e 02 81 ee be d2 50 18 3f e7 ce be 3f
       0.25977185 -0.465828 0.5949832 1.4906892
0003b0 18 d1 aa bf 04 08 72 3f d8 c0 90 bf 8c 24 8f 3e
       -1.334506 0.9454348 -1.1308851 0.2795757
0003c0 9e 6c 40 be 48 23 89 3b 69 cb a8 3e 80 ba 03 3e
       -0.18791434 0.004185114 0.3296769 0.12864113
0003d0 f3 20 16 be 8b 1f 01 bf a7 c4 cd bd 2a 53 d2 3c
       -0.14661007 -0.50438756 -0.10047274 0.025674421
0003e0 e4 c0 6c bf 19 2b 9f 3e ca 90 0b bf d7 16 2b bf
       -0.9248183 0.31087568 -0.54517806 -0.66831726
0003f0 6d b7 ca 3e 58 04 6b bf b9 ce 72 3e 40 7e 4d ba
       0.39593068 -0.91803503 0.23711671 -0.0007838942

rnn.bias_ih_l0 f4 [60]
000000 e8 13 a6 be c1 b5 b5 3e da ed df 3c 66 39 ed bd
       -0.32437062 0.3549023 0.027335096 -0.115832135
000010 e7 84 9f 3e d0 b3 06 bf 3b 6f fa be 84 c7 38 3f
       0.31156084 -0.5261812 -0.48912987 0.72179437
000020 9f 5c 57 be ed 03 ca be 53 67 ce be ca db 2d 3e
       -0.21031426 -0.3945612 -0.40313205 0.16978374
000030 ad 05 2e be 66 bd 73 be b5 11 0d bf ca 88 bd be
       -0.16994353 -0.23802719 -0.55105144 -0.37018424
000040 17 d1 cc be 3a fb 28 be d7 0d 89 bf e7 c5 39 3f
       -0.40003273 -0.16502085 -1.0707349 0.725676
000050 b9 51 25 bf 4c fe cb be 0c c2 da be 61 4e b8 be
       -0.64577824 -0.3984245 -0.4272617 -0.35997298
000060 9e ce c6 be 43 9f 8d be c1 cc 17 be 28 ae 53 bf
       -0.3882951 -0.2766057 -0.14824201 -0.82687616
000070 52 ec c7 bd 5c cd 29 bf 1e f2 bd 3c 1a b0 d2 bd
       -0.097618714 -0.6632898 0.02318674 -0.10287495
000080 38 60 aa be 31 19 04 3e ac e5 d9 3e bd a4 02 3f
       -0.33276534 0.12900235 0.42558038 0.5103262
000090 44 2d 40 bd ff 5b a1 be f0 48 10 3e 57 05 b5 3b
       -0.04691817 -0.315155 0.14090323 0.005524318
0000a0 2e 20 e8 3d 9b 4b b2 be 20 75 93 3d 90 ef 85 be
       0.11334263 -0.34823307 0.07200074 -0.26159334
0000b0 b4 00 e1 bd e8 99 d1 be 35 79 1d 3f 0c e1 50 3d
       -0.10986462 -0.40937734 0.6151307 0.05099587
0000c0 53 2e bd be f4 34 b1 be 88 2b 1c be 2d 69 91 be
       -0.36949405 -0.34610713 -0.15250981 -0.28400555
0000d0 3c 00 4d 3f 0c 8c be be f4 f2 a7 be f4 bd ed be
       0.8007848 -0.37216222 -0.32802546 -0.46433985
0000e0 08 f5 05 3e ac 85 10 bf 32 6a f8 be 07 52 a1 bf
       0.13081753 -0.5645397 -0.4851852 -1.2603158

rnn.bias_hh_l0 f4 [60]
000000 70 45 c9 be 7b 9e 3e 3f f1 fd 8b be 60 92 34 be
       -0.3931079 0.7446057 -0.2734218 -0.17633963
000010 69 89 86 3e 52 80 f7 be 00 19 ee be 2f a1 97 3e
       0.2627671 -0.48340088 -0.46503448 0.2961516
000020 64 be b6 bd 74 82 1d bf b9 36 52 be b5 e9 8c 3e
       -0.08923033 -0.6152718 -0.20528688 0.27522054
000030 6a 0f 90 be e5 84 ee be b8 b0 14 bf c0 02 2c be
       -0.2813676 -0.46585765 -0.5808215 -0.16797924
000040 a8 51 41 be 01 73 80 be 69 32 41 bf 32 ce 5d 3f
       -0.18878806 -0.2508774 -0.75467545 0.86642754
000050 96 f6 0c bf 15 ee ed be c8 43 0b bf cf 7d 13 bf
       -0.5506376 -0.46470705 -0.544003 -0.57613844
000060 58 e1 d2 be 14 fc a8 3d 16 b9 11 be b7 c6 33 bf
       -0.4118755 0.08251205 -0.14230761 -0.7022509
000070 80 49 fd be a7 00 99 be a4 ce a7 be 7e 5e c2 be
       -0.4947014 -0.2988331 -0.32774842 -0.37962717
000080 4b b0 5d be a0 bc 44 3e 6e 8f 0b 3f c0 96 fc 3e
       -0.21649282 0.1921258 0.5451573 0.49333763
000090 88 b8 b3 3e b9 fe 8a be ec 63 d5 3e 48 bc 55 3e
       0.35101724 -0.27147463 0.41677797 0.20872605
0000a0 54 6c 53 be 9b 8b 31 3d 37 fd 2b be aa 01 56 be
       -0.20646793 0.04334603 -0.16795813 -0.20899072
0000b0 f5 29 90 3d d2 b4 c8 be d7 19 1b 3f de 9f 95 be
       0.07039253 -0.39200455 0.60586303 -0.2922353
0000c0 8e ff f4 be fd c0 23 bf 60 4c 12 bf c0 95 ae be
       -0.47851223 -0.6396635 -0.5714779 -0.34098625
0000d0 e5 95 36 3f 7f b0 e0 be a2 81 60 be 82 09 0e be
       0.7132247 -0.43884656 -0.21924451 -0.13870814
0000e0 f3 71 a5 be cc 09 08 bf c7 06 af be f1 ca 80 bf
       -0.323135 -0.5313995 -0.34184858 -1.0061933

fc.weight f4 [4, 15]
000000 a6 dd f8 bd 64 5a 28 3f 83 68 f6 bc 7c 62 38 3c
       -0.12151651 0.65762925 -0.030079132 0.011253949
000010 27 36 a9 3e ce 9f 89 3e 73 5d aa be da 2d 19 3f
       0.33049127 0.26879734 -0.3327442 0.5983559
000020 df 0f 37 3e 97 ab 38 3e 15 e0 cb 3d 9c b8 aa 3a
       0.17877148 0.18034206 0.0995485 0.0013024989
000030 1d 0f 13 3d bb fc 41 3c e1 45 71 be 94 3b 4f be
       0.035903085 0.011840041 -0.23561813 -0.20237571
000040 cf bd 1d 3d 70 21 aa 3e 71 16 c8 3e 22 d9 6e be
       0.038511094 0.33228636 0.3907962 -0.23325017
000050 7c d1 94 3d 6a ee 8e be 49 f2 26 be 46 5c 88 bd
       0.072665185 -0.2791627 -0.16303362 -0.06658225
000060 11 89 87 3f 5b f4 a4 3e 75 67 14 bf 0f 62 d7 3e
       1.0588704 0.32217678 -0.5797036 0.42067
000070 23 33 91 3f 32 07 72 3d 39 a1 8f be 4b b0 60 3e
       1.1343731 0.059088893 -0.2805269 0.2194225
000080 67 f9 dc be 2a f7 8b 3c c7 9e d1 3e 32 ac d7 3d
       -0.4315903 0.01708563 0.4094145 0.105308905
000090 59 f9 8d bd e9 b7 40 be 22 c5 bb 3d cb 18 ac 3e
       -0.06932325 -0.18820156 0.091684595 0.33612666
0000a0 d0 c2 4a be 10 15 66 be 9b cc 8e be b7 e2 03 be
       -0.19800878 -0.22468972 -0.27890477 -0.12879454
0000b0 a4 ea ce bd e7 fc 0e bf 99 1e 9a bd 20 95 11 3f
       -0.10103348 -0.5585465 -0.07525367 0.5686817
0000c0 27 2f 1f bf 70 cc e5 3e 4f 1d ff bd a4 78 0f bf
       -0.62181324 0.44882536 -0.12456762 -0.5604346
0000d0 cf 1b 35 3c dd f4 1c bf 04 16 6c be 82 e4 36 3f
       0.011053993 -0.6131113 -0.23055273 0.71442425
0000e0 3a 17 c8 3d 74 08 85 be 05 c5 0a bc b2 1a 47 bd
       0.09770055 -0.25983012 -0.008469825 -0.048609443

fc.bias f4 [4]
000000 e9 b4 b2 3e 71 7f 16 3e 61 a1 b9 3e f9 eb b2 3d
       0.34903648 0.14697053 0.36255935 0.087364145
