checkpoints/with_NUE/linear_signals_model_weights_2.pth (torch_old, 3089 bytes, 5 tensors)

rnn.weight_ih_l0 f4 [40, 1]
000000 23 82 ec 3e c4 91 00 c0 57 4f ee bf 43 ae 38 3f
       0.46193036 -2.0088968 -1.8617963 0.721409
000010 b3 fb a3 b9 74 1c e0 bf e7 db 0c 3f eb 08 47 bf
       -0.00031277313 -1.7508683 0.55023044 -0.7774798
000020 ef bf 73 3e 83 a9 6a 3e a7 78 91 3f e5 ad a0 bf
       0.23803686 0.22916226 1.1364945 -1.2553068
000030 e3 5a 32 bf 15 2e 18 bf 7c 2d 4e bf 84 43 64 bf
       -0.6966993 -0.59445316 -0.80538154 -0.8916552
000040 1e 6b b7 3f cf 67 43 3e f7 8e 7c 3f 4d b6 85 3f
       1.4329565 0.19082569 0.9865565 1.0446259
000050 bc 13 1a 3f 7c 13 98 3f d9 67 a2 3e 90 b4 91 3f
       0.6018636 1.1880946 0.31719854 1.1383228
000060 3c 55 08 be 66 36 ef be f1 24 88 be 28 bd 48 bf
       -0.13313764 -0.4672119 -0.26590684 -0.7841363
000070 5f 01 7f 3e 82 2c bf 3e 4c 2c af bf 73 d4 25 c0
       0.24902867 0.37338644 -1.3685393 -2.5910919
000080 df e5 cd bf 65 da 69 3f 40 ad 33 bf e7 e2 a9 bf
       -1.6085776 0.9134887 -0.70186234 -1.327237
000090 4a a7 ef bf 9a 27 64 be 5e 54 d9 bf 8e 7c dc bf
       -1.8722928 -0.22280732 -1.6978872 -1.7225511

rnn.weight_hh_l0 f4 [40, 10]
000000 19 71 71 3f ad 47 7c 3c 8d 62 b6 3e 70 32 77 be
       0.943132 0.015397948 0.35622063 -0.24140334
000010 ec c8 1b be b8 b5 0b 3f 6e 7e 8b bf 8a 35 28 bf
       -0.15213364 0.54574156 -1.0897958 -0.65706694
000020 5b da 35 3f 8d 5d 13 3f c1 70 12 3f b0 07 ca be
       0.7103631 0.5756462 0.572033 -0.3945899
000030 ad ce 8b 3e c0 1f 10 c0 3b 5f c6 3f ef e4 42 bf
       0.2730612 -2.2519379 1.5497812 -0.76130575
000040 4b 48 9e 3b 4c 2b 30 bf 45 19 67 3e 8a 67 9b 3e
       0.0048303953 -0.68816066 0.22568233 0.30352432
000050 7c 98 90 bf ee 1d 33 3e 8d d7 8a bc d5 84 46 bf
       -1.1296535 0.17491886 -0.016948486 -0.77546436
000060 02 a1 1e bf 80 51 c5 bd 86 36 b9 3f dc dd cb 3e
       -0.6196443 -0.096346855 1.4469764 0.39817703
000070 41 7a b3 bf 19 4f 61 bf f2 be 8d bf 77 c2 8d bf
       -1.4021684 -0.8801132 -1.1073897 -1.1074971
000080 02 57 44 bf b8 ab 01 bf cb 66 b2 3f c4 03 18 3f
       -0.76695263 -0.50652647 1.393762 0.59380746
000090 5d 07 b2 3f 76 9a a2 3f 96 a8 88 bf e1 96 ad bf
       1.3908497 1.2703388 -1.0676448 -1.356167
0000a0 72 f1 12 3f 2f c2 a9 3e 6d e7 01 3f b1 85 4c bf
       0.57399666 0.33155963 0.5074375 -0.79891497
0000b0 a6 b7 a6 3f 9b a2 dc be cf 1d be be e7 03 c0 be
       1.3024795 -0.43092808 -0.37132117 -0.37502977
0000c0 c4 f9 35 3f 77 38 ab 3e a1 64 ec bf 27 5b c8 ba
       0.7108424 0.33441517 -1.846821 -0.0015285955
0000d0 78 9e 42 be 69 b3 53 bf 8c 7c 91 bf 47 30 01 bf
       -0.19005764 -0.82695633 -1.1366134 -0.5046429
0000e0 83 14 91 3f c6 b1 2a be 26 95 02 c0 a0 c0 b9 bf
       1.1334385 -0.16669378 -2.0403533 -1.451191
0000f0 e8 eb 3a 3f d2 88 9f 3d d0 a4 20 3e 7a e0 45 bd
       0.73016214 0.07789768 0.15687871 -0.04830978
000100 e3 b5 2a 3e ab b9 1e 3e 0f 5e 3a bf ef 54 2c bf
       0.16670947 0.15500514 -0.7279977 -0.673171
000110 99 2c 3d 3f 71 8b 82 3f 17 1a 5f 3c 75 c4 9b 3e
       0.73896176 1.0198804 0.01361706 0.30423322
000120 2a 8c 81 bd fe 5d e7 bf 0e a5 40 bf e7 28 e5 3e
       -0.06325562 -1.8075559 -0.75251853 0.4475777
000130 53 9e b4 3e 3b ff ec 3f 44 8d 74 bd 95 f2 a0 be
       0.35277042 1.851539 -0.059705034 -0.31435075
000140 c5 f7 53 3f 06 ba 9a 3c d1 f2 e1 bd 36 d5 9e be
       0.8279994 0.018887531 -0.11032642 -0.31022042
000150 d2 6e 3e 3d 6a 51 2f 3f 05 6b 11 bf 46 fa 34 bf
       0.046492405 0.68483603 -0.56803924 -0.70694387
000160 78 c5 64 3f db c3 5f 3f d2 9d 1d 3f 61 70 67 3d
       0.89363813 0.87408227 0.6156894 0.056503657
000170 ce 3c e3 3d de 05 d9 be 30 78 9a 3d e9 0f 9e 3e
       0.11095582 -0.4238729 0.07542455 0.30871513
000180 5f 01 24 bf 05 31 ef be 3d 67 76 3f 7f 35 78 3f
       -0.6406459 -0.46717086 0.9625128 0.9695663
000190 ee 99 b6 3f ec ca a9 3e 9c 1c a6 3d 90 bc de 3c
       1.4265726 0.3316263 0.081109256 0.027189523
0001a0 ba a1 92 3e ad 70 03 3f 6e 04 a5 bf 7d 38 3f be
       0.28639013 0.51343805 -1.2891977 -0.18673892
0001b0 cf 1e ba 3f 5f db 95 3f 4d 23 e3 3e 2f 1c b7 3e
       1.4540652 1.1707572 0.4436287 0.3576369
0001c0 78 7f 53 3c 3d 0e 78 3f cd 4f 18 bd 43 d7 fe be
       0.012908809 0.96896726 -0.03718548 -0.49773607
0001d0 ef c9 16 bf 5a 5c 9c 3f 4a 37 a5 3e 30 26 e0 3e
       -0.58901876 1.2215683 0.32268745 0.43779135
0001e0 1c e1 39 bf 77 61 82 3e f1 23 eb 3d 1c 03 13 be
       -0.72609115 0.25464985 0.11481465 -0.14356655
0001f0 3d 0e 7a be 33 f4 5f 3e bf a4 55 3f 84 6b 19 3e
       -0.24419494 0.21870498 0.8345451 0.1498242
000200 ad 85 56 bf a7 20 5a bf 4b 07 ed bf 77 c2 c2 3f
       -0.83797723 -0.85206074 -1.8517851 1.5215596
000210 9a 8f bf 3d da 29 87 bf 7f 52 82 be bb 06 95 bd
       0.09353562 -1.0559647 -0.25453565 -0.07276674
000220 9e e1 ac 3f b0 72 2b 3f 5c 7b cb bf 1b f5 d0 bf
       1.3506353 0.66971874 -1.5897021 -1.63248
000230 8e 93 58 3f 64 89 42 be 85 31 cd bd fc 22 f8 3e
       0.8460015 -0.18997723 -0.10019211 0.4846419
000240 d4 f7 00 be ac c0 c4 3d 1b 44 6d bf 61 8e 49 be
       -0.12594539 0.09607062 -0.92682046 -0.1968322
000250 dd e0 9c 3f b4 50 82 3f 58 13 c5 bf a2 d7 1d 3e
       1.2256123 1.0180879 -1.5396528 0.15414289
000260 3f 7c 04 be 45 0e f8 bb d6 fc c0 be 23 8d c8 be
       -0.12938021 -0.0075700604 -0.376929 -0.3917018
000270 9b c4 26 3f 3a da ef 3e 18 66 83 bf ca c1 e3 be
       0.65143746 0.4684618 -1.0265532 -0.44483787
000280 1d ad b9 3f a0 bb 93 3e a3 20 71 bd 81 7a 7b 3e
       1.4505955 0.28854084 -0.058869015 0.2455845
000290 b3 f3 2a 3e a0 8a 0e 3e cd 26 90 bf 01 7d 4c bf
       0.16694526 0.13920069 -1.1261841 -0.7987824
0002a0 43 02 d6 3f a5 de 6a 3f 42 3f ca 3e 02 2c fa be
       1.671944 0.9174598 0.39501387 -0.488617
0002b0 9f 73 42 3e fb 19 c9 3d bc ff bf 3f 95 f3 11 3f
       0.18989418 0.098194085 1.4999919 0.570123
0002c0 36 12 84 be 05 15 d2 3f 23 b2 15 3e 7d 6c b2 3e
       -0.25795144 1.6412665 0.14618735 0.34848395
0002d0 4e c9 a2 3f b8 37 e0 3e 31 fb a6 3e ab 65 0b 3f
       1.2717683 0.4379251 0.3261352 0.5445201
0002e0 ef 8f f9 3d 1d 9b d1 3e c8 06 67 bf f2 40 97 be
       0.12185656 0.40938655 -0.9024472 -0.29541737
0002f0 0c fe a0 3f a5 84 53 3f 2c e8 98 3f 9f 1d 33 3e
       1.2577529 0.82624274 1.1945853 0.17491768
000300 0c 7e fb bd 44 c6 81 3e 5e a4 7d 3d 56 18 5f 3e
       -0.12279901 0.25346577 0.06192433 0.21786627
000310 5c 24 64 bf 0b d5 43 bf 44 fd af 3f 87 9f 81 3f
       -0.8911798 -0.7649695 1.3749166 1.0126809
000320 90 92 1e 3f 91 15 c9 3d 27 2f b8 bd 38 10 84 be
       0.61942387 0.098185666 -0.089933686 -0.25793624
000330 1e 92 f5 bd 2c 71 a9 3e 6a 1f 4c bf 3d f3 e0 be
       -0.1199076 0.33094156 -0.79735434 -0.43935576
000340 37 53 06 3f 04 33 66 3f 50 3d 81 bf 84 28 02 3f
       0.52470726 0.89921594 -1.0096836 0.5084307
000350 b7 46 e2 bd a9 fd be 3f ca 9a 67 bf 4b db 01 3f
       -0.11048644 1.4921161 -0.90470564 0.5072524
000360 2c 99 60 3f df 03 b0 3f 9f 33 16 bf 6c c0 4c bf
       0.8773372 1.3751181 -0.5867252 -0.7998111
000370 01 bf e9 3c 7a df 83 3e e8 7f a2 be 8c 65 69 bf
       0.02853346 0.25756437 -0.3173821 -0.91170573
000380 f3 1c f2 be 46 5b 4e bd cf c0 cf 3d 02 72 89 be
       -0.47287712 -0.050380014 0.10144197 -0.26844794
000390 e0 dc fa bc d5 e4 cf be 19 9b 13 bf 36 cc a2 be
       -0.0306229 -0.40604272 -0.57658535 -0.31796426
0003a0 8f e4 6b bf e9 98 56 bf 43 0c 26 3f 19 cd 40 3f
       -0.9214563 -0.8382707 0.6486246 0.75312954
0003b0 18 7e 1a 3f 2d 24 03 3f 9d 21 a2 be af 61 6b bf
       0.60348654 0.51227075 -0.3166627 -0.9194593
0003c0 05 46 83 3f 4d 1b 79 bf c7 76 02 be e5 b2 05 c0
       1.0255743 -0.9730728 -0.12740622 -2.0890439
0003d0 f0 60 8f 3e a6 7b 09 3e 44 66 85 bf ff 4d b5 bf
       0.28003645 0.13426074 -1.0421834 -1.4164428
0003e0 48 c2 18 3f 24 4f 23 3f 55 3b 64 3d a8 77 3f be
       0.5967145 0.63792634 0.055720646 -0.18697989
0003f0 ba aa 14 3e 94 c5 37 3f c2 d9 a0 3d 5a b5 46 bd
       0.14518252 0.71785855 0.07854034 -0.048512794

rnn.bias_ih_l0 f4 [40]
000000 fb c0 31 3f 16 24 66 be 27 22 e7 bf a0 3b 2f bf
       0.6943509 -0.22474703 -1.8057297 -0.68450356
000010 00 07 df bc e5 a3 02 c0 a5 19 2a 3f e3 be 89 be
       -0.027225018 -2.0412533 0.6644538 -0.26903448
000020 88 99 1a 3f 87 95 2d 3e dd 7f a4 3f 31 ca b9 3e
       0.6039052 0.16951571 1.2851521 0.36287072
000030 f4 8f 1e bf 46 2a a1 bf 60 f6 bf 3e fd d0 63 bf
       -0.61938405 -1.2591026 0.37492657 -0.88990766
000040 ba b6 91 3f 09 12 6c bc 3e a9 bd 3f e8 05 83 3f
       1.1383889 -0.014408597 1.4817274 1.0236177
000050 52 9a b4 3e 03 6e f3 bd ff 82 48 bd be 70 a5 bd
       0.35273987 -0.118862174 -0.048953053 -0.080781445
000060 2b 77 96 3d 00 14 da 3d e5 60 ad be a7 e5 47 3e
       0.07346948 0.10648346 -0.33862987 0.19521199
000070 c5 c6 17 3f 53 fa ac 3e 1e 9f d8 bd 28 11 ae bd
       0.59287673 0.33784732 -0.10577224 -0.08499366
000080 f9 bc fa bf 4f a3 0c bf b9 ea 08 3f 1d 3f 07 c0
       -1.958892 -0.5493669 0.5348316 -2.1132271
000090 74 a3 00 bf 56 b4 24 be 55 1b 10 bc 53 b9 39 bf
       -0.5024941 -0.16084418 -0.008795579 -0.7254841

rnn.bias_hh_l0 f4 [40]
000000 0d 4c 02 3f 8f 30 a1 be f4 9c 11 c0 14 fc b9 be
       0.50897294 -0.3148236 -2.2752047 -0.36325133
000010 ab b0 0f 3e b4 50 f2 bf a8 24 9b 3e 00 df fe be
       0.14032237 -1.8930879 0.30301404 -0.4977951
000020 b4 29 70 3e 2b f2 89 3e 93 9e ab 3f 54 44 87 bb
       0.23453408 0.26942572 1.3407768 -0.0041280184
000030 20 f4 5e bf a8 cd a6 bf a8 0f 79 3e e5 58 74 bf
       -0.87091255 -1.3031511 0.24322379 -0.9544814
000040 8c 56 a3 3f 7f 2a 0e 3f fd 40 97 3f e2 7a bd 3f
       1.2760787 0.55533594 1.1816708 1.4803126
000050 7e 6f 11 3e d2 d6 52 3b 6c d4 05 bd 63 7f 4e 3e
       0.14202687 0.00321715 -0.032673284 0.20165782
000060 af 79 9a be 79 9b a9 3d f6 1c dd be 05 1c bf 3d
       -0.30170962 0.08281607 -0.43186158 0.09331516
000070 61 1b 4b 3e b4 3d 25 3f 2f 6f af bd e5 c0 e8 be
       0.19834663 0.64547276 -0.085661285 -0.45459667
000080 8b 2c 0d c0 5b 79 f4 be 72 0c 41 3f 74 ff e7 bf
       -2.2058437 -0.47748837 0.75409615 -1.8124833
000090 89 45 45 bf e2 90 b1 be b6 d2 b0 3d b6 2f 6d bf
       -0.7705923 -0.3468085 0.0863394 -0.92650926

fc.weight f4 [1, 10]
000000 53 56 0a 3f a2 0d 33 be 7e c1 8b bd 8f 02 cb be
       0.5403797 -0.1748567 -0.06824015 -0.3965039
000010 41 c7 9a 3e d5 35 fc 3c 38 59 97 be 1a f5 01 3d
       0.30230144 0.030787388 -0.29560256 0.031727888
000020 b6 53 eb 3e bb 9a 42 3e
       0.45962304 0.19004337
