checkpoints/with_NUE/longlag_nonlinear_signals_model_weights_cond3.pth (torch_old, 5349 bytes, 5 tensors)

rnn.weight_ih_l0 f4 [60, 1]
00000000: 84f2 2abf 9f60 3b3d bef4 0fc0 4673 fabf
00000010: 050d d0bf 92d2 b93e fef4 8bbe a022 433d
00000020: c77c 1cc0 d680 8e3e 71c9 2c3f 9aa9 a9be
00000030: 039e 56bf a07f 9bbf 256e 253e f046 c2bd
00000040: 37f6 423e ffec d3bf 61bc 2dc0 0b5d 66bf
00000050: a963 763e bcb8 e3be e704 aebe 5dc8 0fc0
00000060: adaa 313f 46e4 143f 66a5 a9be 43af a5be
00000070: 300a 70bf 38d9 553e 64aa f6bc e605 8a3e
00000080: 106f a03f 3f52 bd3f 3cb4 e93e 9efe 083f
00000090: 27b7 59be 9d7b e1be 8fa6 fcbf 67d2 27bf
000000a0: f5dd 983e 9779 9c3e a9dd 3dbd d317 b4be
000000b0: fe74 98be 1d06 e3bf b63d 3bbf 5efd 00c0
000000c0: 1072 22c0 e0a0 d4bf d836 ef3e 5870 603f
000000d0: afe9 6b3e 1515 2bc0 0ff5 463e 2a2f 3a3f
000000e0: ca05 11bf 0f93 34bf cdc7 84bf 80c9 59bf
-0.667763 0.045746442 -2.2493129 -1.9566429 -1.6253973 0.36293465 -0.27335352 0.047640443
-2.4451158 0.2783267 0.67494875 -0.33137208 -0.83834857 -1.2148323 0.16155298 -0.094861865
0.19039236 -1.65567 -2.7146227 -0.8998572 0.24061455 -0.4447688 -0.33988115 -2.2466042
0.69401056 0.5816082 -0.33134001 -0.32360277 -0.93765545 0.20883644 -0.030110545 0.26957625
1.2533894 1.4790725 0.4564532 0.53513515 -0.21261273 -0.44039622 -1.973833 -0.65555423
0.2985684 0.30561516 -0.04635397 -0.35174426 -0.29776758 -1.7736241 -0.7314104 -2.0154643
-2.5382118 -1.6611595 0.4672153 0.8767142 0.23038362 -2.6731617 0.1942942 0.72728217
-0.5664946 -0.70536894 -1.0373474 -0.8507309

rnn.weight_hh_l0 f4 [60, 15]
00000000: 89ff 00bf fb9f 2d3e 5cba a83f bea6 0c40
00000010: 95ad 37bd eba7 ca3c 4a97 a53d 98ea f63e
00000020: 456f f1bf 596a 413e 0b61 8a3e eed9 413e
00000030: bf5d 91be c04a 363b 4776 a83d 641c 95be
00000040: 712c a13e c56f 263e b88d 1b3e 9369 a33d
00000050: 4984 c53e 4f82 45be ac2f 54be c456 2ebe
00000060: 6393 e2be 4877 d33d 3df8 a53c f633 82be
00000070: 59b6 a9be db97 e2be fb96 1dbf 624e 8c3e
00000080: 6342 f4be 0e6d 5ebf dd5b 0d3f ce50 22bd
00000090: 1294 023c 2af5 e63d fd92 363f 3da0 b9bd
000000a0: f73b cf3b 91d7 1b3f ee55 273d 431d 5bbf
000000b0: 37b3 93be 3e70 82bf c7da 823e f810 70bf
000000c0: 1f94 62bf d90d 7d3f d250 823e 74f8 ad3c
000000d0: 9ec5 a43f 6e92 3a3f 0c1c 103d bd5b 893c
000000e0: 803e 2f3f b1a9 c7be 18d4 61bf a661 e9be
000000f0: ebfc 64bf 5210 373d 14b0 42bd 682a a23f
00000100: f3f3 163f e1df 083e 0c84 00be 549f 6bbe
00000110: 04c1 e4be 373f 2abd 28fa 74bc d046 683e
00000120: 5376 a5bd 7ab9 cebe 9f33 dbbe af90 e9be
00000130: 746f da3e 4935 973e c238 6f3e 9437 4a3e
00000140: d824 383f 3943 30bf 9de7 45be 4a7e bcbe
00000150: 6b98 2abf e6d1 363f 1d76 a33e 8193 2c3e
00000160: 9a3c 0abc b9da 13bf dcc4 983d 58bd 473e
00000170: 3a2e 3e3f d4d4 893f 2693 833e 065d 13be
00000180: c726 ac3e 8614 9b3f 4431 16bf 8462 1d3e
00000190: 9e0f a13d 5223 233e ec3e 6b3e d007 943e
000001a0: ab9f c3bd e5a6 b8be f857 bdbd 43b6 d2be
000001b0: 7894 37bf 2919 103f fd5b 923e 1a00 cebe
000001c0: 5269 00c0 f2e2 fd3f 3c7b 01bf 3b32 033f
000001d0: 3cad 0b3e 7577 4dbe 61b6 c1be a4a1 86be
000001e0: 04ea 7abf c5cf 083f 1cdb f8be 3273 49be
000001f0: c6b1 793f 5320 eb3e f827 d9be b833 b83f
00000200: a693 b03e 76f7 d1bd 4b62 873e dc29 f63e
00000210: 9e11 83be e7b6 a2bf 7c78 e9be ed0a b9be
00000220: e956 eb3e 0cef 193f f6da 413e eae3 603e
00000230: cdc0 223f 9ffb 91be 7fcf 10be c6c5 0ebf
00000240: 0180 2bbf 7045 003f 5571 363e 806a 9e3d
00000250: ac9f a2bd 40e9 20bf c9a7 e9be 4342 b03e
00000260: b54a a53e 07b1 c03e ed4e 083f da57 8f3e
00000270: 101b e6be 223c 19be a5cf cbbe 7405 17bf
00000280: 0bbf 293f 4536 2d3b ac35 df3d ed1d b1be
00000290: a56b 25bf 8bde 84be 92fc 19bf 6c0d b1be
000002a0: f014 d8be 8c95 9a3e 426e b3be 309e 5f3e
000002b0: 34eb 72bf 7898 39bf bebc 033f cf1b 6ebe
000002c0: 0df5 1fbe df92 5abe f891 88be 06eb eb3e
000002d0: 5cb5 5f3e 434a 3bbf e4f3 8a3e 3dce 283f
000002e0: a4f2 7dbe 93ad 15bf d074 093f 97bc 9abd
000002f0: a2de b6be c284 6b3f f61c 16bf 47b1 24be
00000300: 2d63 5dbe 4536 623e 0971 653f 8b9f 9abe
00000310: acdb 3ebe 928a 053e 10b4 aa3f ea07 a03e
00000320: e373 91be 384d c53e 0105 3abf a7d9 1dbf
00000330: 4770 e13e 8c5d d6bd 0619 9abe b308 2abe
00000340: 5031 96be c020 7e3c 78dd 6fbe 29f2 a53e
00000350: 8598 0c3f 4bd2 b53e 8a90 dd3e 0665 b63e
00000360: c101 1ebf 1974 23bc 23fb b7be bdde 25bf
00000370: 21d8 ee3e c12a 89be 714d 4a3e 61a4 1f3c
00000380: 0978 d6be 326b 9bbe 6321 763d b8c0 a43f
00000390: 56a0 0240 5057 9bbd 6aa3 c93e eac1 9ebe
000003a0: ae80 c23e 44b2 25c0 18d3 a8be 82c9 edbd
000003b0: b397 933e 671a f9bd cd39 a1be 372c c1bd
000003c0: 060c 97be 07c3 76bc af04 e93e 8248 973e
000003d0: 5f33 ce3e c472 e73e 264e c8be f0ff 3dbe
000003e0: e867 5a3d 833c bebe 7c80 de3d 99de 913e
000003f0: 5f73 08bd c150 6bbe b663 9ebe 329b 343d
-0.50389916 0.16955559 1.3181872 2.1976771 -0.044843275 0.024738273 0.08085497 0.48225856
-1.8862082 0.18888225 0.27027163 0.1893079 -0.28391835 0.002781555 0.082256846 -0.29123223
0.3147922 0.16253574 0.1519078 0.07979121 0.38577488 -0.1928799 -0.2072131 -0.17025286
-0.44253072 0.103254855 0.02025997 -0.25430268 -0.33146933 -0.44256482 -0.615585 0.2740355
-0.477069 -0.86885154 0.552183 -0.039627843 0.007969873 0.1127723 0.71318036 -0.09063766
0.006324287 0.60875803 0.040853433 -0.85591525 -0.28847668 -1.0190504 0.2555754 -0.9377589
-0.88507265 0.98849255 0.25452286 0.021236636 1.2872808 0.72879684 0.035182998 0.016767377
0.6845474 -0.38996652 -0.88214254 -0.45582312 -0.8944842 0.0446933 -0.047531202 1.2669191
0.58965987 0.13366653 -0.12550372 -0.23009998 -0.4467851 -0.041564193 -0.01495222 0.22683263
-0.08079209 -0.40375882 -0.4281282 -0.45618197 0.42663157 0.2953284 0.23361495 0.19747764
0.7193122 -0.68852574 -0.19326635 -0.368151 -0.6663882 0.7141403 0.3192605 0.16853143
-0.0084373 -0.5775562 0.07459423 0.19505823 0.74289286 1.0768075 0.25698203 -0.14390954
0.33623335 1.2115638 -0.58668923 0.15369612 0.07864307 0.15931442 0.22973222 0.2891221
-0.095519386 -0.3606483 -0.09245294 -0.4115468 -0.7171092 0.5628839 0.28585806 -0.40234452
-2.0064282 1.9834883 -0.50578666 0.5124852 0.13640302 -0.200651 -0.37834457 -0.26295197
-0.9801333 0.5344203 -0.48604667 -0.1967285 0.97536886 0.459231 -0.42413306 1.4390783
0.34487647 -0.102522776 0.2644218 0.4807881 -0.25599378 -1.2712067 -0.45599735 -0.36141148
0.45964745 0.6013038 0.18931183 0.21961942 0.6357544 -0.28512284 -0.14141653 -0.5577053
-0.66992193 0.50105953 0.1781667 0.07735157 -0.07940611 -0.6285591 -0.45635822 0.34425554
0.3228356 0.3763506 0.5324543 0.27996713 -0.44942522 -0.14964345 -0.39806858 -0.58992696
0.66307133 0.0026430052 0.10898909 -0.34593144 -0.6461738 -0.25951037 -0.60151017 -0.34580553
-0.42203474 0.3019222 -0.35045058 0.21837687 -0.9489014 -0.72498274 0.5145987 -0.23252796
-0.15620823 -0.2134509 -0.26673865 0.46077746 0.21846527 -0.7316019 0.271392 0.65939695
-0.24799591 -0.5846798 0.53693867 -0.07555502 -0.3571673 0.9199945 -0.5863794 -0.16083251
-0.21619864 0.22091015 0.896256 -0.30199847 -0.18638486 0.13041142 1.3336201 0.31256038
-0.28408727 0.38535476 -0.72663885 -0.61660236 0.44030973 -0.104670614 -0.30097216 -0.16604881
-0.29334497 0.015510738 -0.23424327 0.32411316 0.54920226 0.35512003 0.43274337 0.3562395
-0.61721426 -0.00997641 -0.3593379 -0.64792997 0.46649268 -0.2679043 0.19756104 0.009743781
-0.41888455 -0.3035522 0.060090434 1.2871313 2.0410361 -0.07585013 0.39382488 -0.3100732
0.379888 -2.5890055 -0.32973552 -0.116107 0.28826675 -0.12163239 -0.3148941 -0.094322614
-0.2950136 -0.015061147 0.45511386 0.29547507 0.40273568 0.45204747 -0.39122123 -0.18554664
0.05332175 -0.37155542 0.1086435 0.2849014 -0.03331315 -0.22980024 -0.30935448 0.04409332

rnn.bias_ih_l0 f4 [60]
00000000: adf0 3a3b 7abe 8b3e 1531 34bd 95d1 de3d
00000010: 291d 973d 1424 a33e 21ba 163e 515c 033f
00000020: 1856 d2bd 573d 943e 2ff3 da3e f5a3 f5bd
00000030: 8d50 40bf a3ea 53bc ab75 1c3f f643 8d3e
00000040: 7876 643e b793 7dbc c70f b8be 9d2a 85bd
00000050: bfe6 e33e 37da 93be 4bf6 8abd 502f 493d
00000060: 55f1 ee3e 03b9 6c3e 4e02 abbe 6518 fabe
00000070: 5fd3 40be cb02 253f a004 0e3d 2ca2 ee3e
00000080: 918e 62bd 3984 d33d 45ed cf3e 2682 213e
00000090: 4d7b 31be 72d3 8bbe fbb6 8dbe da1c 0fbf
000000a0: 385f 1a3f 7272 e43e 90a0 43be c20e debe
000000b0: 7b58 2bbe 687c b6be e8a4 1dbf 01ec 9fbb
000000c0: 6c42 6ebe 0a59 833e b2cf d13e b086 4c3e
000000d0: 58a1 c93d 607e f83d 6bac 293e aa3a 1a3e
000000e0: 011e 05bf 73e3 58bf 752e 9bbe fab5 87be
0.0028524802 0.2729376 -0.04399212 0.10879818 0.07378609 0.31863463 0.1471944 0.5131274
-0.10270327 0.2895305 0.4276366 -0.11994163 -0.7512291 -0.01293436 0.6111705 0.27590913
0.22310817 -0.0154771125 -0.35949537 -0.065022685 0.44511983 -0.28877422 -0.06785258 0.049117386
0.46668497 0.23117451 -0.33400196 -0.48846737 -0.18830632 0.64457387 0.03467238 0.46608102
-0.055311743 0.10327954 0.4061071 0.15772304 -0.17332192 -0.27309757 -0.27678666 -0.559034
0.6030154 0.44618565 -0.19104218 -0.43370634 -0.16732971 -0.3564179 -0.6157975 -0.004880429
-0.23267525 0.2565387 0.4097877 0.19973254 0.09845227 0.12133479 0.16569678 0.15061441
-0.5199891 -0.8472206 -0.3030888 -0.26506025

rnn.bias_hh_l0 f4 [60]
00000000: 6cdd af3c e6f5 fe3e e8c3 c23b 179b 5cbe
00000010: eb7e 0b3d 9a40 e43e c311 0b3d 760b 833e
00000020: f862 75bd f01f 1b3f 02b5 013f 6e9a c1be
00000030: e19c 02bf b0ca cabd 4485 8f3e 70f6 d83d
00000040: bab8 423e 5817 8ebe cdf8 53bd a2a7 c4bd
00000050: 830f 093f 9716 d23c de78 c3be fedd 93be
00000060: e983 273f a03b 613e 373b 1bbf cece 1dbf
00000070: 6809 29bd 1cd5 a53e 7545 9fbe e7a1 273e
00000080: c424 c0bc 5e9f db3d 7464 f83e 420c 023f
00000090: d33b aebe 53d4 92be 5bf1 17be e5dc 72be
000000a0: 1430 e43e 8d1f 6b3e 8c32 cb3d 3c09 a8be
000000b0: a26c 16bf c196 ea3c e83f 39bf 0d8a 413e
000000c0: 9bde cebb fa44 063e 941e c73e c723 c03e
000000d0: a365 263e a45f 51bd ed92 f93e 7e14 cd3e
000000e0: 1ba5 2abe 81f2 23bf 92cf afbe 279b bcbd
0.021467887 0.4979698 0.005943764 -0.21543537 0.034056585 0.44580537 0.033952486 0.25594682
-0.059908837 0.6059561 0.5066682 -0.37813133 -0.5102063 -0.09901941 0.2803136 0.10593879
0.1901578 -0.27752185 -0.051750947 -0.09602286 0.53539294 0.025645537 -0.38178152 -0.28880304
0.65435654 0.21995401 -0.6063723 -0.61643684 -0.041268736 0.32389152 -0.3110768 0.16370355
-0.023455031 0.10723756 0.4851414 0.50799954 -0.34030017 -0.28677616 -0.14838164 -0.23717077
0.4456793 0.22961254 0.099217504 -0.32819545 -0.5875951 0.028636338 -0.7236314 0.18900318
-0.0063131577 0.1311225 0.38890517 0.37527296 0.16249709 -0.0511166 0.48744908 0.40054697
-0.16664545 -0.64041907 -0.3433805 -0.092092805

fc.weight f4 [1, 15]
00000000: a817 0fbe 1d9e a53b 7e1f bc3e 9f69 d13e
00000010: 3e53 593e f508 123e 09fd 0bbe 0ef3 403f
00000020: 4932 7dbd 79ad 09be b0aa 093e 5843 14bd
00000030: 1d1b 613c 91bd 12be 9d89 b7bd
-0.13973868 0.005054249 0.36742777 0.40900895 0.2122316 0.1426123 -0.13670744 0.7537087
-0.061815534 -0.13445081 0.13444018 -0.036197037 0.0137393745 -0.14330126 -0.089617945
