checkpoints/with_NUE/longlag_nonlinear_signals_model_weights_4.pth (torch_old, 5589 bytes, 5 tensors)

rnn.weight_ih_l0 f4 [60, 2]
000000 74 79 f2 be d5 05 84 3f 5a 0d 66 bf f8 25 11 3e
       -0.47358286 1.031428 -0.8986412 0.1417464
000010 97 66 0c bf 22 bc 28 3f c6 54 0c c0 64 68 82 3e
       -0.5484404 0.6591207 -2.1926742 0.2547027
000020 41 99 e7 bf 36 2c 04 be d3 cd 48 3e 4b 64 c8 3e
       -1.8093644 -0.1290749 0.19609766 0.39139017
000030 5a a8 d9 bf ef 1f 53 bf 95 9e 30 bf 23 0b 0d 3f
       -1.7004502 -0.824706 -0.68991977 0.5509512
000040 7e c2 dc bf 15 d2 0e bf 59 2f 84 bf 0c 00 60 be
       -1.7246854 -0.5578931 -1.0326949 -0.21875018
000050 a2 2d 8f bf 8e 87 09 bf 40 55 3f bf 8e b8 09 3f
       -1.1185801 -0.53722465 -0.74739456 0.53797233
000060 e5 bf e7 bf 00 cf 5a 3e 98 ca 05 c0 58 5b 19 be
       -1.8105437 0.21368027 -2.0904903 -0.14976251
000070 52 9e 3a bf 5c 8c f8 be 0b 7e 4f be 94 22 17 3f
       -0.7289783 -0.48544586 -0.20262925 0.5903714
000080 f2 49 2a 3e 7c 0f 46 bd 55 f4 79 be a6 e3 11 3f
       0.1662977 -0.04835461 -0.24409612 0.5698799
000090 3c 10 06 bf 1d 25 03 3f a4 a9 69 bf f1 3b 17 3e
       -0.5236852 0.51228505 -0.91274476 0.1476896
0000a0 bd 08 29 bf b7 f1 97 be 6a 5e c4 be ab f1 3a bf
       -0.6602896 -0.296766 -0.38353282 -0.73025006
0000b0 eb 6a e9 be d7 f9 17 3f 75 74 23 bf fe 3d 28 bf
       -0.45589384 0.593656 -0.63849574 -0.6571959
0000c0 99 39 17 bf 0f 1a a3 be d9 e6 24 bf 6e dd b4 3e
       -0.5907226 -0.3185582 -0.64414746 0.35325187
0000d0 a4 4b 55 bf 6b 7d 71 be 5c e1 60 bf b2 c4 11 bf
       -0.83318543 -0.23583 -0.8784387 -0.5694076
0000e0 10 95 8b bf 34 e5 ca be 73 6b f4 be cb af 79 3e
       -1.0904865 -0.39627993 -0.47738227 0.24383466
0000f0 cd 5a 96 3d 9b 3d 5e bf 10 07 18 bf 95 bc 1d bf
       0.073415376 -0.8681275 -0.59385777 -0.6161588
000100 2b a9 0a 3e ed a6 27 3f fa 8c 0f bf 3f c2 0a 3e
       0.13541095 0.65489084 -0.5607449 0.13550662
000110 fb 2b a3 3e 97 48 e9 be ca a2 37 3f b6 3e 14 bf
       0.31869492 -0.45563194 0.7173277 -0.5790819
000120 cf 61 06 be 2e 31 0c 3d 5c bd 29 3e ef fb 3b bf
       -0.13123249 0.03422659 0.16576141 -0.73431295
000130 9d 09 69 be 0d 1e 39 3e c3 77 ed bd 63 f8 fe be
       -0.22757573 0.1807787 -0.11595108 -0.4979888
000140 c8 06 43 3e bb 95 37 bf 80 94 6f be af 64 44 3f
       0.19045556 -0.71712846 -0.23396492 0.7671613
000150 e5 be c5 3e 7c e3 1b bf 32 0f 0b 3f 09 cd a9 be
       0.38622203 -0.6089399 0.5432006 -0.33164242
000160 43 75 1d be 6e 98 11 3f 35 88 6f bf aa d1 46 3f
       -0.15376763 0.56873214 -0.9356721 0.7766367
000170 f0 8b 1f bf a1 05 ca 3e dd d7 fe be ce 0c 04 3f
       -0.623229 0.3945742 -0.49774066 0.5158204
000180 49 8b e3 bf 96 9e 10 3f 3a 45 fc bf 74 7a c1 3b
       -1.7776881 0.5649198 -1.9708626 0.00590449
000190 39 1c ab 3e 1f a8 89 3e 1a 0d be bf b9 e0 2c bf
       0.3341997 0.2688608 -1.4847748 -0.675304
0001a0 12 c2 34 bf 7c 50 25 3f 2e b2 c5 bf 3b a5 29 bf
       -0.7060863 0.64575934 -1.5445001 -0.66267747
0001b0 96 b2 7a bf 78 48 47 bf ed 4d 78 bf 6f 48 9f be
       -0.9792875 -0.77844954 -0.96993905 -0.3110995
0001c0 17 da 8d bf d6 ec e6 3d 6f d2 ec bf 19 f2 d4 3e
       -1.1082181 0.112756416 -1.8501719 0.41590956
0001d0 0f e8 11 c0 6f f0 59 3c c1 28 35 bf 25 6a f6 be
       -2.2797887 0.013301953 -0.7076531 -0.48127857

rnn.weight_hh_l0 f4 [60, 15]
000000 72 e8 44 be 6f ff 8a bf 74 0c a2 3d a4 a6 e9 be
       -0.19229296 -1.0859202 0.079125315 -0.4563495
000010 9d 01 7e 3e bb 65 27 3f 87 e9 e5 3d e0 5d 1a be
       0.24805303 0.65389603 0.112261824 -0.15074873
000020 7a 16 4d be 31 97 88 be 90 6f 0b 3d 4b 87 0c 3e
       -0.20028105 -0.2667785 0.03404194 0.13723485
000030 14 13 86 bd a1 f2 81 3e 97 4b 0a be e3 3b 08 bf
       -0.065466076 0.25380424 -0.13505398 -0.5321638
000040 16 57 58 bb 99 ce 01 3f 8b 76 d1 be e2 1b 8d 3e
       -0.0033010892 0.5070587 -0.40910754 0.27560335
000050 e7 98 61 3f c3 f9 04 3e 59 3c c2 be 0e 29 7c 3e
       0.88123935 0.12985902 -0.37936667 0.24625036
000060 65 c4 2a 3e 95 1f 33 3f 89 1f f1 3e 63 60 d7 3e
       0.16676481 0.69970065 0.47094372 0.42065725
000070 85 d9 e7 3e 46 19 b5 3e 1f 67 99 3e 11 24 bd bf
       0.45283142 0.35370845 0.29961488 -1.4776632
000080 3f 4e bd be 38 2d 06 bf ad b2 ff 3d 7a 0d bf 3e
       -0.3697376 -0.5241275 0.124852516 0.3731497
000090 2e e9 9b be a5 85 a8 3d 3b 95 d8 be 11 54 77 3c
       -0.3045134 0.08228616 -0.42301354 0.015095727
0000a0 bb 91 0b 3e f2 2d 0c be 04 db 57 3d 8d 73 9d 3e
       0.1362981 -0.13689402 0.052699104 0.3075222
0000b0 75 5c b2 3c c3 81 9d 3e 69 4e 54 bc 2b 14 1b bf
       0.021772603 0.30763063 -0.012958148 -0.6057765
0000c0 a6 af a7 bd fa a5 4e be 4f b6 1d 3f 51 8e 90 3b
       -0.08187799 -0.20180503 0.61606306 0.0044114967
0000d0 cf 1a 49 3e 03 ce c2 be 5f 1f 14 3e 28 eb fa 3d
       0.19639133 -0.380478 0.14465092 0.12251884
0000e0 10 45 be 3c 1d 48 c6 3e a3 9a 4a be 9d f3 3e bf
       0.023226291 0.38726893 -0.19785552 -0.74590474
0000f0 16 42 27 3f 13 ac ce bd 6d c5 5c bf 41 3b 75 3b
       0.65335214 -0.10091414 -0.8623875 0.0037419351
000100 12 4e 0f be f1 22 03 bd 99 93 5b be 33 d2 35 3f
       -0.13994625 -0.032015745 -0.21443023 0.71023864
000110 15 20 76 be f3 e7 db bd 5f b8 7d 3e 43 28 99 3e
       -0.24035676 -0.107376 0.24777363 0.2991353
000120 46 79 8a 3e c7 56 01 3d 7d 0d 34 bf 9a fc 46 bf
       0.2704565 0.031576898 -0.7033308 -0.7772919
000130 e4 83 3e 3f ac 29 1a 3f ec 3c d2 3e 3d 9b a2 be
       0.7442 0.60219836 0.41062105 -0.31759062
000140 ea 24 24 3f 1f 15 d7 be a2 d8 36 bf a5 2f d9 3e
       0.64118826 -0.42008302 -0.71424305 0.42419162
000150 7c b3 9b 3e 4d ae 87 be e8 c4 71 3e 41 63 d9 be
       0.30410373 -0.26500168 0.2361027 -0.42458537
000160 88 fd 49 be bc 92 62 3f 54 2a 82 3f a6 c9 50 3e
       -0.19725621 0.8850515 1.0169168 0.20389423
000170 a8 fd 58 bf 08 1e a6 be 6d cd 80 3e b2 20 07 bf
       -0.8476205 -0.32444787 0.25156727 -0.52784264
000180 9f a2 ae 3e b8 ad b0 3e 9a 80 bf bd 8b fd 3d be
       0.34108445 0.34507537 -0.09350701 -0.1855375
000190 9e 55 85 3e 66 5e 10 bf 5a 8c 39 bd 75 73 dd 3e
       0.26041883 -0.5639404 -0.045299865 0.4325215
0001a0 a7 b0 1a bf 36 d9 e4 3e d0 5d a9 bf 45 8f 0e bf
       -0.604258 0.4469697 -1.3231754 -0.5568736
0001b0 2e b9 21 bf 7e b0 ad 3e f0 19 79 3e 44 c3 3a 3d
       -0.63173187 0.33923715 0.243263 0.045596376
0001c0 fd c8 c7 3e e7 67 c1 bc 9e 97 65 be 70 47 37 be
       0.3902053 -0.023609115 -0.22421119 -0.17898345
0001d0 09 26 c0 bd 77 6e 7a be 40 e7 0f 3e f1 22 49 3d
       -0.09382255 -0.24456201 0.14053059 0.04910559
0001e0 f5 5e 3f 3f c2 4e 13 3e 41 5e 7d bf 8b 26 61 be
       0.7475427 0.14385512 -0.98971945 -0.21987359
0001f0 8d d8 81 3e be e9 0d 3e 31 44 8d 3e 75 9c 3e 3f
       0.25360528 0.13858697 0.27591088 0.74457484
000200 5e 3f ae bd 13 85 55 be e0 28 9d 3e 75 a7 af be
       -0.0850818 -0.20851545 0.30695248 -0.34307447
000210 17 f3 52 bd 20 0e 84 3e b5 2a d4 be 62 6e 85 3f
       -0.05150136 0.25792027 -0.41438833 1.0424311
000220 81 a9 72 3e a1 c7 93 bf 66 0e a0 be d6 f9 26 3e
       0.23697473 -1.1545297 -0.31260985 0.16306242
000230 b5 b4 97 be 68 be 74 bd 33 86 5b 3f f4 9e 3f 3e
       -0.29630056 -0.059751898 0.85751647 0.1871298
000240 d2 97 1e 3e 55 7a c4 bd 33 b0 b1 be 4a 25 65 3e
       0.15487602 -0.095936455 -0.34704742 0.22377506
000250 ab 1f 0c be 56 98 33 bf 54 11 09 3f 16 fc 73 bf
       -0.13683955 -0.7015432 0.53542066 -0.9530653
000260 4d bf 04 bf 10 8f 5d 3e d5 51 d8 3c b5 dd 8f 3e
       -0.518544 0.21636605 0.026406208 0.28098837
000270 72 93 13 3e 1c ff 05 3f ad f6 1d 3e af b3 98 3e
       0.14411715 0.5234239 0.1542613 0.29824588
000280 08 bb 08 3e e8 bd 09 be f9 50 32 3e fc 7d 22 be
       0.13352597 -0.1345135 0.17413701 -0.15868372
000290 c4 63 81 be 05 1a ff 3e 56 89 98 be d5 56 e3 be
       -0.25271428 0.4982454 -0.2979228 -0.44402185
0002a0 84 89 35 be 6b a9 6b 3e 00 6c 16 bf ac 5a c6 3e
       -0.1772824 0.23013847 -0.58758545 0.38741052
0002b0 ca 45 10 3f 6e c3 d8 3e 99 26 57 3e 20 be 5e bd
       0.5635649 0.423366 0.21010818 -0.054380536
0002c0 12 12 a1 be 87 53 33 be a1 75 43 3f fb b0 43 be
       -0.314591 -0.17512332 0.7635136 -0.19110481
0002d0 e3 ce a0 3e 65 a5 3d be 02 bb 95 be 42 7b 95 3e
       0.31407842 -0.18520124 -0.29244238 0.291956
0002e0 86 13 1b 3d 13 8e 8c 3d 96 c3 27 be 24 a6 aa 3e
       0.037860416 0.06863036 -0.16383204 0.3332988
0002f0 4b bb 7c 3c eb bf 6d 3e c7 df 54 be 5f 9f 07 3f
       0.0154255135 0.23217742 -0.2078849 0.52977556
000300 2c 38 c2 3e b8 af c7 3d a1 dc 55 bf b2 49 ed 3d
       0.3793348 0.097503126 -0.8353978 0.11586322
000310 cf e9 7f 3e 4f 21 7c be b1 57 05 3e 2a 47 35 3e
       0.24991535 -0.24622081 0.13021733 0.17702928
000320 5b 3d 24 bf 58 a1 e6 3e 04 a0 b5 3e f2 c7 1d 3e
       -0.6415612 0.4504497 0.35473645 0.15408304
000330 05 55 03 3f c6 bf 4c be 75 d0 10 3d 1f d0 97 bc
       0.51301605 -0.19995031 0.03535505 -0.018531857
000340 e9 2e 95 3e 0b 99 12 bf ef 1a 14 3f 60 ab 92 bf
       0.29137352 -0.57264775 0.578536 -1.145855
000350 9c 07 05 bf ba 4e 23 bf 40 ba 00 3e 7c 11 19 3f
       -0.51964736 -0.63792 0.12571049 0.59792304
000360 b4 68 09 3c 3e 0c 2c 3e 2f b2 27 be d4 fb 2c be
       0.00838678 0.16801545 -0.16376565 -0.1689294
000370 cb d3 e6 3d 9e 09 aa be 11 d8 fa bc b1 7c 3d bd
       0.11270865 -0.33210462 -0.030620607 -0.046261493
000380 66 cd 74 be 90 7b 89 be f1 75 8b bf 76 5d 34 3e
       -0.23906478 -0.26852083 -1.0895368 0.17613778
000390 da b1 ac bd bf 1f 5e 3e 4b 70 a0 3e 0d 7a 7a be
       -0.0843236 0.21691798 0.31335673 -0.24460621
0003a0 93 56 be 3d 6a 20 74 be 22 a3 dc be ff df 42 bc
       0.092938565 -0.2384049 -0.4309321 -0.011894225
0003b0 71 38 bd 3e 2c c1 f0 bd 56 68 89 3e 83 9d a4 bd
       0.36957124 -0.117555946 0.26837415 -0.080378555
0003c0 0d b3 c9 bd 9b 05 a1 3e 74 bd 05 3e b7 56 a3 3c
       -0.09848604 0.3144959 0.13060552 0.01993881
0003d0 3f 0b d3 bd 6e a8 4a 3f c2 19 87 3e 8b 05 ab bd
       -0.103048794 0.79163253 0.2638684 -0.083506666
0003e0 86 8b 3d 3e 97 f4 33 3f 17 08 f2 bd 44 16 c6 3c
       0.18510255 0.7029509 -0.11817949 0.024180539
0003f0 30 99 07 3f 8d 6e ae 3d cd cd aa be f1 dc 88 3d
       0.5296812 0.0851718 -0.3336014 0.06682766

rnn.bias_ih_l0 f4 [60]
000000 69 2f 80 bd a6 eb 24 3f d0 06 fc 3d e7 31 8b be
       -0.06259043 0.6442207 0.12305987 -0.2718651
000010 7d 47 e5 be 26 87 53 3f e8 f8 a6 bf 60 62 07 be
       -0.44781104 0.82628095 -1.304471 -0.13221121
000020 da 11 80 bf dd 2c af bf c9 16 21 bf 30 30 47 be
       -1.0005448 -1.3685566 -0.6292539 -0.19451976
000030 73 b9 20 bf 30 85 f1 be fc 15 21 bf 76 5e bb 3e
       -0.62782973 -0.47171926 -0.6292417 0.36595505
000040 39 7c db 3e 4d 7e a8 3d 80 5b b6 ba 69 39 28 bf
       0.42868212 0.08227215 -0.0013912767 -0.657126
000050 43 22 3b bf 7f 00 35 bf 38 59 5a 3d 1f 29 04 bf
       -0.73099154 -0.7070388 0.053307742 -0.51625246
000060 75 40 3a bf aa 70 09 bf 4f 69 1a bf 49 3d 8c bf
       -0.72754604 -0.53687537 -0.6031694 -1.0956203
000070 99 51 54 bf 93 d2 5b be 3d 6a d4 be 2b 91 ea 3e
       -0.8293701 -0.21467046 -0.41487303 0.4581388
000080 e8 18 cc 3e 01 30 bb 3e 99 23 8f be 94 a6 d9 bd
       0.39862752 0.36560062 -0.27956846 -0.106274754
000090 04 2b af 3d 46 60 66 be 06 69 2a 3d 04 6b ab 3d
       0.085531265 -0.22497663 0.041604064 0.08370021
0000a0 67 fb 1d bd be 45 5a 3e 00 a9 36 be 24 0f b1 be
       -0.038569834 0.21315667 -0.17837906 -0.34581864
0000b0 d1 22 a2 3c 8a d9 16 be 4e b0 01 3f 54 a5 8d 3d
       0.019791992 -0.14731422 0.50659645 0.069162995
0000c0 31 a3 40 be f9 6e ef be 8f e1 9a 3f 8b 0f b5 bf
       -0.18812253 -0.46764353 1.2100085 -1.4145368
0000d0 6a cc 8c be 13 8d a4 bf 86 c5 a1 bf 5f df 2f bf
       -0.27499706 -1.2855552 -1.2638404 -0.6870021
0000e0 f8 bb c9 be 9e d3 1d bf bf c5 10 bf aa b8 d3 be
       -0.3940122 -0.6165103 -0.56551737 -0.41351825

rnn.bias_hh_l0 f4 [60]
000000 aa 77 30 3e 7d 63 0f 3f 78 90 5c bd 8a c0 25 be
       0.17233148 0.5601118 -0.053848714 -0.16186729
000010 70 d6 e8 be 18 62 1b 3f 87 46 84 bf 6d bd f7 bd
       -0.45476103 0.60696554 -1.0334023 -0.12096677
000020 04 6d 80 bf 70 06 95 bf e3 e0 01 bf bd 81 b3 be
       -1.0033269 -1.164259 -0.50733775 -0.3505992
000030 6e bc 0c bf 93 a8 5a be b5 cf 41 bf cf f1 9e 3e
       -0.5497502 -0.21353368 -0.7570756 0.3104386
000040 48 4c 02 3f cc d5 fb bd 00 74 c3 be 2c 43 25 bf
       0.50897646 -0.12296638 -0.38174438 -0.6455562
000050 34 1b 39 bf ac 48 0f bf e6 05 b9 be 8e 2f 2b bf
       -0.72307134 -0.55970263 -0.36137313 -0.6686944
000060 e9 11 70 bf e0 e7 4c bf b7 7c b0 be 8d 65 85 bf
       -0.9377733 -0.80041313 -0.3447015 -1.0421616
000070 29 e6 6e bf a5 d8 3a be 82 c0 fe be 15 bc c4 3d
       -0.93319947 -0.18246706 -0.49756247 0.09606186
000080 77 e2 a1 3e b1 72 35 3e c8 27 e6 3d 87 51 af be
       0.3161809 0.17719533 0.112380564 -0.34241888
000090 53 ce 9a 3d f9 d6 bd bd 65 9d e6 3d 75 e2 1a 3d
       0.075588845 -0.092695184 0.112604894 0.037813623
0000a0 77 1c f4 bd c8 b9 b7 3e b0 64 98 bd 98 55 0f be
       -0.11919492 0.35883927 -0.074410796 -0.13997495
0000b0 8b 47 c7 3d 27 bb 6d be 42 5c 58 3f b7 2b cd 3b
       0.097304426 -0.23215924 0.84515774 0.0062613147
0000c0 89 5c 1d be 37 3b 6c bf 5d e1 92 3f 9c 62 98 bf
       -0.1536733 -0.92277855 1.1475025 -1.1905093
0000d0 6c 0b 5d be e2 22 63 bf 13 45 88 bf 2e e1 60 bf
       -0.21586388 -0.887251 -1.064608 -0.87843597
0000e0 dc e3 03 bd bf d9 26 bf 74 58 40 be 99 29 c8 be
       -0.032199726 -0.65176004 -0.18783742 -0.39094236

fc.weight f4 [1, 15]
000000 a7 c0 c8 be 60 98 e3 3e 4f 1a 49 3e ec 31 de 3e
       -0.39209482 0.4445219 0.19638942 0.43397462
000010 64 ae 53 be cf 98 48 bf 58 aa 66 3d 92 cd 1b be
       -0.20671993 -0.7835817 0.056314796 -0.15215138
000020 c8 11 54 3d de 10 88 3d 6b 6a 4f be 50 1e 01 3f
       0.05177477 0.06643842 -0.20255439 0.5043688
000030 18 3e af be 79 88 fd be 5c e4 e2 bc
       -0.3422706 -0.49518183 -0.02769678
