checkpoints/with_NUE/longlag_nonlinear_signals_model_weights_1.pth (torch_old, 5589 bytes, 5 tensors)

rnn.weight_ih_l0 f4 [60, 2]
00000000: 04a0 73be fae5 de3e 49bf f0be 545e e8be
00000010: 6cba 93be 13ae 6dbe dea2 13bf 29f9 4abf
00000020: bd66 29bf 34b2 213d 2e77 afbe 117d 8e3b
00000030: 8b41 75be b9f5 81be b663 063f 8830 cb3e
00000040: 1faa 82be c457 64bf 3fad 3cbe b7a9 903e
00000050: 4d33 8b3e f005 cf3e b2b8 8eba 84c2 69be
00000060: 9ddd 823e 064b ec3e 4ceb 9938 3827 433d
00000070: 5e29 f6be eda4 18bd cf26 0bbe 89dd 823e
00000080: 0c17 c7be b8bd cbbe 813a 30be db64 27bd
00000090: f7c6 8dbe f1a8 1bbf 360a bdbe c83b 8dbe
000000a0: 0d13 3bbf 7c33 1cbf 9ce6 f2be 1808 15be
000000b0: fb8c ec3e 2179 26be f306 e2be 5193 29bf
000000c0: 37f8 e6be 8ed8 1cbe c2a8 b23d 4931 703e
000000d0: b298 623e ef27 8a3e e1c8 2ebe 3a6a 113e
000000e0: a90c a43d 1908 573d 7af2 33be fb5c c4bc
000000f0: c16f dbbe 5ed5 553e 4ece d4bd d289 12bb
00000100: 90ae e33d 5f4b 463e 2f2d 733e ed43 37bc
00000110: 9c51 a1be de87 fabd ea1f cdbe 4f56 3abe
00000120: 302d 513e d7d0 dabc ee80 073f 6be1 e0bd
00000130: d681 b33e e843 5cbe d9a6 de3e 56c2 1abd
00000140: 5660 f93e 02fd 1cbe 90a3 8f3e 88db 03be
00000150: e8ad cd3e a05b ec3d afad 2bbe 6a70 11be
00000160: 68f2 4dbe bc09 ecbe eee9 88bc 8363 583e
00000170: 0d2b 0abf ef87 3dbe 2bcc 01bf 63ec 86bd
00000180: 35f0 dfbe c747 acbe abf0 58bf 1c16 883d
00000190: 922e 1abf aa29 25bf e60d 9ebe 3d8e 98be
000001a0: e7c8 1b3f ce35 eb3e 144c c7be 7bf3 7bbf
000001b0: 398b e4bd 0a10 b23e 9e01 073f 276f 213f
000001c0: 0fea f3bd 78b5 f2be 8af9 ea3e 63c1 3d3f
000001d0: 5c46 293e 50f9 e13d 14bd 02bf ab57 89bb
-0.2379151 0.43534833 -0.4702094 -0.45384467 -0.28853166 -0.23210935 -0.5767039 -0.7928644
-0.6617239 0.03947659 -0.34270614 0.004348405 -0.23950784 -0.25382784 0.52495897 0.39685464
-0.25520417 -0.8919642 -0.18425463 0.28254482 0.27187577 0.40434217 -0.0010888784 -0.22828108
0.25559703 0.46150988 7.339436e-05 0.047644824 -0.48078436 -0.03726666 -0.13589023 0.25559643
-0.3888477 -0.3979318 -0.17209817 -0.040867668 -0.2769086 -0.6080466 -0.36921853 -0.27584672
-0.73075944 -0.6101606 -0.47441566 -0.14553869 0.4620131 -0.16257145 -0.44145927 -0.6624041
-0.45111248 -0.15316984 0.08723594 0.23456301 0.22128561 0.26983592 -0.17068817 0.14200678
0.08010227 0.052497957 -0.17572966 -0.023970118 -0.428587 0.20882174 -0.10390912 -0.002235998
0.111172795 0.1936469 0.23747705 -0.011185628 -0.31507576 -0.12232946 -0.4006341 -0.18196987
0.20427394 -0.02671091 0.52931106 -0.10980495 0.35059994 -0.21510279 0.4348667 -0.03778299
0.4870631 -0.1533089 0.28054476 -0.12876713 0.40171742 0.115409136 -0.16765474 -0.14203039
-0.20112002 -0.46101177 -0.016713109 0.2113171 -0.5397194 -0.18508886 -0.5070216 -0.06588056
-0.4373795 -0.33648512 -0.8474223 0.06644842 -0.6022731 -0.645167 -0.3086998 -0.2979602
0.6085343 0.45939487 -0.3892523 -0.98418397 -0.11159367 0.34777862 0.5273684 0.6306023
-0.119098775 -0.47404075 0.45893508 0.7412321 0.16530746 0.11033881 -0.5106976 -0.004191359

rnn.weight_hh_l0 f4 [60, 15]
00000000: 6606 42bd 3998 743e d367 7cbe 01fe 003f
00000010: 67d7 5dbe a975 fd3e 965c 13bf b143 893d
00000020: 8412 4dbe 595d 333e b25c 813d 8c39 cd3e
00000030: b6fb bcbe 1a51 38be 819b b63e ab5d f83d
00000040: 0959 20be 53dd 633e b139 8ebd be38 0cbe
00000050: 07a9 24bd 100c 47be ece3 08be 15eb 49bd
00000060: e05f eb3e 89ff d0be 96a9 3fbc d98b 023e
00000070: ad41 873c 9864 b53d 8396 86be 424b b23d
00000080: a12d cb3e 5502 f3bd 3bfc 6bbe 0f60 60bf
00000090: fe36 3a3d 19a5 bcbe 081d d33e bb0a 093f
000000a0: f3f6 16bf 6560 59be 4b35 f83e 3004 b23c
000000b0: 9053 7cbe ec97 c4be 3b66 a7bd e59d bf3e
000000c0: 7157 11bd 6071 1bbf 2818 d1bd 36e1 e4bd
000000d0: 2a98 05bf c970 90bc 744f 233f 671c e03d
000000e0: 0cd7 aabe b8fe 3b3e ef44 733e 61ae 3abe
000000f0: e734 c6bd dcd3 73bd 6bcb 16be 9572 253e
00000100: a74d b1be 12a9 963c 1efc fabc c7f2 7a3e
00000110: 7b4b 283e 316a 933e b5e1 293e a513 523e
00000120: dc8e 3f3e 9404 9ebd 3830 053e 4eee 643e
00000130: 2c17 c53e bdd9 303f 3740 4b3f 6d16 ca3c
00000140: 4bbd d23e 96c2 95be 131c 28bb 24ee 04bf
00000150: 326e f4bd 5995 d13c 088d 3fbf 0dc7 22be
00000160: 4a92 80be b778 293e 83c3 a3be 2a61 533d
00000170: 9a89 703e ba93 99be 2742 2fbc cd7e 94be
00000180: 73dd 80be 92ef c1ba ef61 0dbe eaf6 babb
00000190: 5ab5 5cbe b139 263e 88a2 843c 6b3b 9b3e
000001a0: 8d0b 0a3e 8c81 5a3e eda1 213e 16df 78bd
000001b0: 8dde b83e a121 d43e 1462 dc3c f28c 24bd
000001c0: 8af6 febd db60 cd3d 79fc e9be 1f27 763c
000001d0: 23a8 87be 240c a73e 3e99 26be ff45 3f3e
000001e0: bde0 eb3c 3470 b9bb 8fb7 de3d 5658 dd3d
000001f0: 7691 acbe 9b74 763e a5cd c0be 9202 0c3e
00000200: 62a4 06be e407 d3bc 6d9f a0be 7b03 113e
00000210: d153 1abe 7a5c ea3d 55d1 303d be22 e53d
00000220: 3c2e 3c3b 4582 91be 2434 723e a603 a2be
00000230: 59a0 1c3f 5d61 a0be ffb0 1b3f 726d 59be
00000240: 6f25 3d3e 0cf9 e53e 2cd3 983e 1deb 3cbd
00000250: be98 00be 693f 223f 1e75 8f3e 288f 353e
00000260: 18eb 6cbe 9a71 193e b744 e83e b142 0abe
00000270: a50e b6be b08b ac3e e9a5 ba3e 29a2 d6be
00000280: b938 e6bc 7534 9c3c f64c d93e d9f6 d5bc
00000290: d3c3 df3d 3672 36be 6d62 a5be be24 bf3d
000002a0: 3015 963c 66a8 9dbe ce6a 1dbf 9fe2 8fbd
000002b0: 304e 59bd dabd 9ebd 1cf6 4a3e c83b 893c
000002c0: c8e4 20be 97ad 9c3e 7123 9c3c 1fdc d6bc
000002d0: 25ab 5c3e f727 1b3f 4749 a23e b50d 343f
000002e0: 0133 363e 479f fc3e 0789 4dbf 855b 06be
000002f0: 91de 5bbe fb76 87be 470a 9dbe faae b5be
00000300: ef7d e6bc d4a0 26be 457f e73e a07d 973d
00000310: a7e0 d7be e4f8 0d3e a376 9bbe 275c 5cbd
00000320: 00b6 d6be 7277 a5bc 15d6 93be 0fe3 19bd
00000330: 8790 b5be b8fd b6bd bc38 14be 9eb8 1e3d
00000340: 3f63 5a3e 04f7 d93d 5fd5 003c 7dca bdbd
00000350: c806 6cbe 473f 093d 1283 dabe db1b 473e
00000360: f0e7 60be 3300 7ebe 1df6 4abd bd76 323e
00000370: 3f79 bfbe 840a c53e 2c5f 9fbe 8f4f 6f3e
00000380: 37fa 64be 7208 663e 608d eabd c26c 5abe
00000390: 0f67 a9bd d072 333e 6b49 30be 1082 a4bd
000003a0: 6c7c 9bbe f7f6 6ebe 58bc 103e 1edd 94be
000003b0: 7173 ae3d 04fe 9bbe 0380 b9bd 4767 7f3e
000003c0: eff5 85bd 5261 e73d 03fa 253e 725f 293e
000003d0: 9e9d 0bbe bde4 453e d80b 35bd 6d13 f7be
000003e0: 4900 adbe fb68 e53d d52a 86be 4f4d 8bbe
000003f0: 23c1 a0be 3f4e 82bd 4aba 2b3e 713c 6bbc
-0.047369383 0.23886193 -0.24648981 0.5038758 -0.216642 0.4950383 -0.5756315 0.06702364
-0.20026594 0.17516078 0.06316508 0.40082967 -0.3691079 -0.17999688 0.35665515 0.12127241
-0.15658964 0.22252397 -0.069445975 -0.1369352 -0.04020026 -0.19438195 -0.13368195 -0.049296457
0.45971584 -0.40819958 -0.011698147 0.1274866 0.016510809 0.08857077 -0.26286706 0.087057605
0.3968325 -0.11865679 -0.23045437 -0.87646574 0.0454626 -0.3684471 0.41233087 0.53532
-0.58970565 -0.21228178 0.4847816 0.021730512 -0.24641252 -0.38397157 -0.08173796 0.3742515
-0.03548378 -0.6071987 -0.102096856 -0.11175768 -0.5218531 -0.017631905 0.6379311 0.10942917
-0.33367193 0.18358886 0.23756765 -0.18230583 -0.09678059 -0.059528217 -0.14726035 0.16156991
-0.34629557 0.018391166 -0.030637797 0.24506675 0.16435044 0.28791955 0.16590007 0.20515306
0.1870684 -0.07715717 0.13006675 0.22356531 0.3849424 0.6908224 0.7939486 0.024668897
0.41160044 -0.2925002 -0.00256515 -0.51925874 -0.119350806 0.02558391 -0.7482457 -0.15896244
-0.2511161 0.16549955 -0.319851 0.051606335 0.23489991 -0.2999552 -0.010696924 -0.2900299
-0.25168952 -0.0014796129 -0.1380689 -0.005705704 -0.21553555 0.16232945 0.016190782 0.3031877
0.13480969 0.2133848 0.15784426 -0.060759626 0.36107293 0.41431907 0.026902236 -0.04017348
-0.12449367 0.10028239 -0.45700434 0.015023976 -0.26495466 0.3262645 -0.16269395 0.18679045
0.028793687 -0.0056591276 0.10874855 0.10807864 -0.33704728 0.24067919 -0.37656894 0.13672855
-0.13148645 -0.025760598 -0.31371632 0.14161484 -0.15071036 0.1144342 0.043168385 0.11188267
0.0028714081 -0.284197 0.23652703 -0.3164341 0.6118217 -0.31324282 0.6081695 -0.21233156
0.18471311 0.4491657 0.2984861 -0.04612266 -0.12558267 0.63378006 0.2801904 0.17730391
-0.23136556 0.14984742 0.45364925 -0.13502003 -0.35558048 0.33700323 0.36454704 -0.41920593
-0.02810322 0.019067982 0.4244153 -0.026118683 0.109260224 -0.17817006 -0.32301655 0.0933318
0.01832065 -0.3079254 -0.61491096 -0.070256464 -0.05305308 -0.07751055 0.19820446 0.016752139
-0.15712273 0.3060119 0.019059869 -0.026228009 0.21549661 0.60607857 0.3169653 0.70333415
0.17792894 0.4934027 -0.8028721 -0.1312085 -0.21471621 -0.26457962 -0.30671903 -0.3548506
-0.028136222 -0.16272289 0.45214286 0.07397008 -0.42163584 0.13864475 -0.3036395 -0.05379882
-0.4193573 -0.020198558 -0.2887427 -0.037570056 -0.35461828 -0.08935112 -0.14474767 0.038750283
0.21326922 0.106428176 0.007863372 -0.09267137 -0.23049462 0.03350761 -0.42678124 0.1944422
-0.21963477 -0.24804763 -0.04955112 0.17428108 -0.3739719 0.38484585 -0.31127298 0.23370193
-0.22361074 0.22464159 -0.114527464 -0.2133055 -0.0827161 0.17524266 -0.17215507 -0.0803262
-0.30368364 -0.23336397 0.14134347 -0.2907495 0.085181125 -0.30467236 -0.090576194 0.24941741
-0.06541049 0.11297859 0.16208653 0.16540316 -0.13634345 0.19325538 -0.04420075 -0.48257008
-0.3378928 0.11201664 -0.26204553 -0.2720742 -0.31397352 -0.063625805 0.16770282 -0.014357672

rnn.bias_ih_l0 f4 [60]
00000000: 7ddd 493e b045 a7be 49ee 10bf c36b 6cbe
00000010: 8df8 70be 3f18 223f 723a f7be fad4 a43e
00000020: 7654 923d bc54 283f b491 0e3f 93ca b5be
00000030: a866 743d 2a33 ccbe 1e0b edbd c2ac 75be
00000040: 632d 8ebe c687 01be 0269 bebe 631f 54be
00000050: 7585 3a3e 5f37 173c 4e36 1bbd 9bcd 21be
00000060: 02d4 cabc cbdf 1dbe a145 4e3e ce22 28be
00000070: 6bbc 273d 69b8 bfbb 6fe9 853e aa8a d6bd
00000080: 2ea6 1a3e 8cd8 203e 7ae0 953e 9cfa a63e
00000090: a353 de3d 416b f4bd 5bc4 1fbe dd05 aabd
000000a0: 72c0 4fbe b66b 53be 7838 acbe a89d 76bc
000000b0: 3e39 0ebc 5ffe 143f 8f71 c6be 64ec 20bf
000000c0: ed36 3cbe 0205 20bd 08e4 cd3e 78c5 32be
000000d0: 0e11 613d f847 1a3d 1d31 ac3e 35c2 843d
000000e0: 6b02 823d 5618 b13e 6a7a acbe cfb3 e8be
0.19713397 -0.32670355 -0.56613594 -0.23087983 -0.23532315 0.63318247 -0.48286778 0.32193738
0.07145016 0.65754294 0.55691075 -0.35506114 0.059668213 -0.39882785 -0.11574386 -0.23991683
-0.27769002 -0.1264945 -0.3718949 -0.20715098 0.18214972 0.00922951 -0.037893586 -0.15801089
-0.024759296 -0.15417401 0.20143749 -0.16419527 0.040951174 -0.005850841 0.26154658 -0.10475667
0.15102455 0.15707606 0.29272825 0.32613075 0.10855796 -0.119345196 -0.15602247 -0.083018996
-0.20288256 -0.20646557 -0.33636832 -0.015052237 -0.00868064 0.5820064 -0.38758513 -0.62860703
-0.18380328 -0.039067276 0.40213037 -0.17458141 0.054947905 0.03766629 0.3363122 0.064823546
0.063481174 0.3458888 -0.33687145 -0.45449683

rnn.bias_hh_l0 f4 [60]
00000000: 65ac e43e 6525 d9be c02d 14bf b8f9 13bf
00000010: 7a32 3a3e 58f1 1b3e a9c9 38be 82d9 993e
00000020: 0565 4f3c cd70 843e 7f66 a53e ac97 5fbe
00000030: 2f71 a03e 1551 8dbe bc2a e4be fc60 3bbe
00000040: 1f06 d2be 329c 0cbf 47c6 c2be dec8 83be
00000050: c453 0f3e 85d9 c1be 2201 64be 1b89 55be
00000060: b87c 763c 1f8f d0be 2673 793e 69d0 41be
00000070: 11e3 903c 448a 21be a24b 973d 0aaa 463e
00000080: 39d8 6dbe b465 b93d b98c 863c 3863 1e3e
00000090: 8362 6fbe 96cb 48be 9c56 c4bd ed17 85be
000000a0: 0feb 7cbd ff61 86bd ea19 91bd 9b4b a93d
000000b0: 3d9e 833e cfab f13d c9cb 25bf b3b0 34bf
000000c0: e125 f4be e61b 03be aeea 483e dd34 0ebf
000000d0: 8cfd b03e e692 4fbe 3046 fe3e dc20 ab3e
000000e0: c70b 0b3d 533e 783e a499 56be 3f60 c8be
0.44662777 -0.42411342 -0.5788231 -0.57802916 0.18183318 0.15228784 -0.18045677 0.30048758
0.012658362 0.2586731 0.3230476 -0.21835202 0.31336352 -0.27600923 -0.44563854 -0.18298715
-0.41020295 -0.54925835 -0.380419 -0.25739187 0.13996798 -0.37861267 -0.22266057 -0.20853083
0.015044384 -0.40734193 0.24360332 -0.18927158 0.017686399 -0.157754 0.07387473 0.19400802
-0.23227014 0.090526015 0.016424524 0.15467536 -0.23377423 -0.19608912 -0.09586832 -0.25994816
-0.061747607 -0.0656166 -0.07085021 0.08266374 0.25706664 0.11800348 -0.64764076 -0.7058212
-0.4768515 -0.12803611 0.19620773 -0.5554941 0.3456844 -0.20270881 0.49662924 0.33423507
0.03394678 0.24242525 -0.20957047 -0.3913593

fc.weight f4 [1, 15]
00000000: 997e 1c3f fd43 ba3b 8776 00bd a35d 55bd
00000010: 1249 903e 2263 1f3f 5089 d73b f97d e7be
00000020: 4e14 97be adfb ecbe e2ab ddbe 007a 9fbe
00000030: 8718 eabe 2673 813e 8b2f 763d
0.6113067 0.0056843744 -0.031363036 -0.052091252 0.28180748 0.6226064 0.006577648 -0.45213297
-0.2950768 -0.46285763 -0.432952 -0.31147766 -0.45721838 0.25283164 0.060103934
