checkpoints/with_NUE/longlag_nonlinear_signals_model_weights_cond1.pth (torch_old, 5349 bytes, 5 tensors)

rnn.weight_ih_l0 f4 [60, 1]
00000000: 0870 cebf 3cb3 e4bf dc90 da3e 5382 9abf
00000010: 13b2 45bf b353 74be b2fc 24bf e132 c4bf
00000020: 23ee c0be ccb7 c3bf 4d0c 80be 5341 25c0
00000030: 575f b23f 8586 09c0 88e4 95bd fb0d 47bf
00000040: 5d1c 56bf 6331 ffbe 90a0 fcbe 0ef2 213e
00000050: 37d7 613e 63ea 2abf 3cfe 75bf 6c87 cf3e
00000060: 8464 8ebf 380e a43c 147c f0bd 3824 2c3f
00000070: 5b26 cebf 9cd8 5fbf b637 2b3f 5a63 083f
00000080: 02ed 30bf 2a57 02bf ded5 5abe 04ea 2e3f
00000090: c061 f83e 138a a73f 91a7 a4be f309 2b3e
000000a0: 1b76 37bf 5664 37bf b811 1fbf ac83 6a3f
000000b0: dc2e 5a3f bdd8 79bf 00c8 afbf 2d24 5d3e
000000c0: c8d8 46c0 a372 a7be 1f80 aabe a82d 92bf
000000d0: d0c8 d6bf c74e bd3d b019 eebf 2745 b0be
000000e0: 1271 86bf 26fe 323f 8b3c e2bf 5d08 803c
-1.6127939 -1.7867198 0.42688644 -1.2071022 -0.77224845 -0.23860054 -0.6444808 -1.5328027
-0.37681684 -1.5290465 -0.25009385 -2.582112 1.3935345 -2.1488354 -0.073189795 -0.7775571
-0.8363703 -0.49842367 -0.4934125 0.15814993 0.22054754 -0.66763896 -0.96091056 0.40533006
-1.1124425 0.020026311 -0.11742416 0.67242765 -1.6105455 -0.87439895 0.66881883 0.532766
-0.69111645 -0.5091425 -0.21370646 0.6832583 0.48512077 1.3089012 -0.32159093 0.16703014
-0.7166459 -0.71637475 -0.6213641 0.91607165 0.8522775 -0.9759634 -1.373291 0.21595831
-3.1069813 -0.32704648 -0.33300874 -1.1420183 -1.6780033 0.09243541 -1.8601589 -0.3442776
-1.0503256 0.6991905 -1.7674726 0.015628988

rnn.weight_hh_l0 f4 [60, 15]
00000000: 6be1 b3be c008 e3be 3339 623e 1c97 403f
00000010: 744a 8f3e da26 223f 30f5 05bf 7906 08bf
00000020: 9aaf e33d 91e3 a73e b806 423f 0bf9 473e
00000030: 96e3 7f3f f1dd cdbf 4c2e 3bbf 74d5 a6be
00000040: 38a7 68be 8498 983e 7b65 453f 05c3 813f
00000050: 1b70 d63d 4e6a c23d fcf8 47bf 316c ee3e
00000060: 1916 78bb 474d 0fbd af35 6c3f 7477 b23f
00000070: f3bd a8be 9d4a 4cbf 9ad3 85bd 7f67 a1be
00000080: fd6d 5ebe b3b9 ee3f eb53 4d3e b784 03c0
00000090: dd09 2dbd 877b eabe aa00 ee3f 5057 003f
000000a0: c8f7 abbe 29b2 a63e f8ed efbe 6e19 12bf
000000b0: 4a91 acbd fd7b 33bd 0c90 9abd e484 ea3e
000000c0: 45b8 80bc ee87 93bf ffa7 26bc 4f51 8a3d
000000d0: a44a ba3f 7a9f f23e 6938 fb3d 52fb cbbf
000000e0: 52c1 f1be 750c d1be 2ac9 803f 2f40 f7be
000000f0: bca4 7dbf 38d9 4ebf 566c b8be c5b2 403f
00000100: ab15 50bf 323b 273f 6a79 d0be 10ce 1cbd
00000110: e8da ba3d cc6b 173e 67a2 1a3f ce2b 213f
00000120: 1fc5 d9be e5cd d5be 993a 2b3f 2bac d4be
00000130: 74a4 91be 77eb 0fbf 238c 833c 5948 afbf
00000140: 7bbb 253e cd85 c4bf d497 913f e498 eb3d
00000150: f126 af3f d38f 723e 5a29 ec3e 07a3 67be
00000160: 731e 9c3e 0002 9b3f 80da 8d3e dd93 73be
00000170: fe5f d1be 5a43 c7be 33af 69be 3c5e 3a3f
00000180: c553 96bf e9f7 9b3e 7fa5 333e dbe2 123f
00000190: 14a5 0fbf c874 18bf 6a08 923f e0f1 01bf
000001a0: a65e cc3e 8a87 86be 0068 963e 5760 d53e
000001b0: 05cb 00bf 276c 33bf c5ff 383f 4a79 24bf
000001c0: a233 053f b403 a6be c03f b03e 4523 05bf
000001d0: d9d9 033f e1cc 8a3e 3f8c 133f fe3c 0bbf
000001e0: 5da2 58bf 626a 24bf d2be 913d 0b1b 1cbf
000001f0: 79bb d2be f818 653e 6b1e e8be af7f 24bf
00000200: 104c 20bf 82a6 acbe eb30 4f3f 5f35 083f
00000210: 0cba 90bf 9da9 8cbf 3075 cbbe 6d28 82be
00000220: 5b8c adbe eed3 643e 7b85 15c0 65a4 08bf
00000230: a26f 2e3f 6577 49be 14e2 d93c ba82 79be
00000240: d35e adbd 23ec 00bf ac74 a6be 13ad 953e
00000250: 487b 76bd 9c9d 82be 1fc4 bbbe cb7b 5abf
00000260: 1318 58bf 241b 433f ad36 023f 41b5 e8be
00000270: 9f6e aabe 11e8 3bbe 9094 a0bd 6dce 013d
00000280: bccc 3abf b31c 7f3d fcd7 cabc 4801 23bf
00000290: 1912 19be 1065 a83e 2851 e0be e68b 5d3f
000002a0: 02ba 72be 5a0b 8d3f 2ed9 62bf ecfc b5bd
000002b0: 44f9 66bf 49a1 273f 0aae 38be db71 4abf
000002c0: 52d5 01bd 784e 4d3f a30e ccbf b433 d9bf
000002d0: 48ca eb3e a921 233f 0598 613f 0b0e a23f
000002e0: 886d debe e0f8 e33e 419c a33f d482 a43f
000002f0: 1af1 40be d9bd 223f 054d eebe 4663 a3be
00000300: d192 cbbf d40f 5340 bdd6 163f c5b7 58bf
00000310: 0d7d 813a 896c 7e3e faad b3be 5601 e83d
00000320: 804c 443f 48f8 6abe e438 86bd 9377 5f3e
00000330: d979 b73d 6663 babd efad 143f 0278 81bc
00000340: 72b1 b8be 9eed 40bf 1068 2dbf a8c1 36bf
00000350: 6c35 853d 5f4d febe e768 29be 3ba5 ed3e
00000360: 6efd 4a3e fdcd 80be 7c89 d03d a85a a13c
00000370: dfcf 2abf c701 413f 10ae a4bf 8245 b33d
00000380: f8fb c5be ec6d 09bf c175 4abf dcc8 75bf
00000390: 009c 073f 653d 8ebe 1300 c1be f638 49bf
000003a0: c0d9 3fbf 769f 6e3f bf69 943d cbf5 583c
000003b0: f8f7 093f d842 69be 4992 88bf 59ae a5be
000003c0: 35cd fdbe 61e2 82be 9862 d33e f6c2 793f
000003d0: c6a4 c93e d38f 4dbe 4989 0fbe dc19 a2be
000003e0: 520b a23f 61b7 2f3d b9fb 2fbe 6587 153f
000003f0: 66f0 5a3f ecfb b6be f2d9 1cbf d0ec 193f
-0.35132918 -0.44342613 0.22092132 0.75230575 0.2798649 0.6334053 -0.5232725 -0.53134876
0.11117478 0.32790807 0.757915 0.19528596 0.99956644 -1.6083356 -0.7311752 -0.32584727
-0.22720039 0.2980386 0.7710797 1.013764 0.10470601 0.09492932 -0.78114295 0.46566918
-0.0037854968 -0.034985807 0.92269415 1.3942704 -0.3295742 -0.7980135 -0.065345004 -0.31524274
-0.21721645 1.8650421 0.20051543 -2.0549753 -0.042245734 -0.4579737 1.8593953 0.5013323
-0.3358748 0.325578 -0.46861243 -0.5707005 -0.08426149 -0.043819416 -0.07547006 0.45804513
-0.015712867 -1.1525857 -0.010171889 0.0675379 1.4554029 0.47387296 0.12266619 -1.5936072
-0.47217804 -0.40829816 1.006139 -0.48291156 -0.9907949 -0.808002 -0.36020154 0.7527278
-0.8128306 0.653247 -0.40717632 -0.038282454 0.09123784 0.14787215 0.60404056 0.62957466
-0.42533204 -0.41758648 0.6688629 -0.41537604 -0.2844578 -0.56218666 0.016058033 -1.3693954
0.161848 -1.5353333 1.1374459 0.11503771 1.3683759 0.23687677 0.461253 -0.22620784
0.3049198 1.2109985 0.27705765 -0.23786874 -0.4089355 -0.38918573 -0.2282074 0.7280004
-1.1744314 0.30462578 0.175436 0.57377404 -0.56111264 -0.59553194 1.1408818 -0.50759697
0.3991596 -0.26275283 0.2937622 0.41675064 -0.50309783 -0.700869 0.72265273 -0.6424757
0.5203191 -0.324247 0.34423637 -0.5200694 0.51504284 0.27109435 0.57635874 -0.5438994
-0.84622747 -0.6422483 0.07116474 -0.60978764 -0.41158655 0.22372806 -0.45335707 -0.6425733
-0.6261606 -0.33720785 0.8093402 0.5320644 -1.1306777 -1.0989262 -0.39737844 -0.25421467
-0.33896145 0.2234647 -2.336272 -0.53375846 0.6813909 -0.19674452 0.02659706 -0.24366274
-0.08465352 -0.50360316 -0.3251089 0.29233608 -0.060176164 -0.2551087 -0.36673066 -0.85345143
-0.84411734 0.7621329 0.5086468 -0.45450786 -0.33287522 -0.18350245 -0.07840836 0.031691004
-0.7296865 0.06228323 -0.024761193 -0.6367383 -0.1494831 0.32889605 -0.43811917 0.86541593
-0.23703769 1.1019089 -0.8861264 -0.08886132 -0.902241 0.65480477 -0.1803514 -0.7907998
-0.03169758 0.8019786 -1.5941967 -1.6968904 0.46052766 0.63723236 0.8812259 1.2660536
-0.4344294 0.44525814 1.278206 1.2852426 -0.18841973 0.63570935 -0.46543136 -0.31911677
-1.590418 3.297841 0.58921415 -0.8465541 0.0009879187 0.2484609 -0.3509367 0.1132838
0.7667923 -0.22946274 -0.0655382 0.21822958 0.089587875 -0.0910099 0.580779 -0.015804294
-0.3607288 -0.75362575 -0.6773691 -0.71389246 0.0650433 -0.49668404 -0.16543923 0.46415123
0.19823238 -0.25157157 0.10182473 0.019696549 -0.66723436 0.75393337 -1.286562 0.08753492
-0.386688 -0.5368335 -0.7908593 -0.9600961 0.5297241 -0.27781215 -0.3769537 -0.7860254
-0.74941635 0.9321207 0.07246732 0.013242195 0.53893995 -0.22779405 -1.0669643 -0.3235958
-0.49570623 -0.25563338 0.4128616 0.9756311 0.39383525 -0.20074396 -0.14017214 -0.31660354
1.2659705 0.042899493 -0.17185868 0.5840972 0.8552307 -0.35739076 -0.6127006 0.6012697

rnn.bias_ih_l0 f4 [60]
00000000: d0d0 b1be 20d7 d0be 98dd a1bc c945 b2be
00000010: f995 1fbf 2cba b43e 5d47 773b b61f 13bf
00000020: 82ca c3bd cb07 19bf bbc2 483e 89a7 e7bd
00000030: 8e1a dfbe da31 7bbe 4605 f33d 26de 39be
00000040: 7d24 f4be 4201 99be f252 7b3e 836b c53e
00000050: 4e45 e5bd d077 94bd e7f6 a4be c6e9 883e
00000060: 0bfd b5be 47df f13e 3a98 543e fc15 153e
00000070: 8913 8dbe 60c7 7abe a653 1a3e eb91 75be
00000080: ce40 9e3e 1056 8abd e060 673d e649 91be
00000090: a6a3 4dbe f535 36be 87b2 7f3e 5685 4f3e
000000a0: 87c9 223d 9c9f 8b3e 501d 323e fbd1 b3be
000000b0: e31a 97be ba7a 0dbf fe74 70be 4d9c eabd
000000c0: f490 02bf ae10 06be 7370 55be 6e4e 96be
000000d0: 58a6 2cbf ab13 3a3e aa2a dfbe 139a ccbd
000000e0: 5416 f6bd 81ac 58be 1eee 76be 6bc5 8a3e
-0.34729624 -0.40789127 -0.019758984 -0.34818867 -0.62338215 0.35298288 0.0037731745 -0.5747026
-0.0956011 -0.59777516 0.19605534 -0.11311252 -0.43574947 -0.24530736 0.1186624 -0.18151149
-0.47684088 -0.29883772 0.2454336 0.38558587 -0.111948594 -0.07249415 -0.32219622 0.26740855
-0.3554462 0.4724066 0.20761195 0.14559168 -0.27553967 -0.24490118 0.15070972 -0.23981445
0.30908817 -0.06754696 0.05648887 -0.28376693 -0.20081958 -0.1779402 0.24970447 0.20265707
0.039742973 0.2727021 0.17393994 -0.3512114 -0.295127 -0.5526539 -0.23482129 -0.11455593
-0.5100243 -0.130923 -0.20843677 -0.29356712 -0.6744132 0.18171565 -0.43587238 -0.09990325
-0.120159775 -0.21159555 -0.24114272 0.27103743

rnn.bias_hh_l0 f4 [60]
00000000: 0e98 22bf 557d 65be 1729 e2bd f956 49be
00000010: 7ce1 4abf b625 713e 6744 22bd a091 5ebe
00000020: 155e fbbd c50d debe a15e 5d3e 36da 92be
00000030: 05d8 f6be fa36 60bd 2d03 0d3e 4895 03bf
00000040: 98bf e7be 9086 5bbe 23b4 d23e e845 e13e
00000050: 1f1b c2be 85ea b73d 1f35 d9be 3bd0 433e
00000060: 26ae 1abf 3271 ee3e d003 d03c 0480 103d
00000070: 70f2 d4be ede1 bbbe eabc 8abe 37c1 51be
00000080: a8c6 bd3d 1af3 a9be 9d2a 883e 49a5 adbe
00000090: 06e0 cebe f25f 4bbe 67c9 0f3d ebfe 613e
000000a0: 4803 01be ef7e 1c3e 5538 573e df0d e9be
000000b0: 8530 6dbd 0174 2abf 0483 0cbf e605 e5bc
000000c0: 04df 10bf 1724 92be ac08 27be e001 113e
000000d0: eac6 e9be c032 fb3d bb73 44bf 729a 2dbe
000000e0: 45c8 abbd 12b7 90be a8fd 94be a5af 533d
-0.6351327 -0.22411092 -0.110429935 -0.19662084 -0.7925031 0.23549542 -0.039616015 -0.21735239
-0.12273804 -0.4336988 0.2161813 -0.28682107 -0.48211685 -0.05473993 0.13770743 -0.5139966
-0.45263362 -0.2143805 0.41153058 0.43998647 -0.37911317 0.08980278 -0.4242334 0.19122402
-0.6042198 0.46570736 0.025392443 0.035278335 -0.41591215 -0.36695805 -0.27097255 -0.20483862
0.09266406 -0.33193284 0.2659501 -0.33915165 -0.4040529 -0.19860819 0.03510418 0.220699
-0.12598908 0.15282796 0.21017583 -0.45518395 -0.0579076 -0.6658326 -0.54887414 -0.027956914
-0.56590295 -0.2854316 -0.16311902 0.14160872 -0.45659572 0.12265539 -0.7673909 -0.16953447
-0.08387808 -0.28264672 -0.29099774 0.05168118

fc.weight f4 [1, 15]
00000000: 9066 233e 0cfb 383d e93f c2be 0900 aebd
00000010: 1203 f1be 1f38 cdbe e812 9bbe f732 d7bd
00000020: 21df a03e fbfa 363e 95d6 2e3e ea8a e33d
00000030: 88cb 563c 6d35 853d 3c28 263e
0.15957093 0.045161292 -0.37939385 -0.084961005 -0.47072655 -0.4008188 -0.30287862 -0.10507768
0.31420234 0.17869179 0.17074044 0.1111048 0.013110049 0.06504331 0.16226286
