checkpoints/with_NUE/nonlinear_signals_model_weights_3.pth (torch_old, 5589 bytes, 5 tensors)

rnn.weight_ih_l0 f4 [60, 2]
0	0xbe01f7a2	-0.1269212
1	0xbf146eaa	-0.5798136
2	0xbdc3defd	-0.09564016
3	0xbf03f1e2	-0.5154096
4	0xbe5d1a85	-0.21592148
5	0xbf2f9bd7	-0.6859717
6	0xbe83b076	-0.25720567
7	0xbf7bbca5	-0.98334724
8	0x3e87e742	0.26543623
9	0x3e957571	0.29191163
10	0x3eda3e2d	0.4262556
11	0xbe2fa2aa	-0.17151895
12	0xbe0812da	-0.13288441
13	0xbf112a39	-0.5670505
14	0x3dd372ed	0.10324655
15	0xbf283b64	-0.6571562
16	0xbf3a0369	-0.72661453
17	0xbe3beaa7	-0.18351232
18	0xbec2c412	-0.38040215
19	0xbf0a2574	-0.539634
20	0xbd2b4a82	-0.041819103
21	0xbee05943	-0.438181
22	0x3e212860	0.15738058
23	0xbe9dc37d	-0.30813208
24	0xbe80446c	-0.25052202
25	0xbd065123	-0.03279222
26	0xbe1ec183	-0.15503506
27	0xbdc80fef	-0.09768664
28	0x3e65925f	0.22419117
29	0xbea90172	-0.33008915
30	0xbd25f25c	-0.040514335
31	0xbf106c65	-0.56415397
32	0xbe8fcc4b	-0.2808555
33	0xbe83b637	-0.25724956
34	0xbee03df5	-0.4379727
35	0xbeff0da3	-0.49815091
36	0xbea8879b	-0.3291596
37	0xbf3d23ba	-0.7388264
38	0xbdaa0e98	-0.08303565
39	0xbdc4f0cc	-0.09616241
40	0xbe8410eb	-0.25794157
41	0xbf021e07	-0.5082707
42	0xbe3f7a9b	-0.18699114
43	0xbf0bc7cd	-0.54601747
44	0xbf047ac8	-0.5174985
45	0xbec25b8f	-0.3796048
46	0xbec65dd9	-0.38743475
47	0xbe5a2452	-0.21302918
48	0xbd81c31b	-0.063360415
49	0xbdf3be37	-0.11901515
50	0xbe158158	-0.14600122
51	0xbe596d0f	-0.21233009
52	0x3dd00744	0.10157636
53	0xbe5993a5	-0.21247728
54	0xbeb8ff0e	-0.3613209
55	0xbea00e85	-0.31261078
56	0x3e191ad5	0.14951642
57	0xbea282a1	-0.31740287
58	0xbe098e1f	-0.13433121
59	0x3c84e051	0.016220244
60	0xbda52a56	-0.080647156
61	0xbdfa269e	-0.12214397
62	0xbd00137c	-0.03126858
63	0x3d3f9068	0.046768576
64	0xbd22d572	-0.03975434
65	0x3e3200e7	0.17383157
66	0xbe85a8bf	-0.26105306
67	0xbe308d65	-0.17241438
68	0x3e07cf58	0.13262689
69	0x3f280c48	0.6564374
70	0x3e1833e2	0.14863542
71	0xbf0f494f	-0.55971235
72	0xbe97f593	-0.29679546
73	0x3e7db117	0.24774586
74	0x3e7574b6	0.23970303
75	0xbece6912	-0.40314537
76	0xbe3788b6	-0.17923245
77	0x3b4d6e25	0.0031346169
78	0x3e0b6ff7	0.1361693
79	0xbd428d10	-0.04749781
80	0xbdd89813	-0.10575881
81	0x3e190ff3	0.1494749
82	0xbdcc9a02	-0.09990312
83	0x3e37fbfc	0.17967218
84	0x3d153405	0.036426563
85	0xbe8e0f82	-0.27746207
86	0x3dc866e1	0.097852476
87	0x3eb2596f	0.34833857
88	0x3dad8d02	0.08474161
89	0xbeb881d3	-0.36036548
90	0xbed2fe3d	-0.41209593
91	0xbf1972f7	-0.5994105
92	0xbe9ae1dc	-0.30250442
93	0xbea7b84d	-0.32757798
94	0xbe8acc94	-0.27109206
95	0xbf2bb864	-0.6707823
96	0xbead404e	-0.33838123
97	0xbf72a7f9	-0.94787556
98	0x3efee2a3	0.49782285
99	0xbe82e37f	-0.2556419
100	0x3e2d6b50	0.16935468
101	0x3d1b3d9d	0.037900556
102	0xbea62fc8	-0.3245833
103	0xbf605c5f	-0.8764095
104	0xbcd140ee	-0.025543656
105	0xbf3b990e	-0.7328042
106	0xbf295343	-0.6614267
107	0xbea5a0bb	-0.3234919
108	0xbefad861	-0.4899321
109	0xbeca8af4	-0.39559138
110	0xbed5ecea	-0.41782314
111	0xbdcfe110	-0.10150349
112	0xbdac746d	-0.08420644
113	0xbef89a02	-0.48555
114	0xbe079e3b	-0.13243954
115	0x3e36abbd	0.1783895
116	0x3e773b05	0.24143608
117	0x3ccf3096	0.025291722
118	0x3ebf47a4	0.37359345
119	0x3e3f0530	0.18654323

rnn.weight_hh_l0 f4 [60, 15]
0	0x3dd2958b	0.10282429
1	0xbd8812d0	-0.06644213
2	0xbea10ffe	-0.31457514
3	0x3ea5f0a3	0.32410154
4	0x3eaad980	0.33369064
5	0x3e94e0e9	0.29077843
6	0xbd2f3851	-0.042778317
7	0x3e959527	0.29215357
8	0x3d1a645b	0.037693363
9	0xbeab8e81	-0.3350716
10	0xbe5d031b	-0.21583216
11	0x3ee6b406	0.45059222
12	0xbcb9eb96	-0.022695344
13	0x3dadd72d	0.08488307
14	0x3e9a1404	0.30093396
15	0x3eb911b0	0.36146307
16	0xbeb0a11a	-0.3449791
17	0x3eb1a927	0.34699365
18	0x3c7449c4	0.014910165
19	0xbc989247	-0.018624438
20	0x3e924ebd	0.28575698
21	0x3e626c82	0.22111705
22	0xbf172796	-0.5904478
23	0xbedb0f13	-0.42784938
24	0xbe2b2096	-0.1671165
25	0x3d161f18	0.036650747
26	0xbd16f182	-0.036851414
27	0x3e079f53	0.13244371
28	0x3ddce054	0.10784975
29	0x3e21cfd5	0.15801938
30	0xbc2e72c9	-0.010647484
31	0xbec1002d	-0.37695447
32	0x3d096d89	0.033551726
33	0xbe998e98	-0.29991603
34	0x3ed0bf9f	0.40771195
35	0x3d973f5e	0.07385133
36	0xbdee4467	-0.116341405
37	0x3e9ab8a7	0.30219004
38	0xbe3a9ac9	-0.18223108
39	0xbed6e1b4	-0.41969073
40	0xbea3046d	-0.31839314
41	0x3e01309a	0.12616196
42	0x3e59f5b9	0.21285142
43	0x3e4cf3f3	0.20014934
44	0xbd9be57d	-0.07612131
45	0xbe99b020	-0.30017185
46	0xbe0df7c9	-0.13864054
47	0xbe0bdb3a	-0.13657847
48	0xbe57c947	-0.21072875
49	0xbcaec68c	-0.021334909
50	0x3ecfc0ab	0.40576681
51	0xbf079ad9	-0.52970654
52	0x3e8ea0bc	0.27857006
53	0x3ede7bd9	0.43453863
54	0xbd2ffd14	-0.042965963
55	0xbdd0bf41	-0.10192729
56	0x3e265313	0.16242628
57	0x3d1a2668	0.037634283
58	0x3f107d07	0.56440777
59	0xbe26864d	-0.16262169
60	0xbe967e60	-0.2939329
61	0x3e1a1dee	0.1505048
62	0xbe6cfdb7	-0.2314366
63	0xbf31612c	-0.692889
64	0xbe0425a6	-0.12904987
65	0x3e91ca11	0.28474477
66	0xbe6f141a	-0.23347512
67	0xbe868805	-0.2627565
68	0x3dc88a9a	0.09792061
69	0x3d8851e7	0.06656247
70	0x3e822eb0	0.25426245
71	0xbf0046ec	-0.5010822
72	0xbdd99650	-0.10624373
73	0xbd804dd3	-0.06264844
74	0xbe9c488d	-0.30524102
75	0xbf1ae815	-0.6051038
76	0x3f147a63	0.5799925
77	0xbf625a24	-0.88418794
78	0xbefbc846	-0.49176234
79	0xbe33e830	-0.17569041
80	0x3f365670	0.71225643
81	0xbf3588e1	-0.70911986
82	0x3f401f19	0.7504745
83	0x3f438ea4	0.7638953
84	0x3edc42c0	0.43019676
85	0xbead406f	-0.3383822
86	0xbf1a7d3d	-0.6034735
87	0xbf036a78	-0.51334333
88	0xbe17280f	-0.14761375
89	0xbf3de7d0	-0.7418184
90	0xbc1a22f5	-0.0094077485
91	0xbd64d11f	-0.055863496
92	0xbeca5fdc	-0.3952626
93	0xbe8230bc	-0.25427806
94	0x3e9c88b3	0.30573043
95	0x3def4677	0.11683362
96	0x3df4cb1b	0.11952802
97	0x3cf36565	0.029711435
98	0xbe800563	-0.2500411
99	0xbe4d3566	-0.20039901
100	0x3d805ff2	0.062683
101	0x3e4b0c3d	0.19828887
102	0xbe91fc0d	-0.28512612
103	0x3f1583cd	0.5840424
104	0xbf134bbb	-0.5753743
105	0xbe1b681c	-0.15176433
106	0xbe20684e	-0.15664789
107	0xbea5d241	-0.32386974
108	0xbf02ff10	-0.51170444
109	0xbce59b31	-0.028028103
110	0x3de53407	0.11191564
111	0xbc6efdaf	-0.01458685
112	0x3ea8d330	0.32973623
113	0x3bbb6475	0.0057187625
114	0xbe68d83b	-0.22738735
115	0x3cb87672	0.022517417
116	0xbd2b0a20	-0.041757703
117	0xbdff9d26	-0.124811456
118	0x3d4823cd	0.048862267
119	0xbe9c5297	-0.3053176
120	0xbe2b123c	-0.16706175
121	0xbebd0668	-0.3691895
122	0xbe935b4a	-0.28780586
123	0xbe3bf8e8	-0.18356669
124	0x3d1ee086	0.03878834
125	0xbc8d7e41	-0.017272117
126	0x3c276950	0.01021798
127	0xbed13454	-0.40860236
128	0x3b2e121b	0.0026561085
129	0xbf1510f3	-0.5822899
130	0xbe2c44ee	-0.1682317
131	0x3ee8f204	0.45497143
132	0x3f057869	0.52136856
133	0x3f03e1b2	0.5151626
134	0xbecbe2a3	-0.39821348
135	0x3f0cf4ce	0.5506104
136	0xbec85b84	-0.3913232
137	0x3e607e4d	0.2192318
138	0x3e487517	0.19575916
139	0x3e572303	0.2100945
140	0x3de9d48f	0.114174955
141	0x3f3c2ee8	0.73509073
142	0xbe8e5132	-0.27796322
143	0xbeb38a7e	-0.350666
144	0xbebf3973	-0.37348518
145	0x3ef6716b	0.48133406
146	0x3d81e465	0.06342391
147	0x3e6f5898	0.2337364
148	0x3d116b11	0.035502497
149	0xbe2fe91d	-0.1717877
150	0xbe97127a	-0.29506284
151	0xbdc46762	-0.09590031
152	0x3d6d87c2	0.057990797
153	0xbe490819	-0.19631995
154	0x3def5250	0.11685622
155	0x3cdeaf5e	0.027183231
156	0x3e9b88d4	0.3037783
157	0x3cb698be	0.02228963
158	0xbcb11355	-0.021615664
159	0xbe1d8290	-0.15381837
160	0xbe8e52f1	-0.27797654
161	0x3edcbec0	0.4311428
162	0x3e9d7086	0.3074991
163	0x3d92a210	0.07159817
164	0xbf26376a	-0.64928305
165	0x3c30f5c0	0.010800779
166	0xbe508604	-0.20363623
167	0x3d2841c6	0.04107835
168	0xbdd30135	-0.103029646
169	0xbe307245	-0.1723109
170	0x3e684601	0.22682954
171	0x3e9b968a	0.3038829
172	0xbe8f5afb	-0.279991
173	0xbecae397	-0.39626762
174	0x3db39e52	0.087704316
175	0xbd8ab300	-0.06772423
176	0x3defe253	0.1171309
177	0x3cc17ba1	0.023618521
178	0x3e70a0a5	0.23498781
179	0x3e869e9b	0.2629288
180	0x3e73276b	0.23745506
181	0xbe446276	-0.19178185
182	0x3e6975f1	0.22798897
183	0xbd658f82	-0.056045063
184	0x3d4f60f8	0.050629586
185	0x3ed6b3b9	0.41933993
186	0x3f2e3c37	0.6806063
187	0xbeb35395	-0.35024706
188	0xbe96080b	-0.2930301
189	0xbe0f7477	-0.14009272
190	0x3e2d7c5a	0.16941968
191	0xbdf2bca0	-0.118523836
192	0xbe1cf5fd	-0.15328212
193	0xbd9e124d	-0.07718334
194	0xbe973f65	-0.29540554
195	0x3e563f8e	0.20922682
196	0x3df45ee2	0.1193216
197	0x3dacacc7	0.08431392
198	0xbd783694	-0.060598925
199	0xbe386319	-0.18006553
200	0x3e354495	0.17701943
201	0x3eb28abe	0.34871477
202	0xbe0f0b9d	-0.13969274
203	0xbdfb62a9	-0.12274677
204	0xbe103cd4	-0.14085704
205	0x3e70045b	0.23439161
206	0x3e88caae	0.26717132
207	0xbe47d74e	-0.19515726
208	0xbd918679	-0.07105727
209	0xbdce5a27	-0.10075789
210	0x3ec9bb77	0.39400837
211	0x3dd237a3	0.10264518
212	0xbe47ef33	-0.19524841
213	0xbef8d54c	-0.48600233
214	0xbdb2c344	-0.0872865
215	0x3f9801af	1.1875514
216	0xbd999128	-0.074983895
217	0xbf01109d	-0.50415975
218	0xbe0b56ff	-0.13607405
219	0xbe7c3aa0	-0.24631739
220	0x3ef74b70	0.48299742
221	0xbe20dfa4	-0.15710312
222	0xbc9adf9e	-0.018905457
223	0xbd48c178	-0.04901263
224	0xbd252160	-0.040315032
225	0xbd920124	-0.07129124
226	0xbdb78b04	-0.08962062
227	0x3d45d9b9	0.04830334
228	0x3d832f5a	0.06405516
229	0xb96a1789	-0.00022324747
230	0x3d790d94	0.060803965
231	0x3a9bf51c	0.001189861
232	0x3e912b5b	0.2835339
233	0x3e8fdaf4	0.28096735
234	0x3d1ee29a	0.038790323
235	0xbe3b7239	-0.18305291
236	0x3e683917	0.22678028
237	0x3d5da5e7	0.054113295
238	0x3de8a803	0.11360171
239	0x3e92ff89	0.28710583
240	0x3f02842d	0.50982934
241	0xbdd4760b	-0.103740774
242	0xbe1ffc5e	-0.15623614
243	0x3e05e732	0.13076475
244	0x3e22d26b	0.1590058
245	0x3ea671bf	0.32508656
246	0x3ec78c2e	0.38974136
247	0xbe996f61	-0.29967788
248	0xbee3910e	-0.44446605
249	0xbe9d8796	-0.30767506
250	0x3ebd9304	0.37026227
251	0x3ea92234	0.33033907
252	0x3d969f4c	0.07354602
253	0x3ead87cc	0.33892667
254	0xbdf72195	-0.12066952
255	0x3dbcd52f	0.09220349

rnn.bias_ih_l0 f4 [60]
0	0xbc15477f	-0.009111284
1	0xbeb732fb	-0.35781083
2	0x3e0017bf	0.12509058
3	0x3d2dd8d5	0.042443115
4	0x3eeab44e	0.45840687
5	0x3eb5b4ad	0.35489407
6	0xbe4464ca	-0.19179073
7	0x3d5b127d	0.05348443
8	0xbe09ce2b	-0.13457553
9	0xbeaa7827	-0.33294794
10	0xbebefb81	-0.37301257
11	0x3cc3b352	0.023889218
12	0x3b864624	0.004097717
13	0xbe2cb058	-0.16864145
14	0xbdf73aa8	-0.12071735
15	0x3c530aab	0.012880961
16	0xbeb57d16	-0.35446995
17	0x3dc73994	0.09727779
18	0xbd646bb3	-0.055766772
19	0xbdc8643b	-0.097847424
20	0x3df697e2	0.12040688
21	0xbed725a5	-0.42020908
22	0xbda62809	-0.08113105
23	0xbe0a293b	-0.1349229
24	0xbe7c51fe	-0.24640653
25	0x3d9414ee	0.072305545
26	0x3e4147f9	0.18875112
27	0x3c6efef3	0.014587152
28	0xbdd7b99d	-0.1053345
29	0x3dd671b7	0.10470908
30	0xbe6b314e	-0.22968027
31	0x3e120814	0.14260894
32	0xbf0775b4	-0.52913976
33	0xbf003ea8	-0.50095606
34	0xbe85efd8	-0.2615955
35	0xbb33591d	-0.0027366348
36	0xbdf90dc1	-0.121608265
37	0x3ec03ebd	0.37547866
38	0x3d36b094	0.04460199
39	0x3e3baab2	0.18326834
40	0x3ddb113d	0.10696647
41	0xbea19e1d	-0.31565943
42	0x3db59590	0.088664174
43	0xbe7a367b	-0.24434845
44	0xbd829cc1	-0.06377555
45	0xbe866af2	-0.26253468
46	0xbe6519d8	-0.2237314
47	0xbe8c2c5e	-0.273776
48	0x3d29f534	0.04149361
49	0x3ed7c264	0.42140496
50	0x3efb74c8	0.49112535
51	0xbdf0304f	-0.11727964
52	0x3e2a49ca	0.16629711
53	0xbe9fd1af	-0.31214663
54	0x3d2e1d3b	0.042508345
55	0xbddc4e65	-0.1075714
56	0xbe64989f	-0.22323845
57	0x3db8e342	0.09027721
58	0x3e56cb49	0.20975985
59	0xbdf603ec	-0.12012467

rnn.bias_hh_l0 f4 [60]
0	0xbd9839c4	-0.07432893
1	0xbe352975	-0.17691596
2	0xbe559df0	-0.2086103
3	0xbd45c4f3	-0.04828353
4	0x3f2a3033	0.66479796
5	0x3f224267	0.6338257
6	0xbe02d4af	-0.12776445
7	0x3d9e68a4	0.07734802
8	0xbed4156f	-0.41422603
9	0xbebd2af6	-0.3694684
10	0xbe1bb105	-0.15204246
11	0xbdf7ccdb	-0.1209962
12	0x3e064432	0.13111952
13	0x3d634c77	0.055492844
14	0x3e325c77	0.17418085
15	0xbe79b37e	-0.24384877
16	0xbe335ef3	-0.17516689
17	0x3d746ce5	0.059674162
18	0x3d210c07	0.03931811
19	0xbe2c4f17	-0.16827045
20	0xbe8a1a89	-0.2697337
21	0xbedc3104	-0.43006146
22	0xbdd8ed2c	-0.10592112
23	0xbe31ebea	-0.1737515
24	0xbe46a337	-0.19398199
25	0x3cbc4d3c	0.022986047
26	0x3e63aaec	0.2223317
27	0xbd3833dc	-0.044971332
28	0xbe87a038	-0.26489425
29	0xbe7cbdbd	-0.24681754
30	0xbefcbb0c	-0.49361455
31	0xbd4b0590	-0.04956585
32	0xbe1a0cde	-0.15043971
33	0xbf50a477	-0.81500953
34	0xbec135e6	-0.37736434
35	0x3ea20fd2	0.31652695
36	0xbe68a4ec	-0.22719163
37	0xbca27bbe	-0.019834395
38	0x3e311b8f	0.17295669
39	0x3e8989d1	0.26862958
40	0xbe5231fe	-0.20526883
41	0xbe95c52f	-0.29252002
42	0x3d3a80de	0.045533054
43	0xbe2cf2e6	-0.16889533
44	0x3ebca033	0.36840972
45	0xbdc2f829	-0.09519989
46	0xbc41c9af	-0.01182787
47	0xbe71fbc7	-0.23631202
48	0x3e1205b9	0.14259996
49	0x3ec17493	0.37784252
50	0x3e9879ea	0.29780513
51	0xbd965286	-0.07339959
52	0x3dbc92f3	0.09207716
53	0xbe9591ac	-0.292127
54	0xbe805b58	-0.2506969
55	0xbe54c28d	-0.2077734
56	0xbe2bca51	-0.16776396
57	0xbdd8b703	-0.10581782
58	0x3e5fcf9a	0.21856537
59	0x3e1c2c42	0.15251258

fc.weight f4 [1, 15]
0	0xbe5b50c7	-0.21417533
1	0x3d8047c5	0.06263689
2	0xbe975d67	-0.29563448
3	0xbf05a42e	-0.52203643
4	0xbf091535	-0.53547984
5	0x3f3fd202	0.7492982
6	0xbeda640f	-0.42654464
7	0x3ef03d19	0.46921614
8	0xbc9bcfb4	-0.019019939
9	0x3d22b17f	0.039720055
10	0xbe2056bd	-0.15658088
11	0xbe88b5b3	-0.26701126
12	0x3e02cb8b	0.12772958
13	0xbe89423a	-0.2680834
14	0x3e925af9	0.28585032
