checkpoints/with_NUE/nonlinear_signals_model_weights_1.pth (torch_old, 5589 bytes, 5 tensors)

rnn.weight_ih_l0 f4 [60, 2]
00000000: d8b4 1fbd 4cc2 a03f 2e6d 83be 77d2 56be
00000010: ed77 24be 030f 1fbe b8a5 b8bc b546 33bf
00000020: 38ea 2bbd eb0b f6be 3e75 0dbe ba2c 403f
00000030: 4e55 6ebf cdc3 63bf 7ade db3d 53c1 823f
00000040: f4a5 88be 1943 8fbd e540 d73d 91fa 88bf
00000050: 35da 75be db41 2b3d d739 9e3d 698b 1abf
00000060: 983d b9be b918 463f 5a46 ca3d 95d5 923f
00000070: e3c2 0c3e 046e 5f3f 6be3 c0be c050 973f
00000080: 0502 993e 73dc a1bd d5d2 bbbe 81d7 bdbe
00000090: 5bf5 dabc f543 71bf ddd6 9abc 4822 febd
000000a0: 87d0 5cbc 28b0 993e e270 b9be 0cb9 aebe
000000b0: 85b9 bdbd 28a1 1b3f 0542 da3d 527a 33bf
000000c0: 53ba 27be e7f3 3fbf 4161 efbd 8d17 a83d
000000d0: 00e1 65be 402e 3fbf b55b 10be 6b61 1f3f
000000e0: b425 b1be 0742 913f 17c1 99bd c685 d23e
000000f0: 38f9 163e 1632 76bf 2a4a 213e fe28 36be
00000100: 5c4d e83d 34e3 1fbf 364a 2bbd 987f 09bf
00000110: a233 de3d 198a 3abe 3dde bf3b 8850 71bf
00000120: f938 bcbc 98d9 243e bcd3 84bc 19c1 a9bf
00000130: 49ee 6b3d 9019 63bf fa13 eb3e fb0b 17be
00000140: c346 073e e493 f838 6979 cfbb ec40 14bf
00000150: acd1 3dbc 085f 1ebf 8f33 4eba 1efa 923f
00000160: 4c9d aa3d b73c b33f 6b4f 98be cf7a b13f
00000170: e63d c63c d48c 313d 6733 54be 268a 8fbe
00000180: 6728 a8bc 6d3f a7bf 83e9 bbbe 79f9 a9be
00000190: 0303 cb3e 805f 453f 2fcc 50bf 20f8 72bf
000001a0: f437 5d3e 491b 193f b0a6 263e c68c d8be
000001b0: f45c 0dbd 45c7 4dbf d2f4 0abe 63a4 ee3d
000001c0: 720d 31be d8c4 31bf c53a dfbd 6cbb 763e
000001d0: 844f 8d3c 5c3e 8e3f e6e2 ac3e aec0 773f
-0.038990825 1.2559295 -0.25669235 -0.20978723 -0.16061373 -0.1553307 -0.022539958 -0.70029765
-0.041971415 -0.48055968 -0.13814256 0.7506825 -0.93098915 -0.88970643 0.107357934 1.0215248
-0.26689112 -0.0699522 0.105104245 -1.0701467 -0.2400902 0.04181085 0.07725876 -0.60368973
-0.36179805 0.77381474 0.098767 1.147143 0.13746218 0.87277246 -0.37673506 1.1821518
0.29884353 -0.079033755 -0.3668429 -0.3707848 -0.026728323 -0.9424432 -0.018901283 -0.124088824
-0.013477451 0.3001721 -0.36218935 -0.34125555 -0.09263901 0.6079278 0.106571235 -0.7010852
-0.16379671 -0.7498154 -0.116884716 0.08207617 -0.22449112 -0.74679947 -0.14097483 0.62258023
-0.34599078 1.1348275 -0.07507532 0.41117686 0.14743507 -0.96170175 0.15750948 -0.17789075
0.1134288 -0.6245606 -0.04181882 -0.5371032 0.10849692 -0.18216743 0.0058553503 -0.94263506
-0.022976385 0.1609863 -0.016214244 -1.3262054 0.057600293 -0.8871088 0.45913678 -0.14750664
0.13210587 0.00011853108 -0.006331612 -0.5791156 -0.011585634 -0.61863756 -0.0007865959 1.148258
0.08330783 1.4002904 -0.2974809 1.3865603 0.024199437 0.043347195 -0.20722733 -0.28035086
-0.020527078 -1.3066231 -0.36701593 -0.33198145 0.39650735 0.77098846 -0.8156156 -0.9490986
0.21603376 0.5980726 0.16274524 -0.42294902 -0.034512475 -0.80382186 -0.13569954 0.11652448
-0.17290285 -0.69440985 -0.10899881 0.24094933 0.01724983 1.111278 0.3376686 0.9677838

rnn.weight_hh_l0 f4 [60, 15]
00000000: 5fd4 bebc 7118 0d3e 3ca6 683e e968 39bf
00000010: 4443 dcbe 1cdc 8e3d 4950 843d 7b50 a23e
00000020: e26f e83d 9825 0abf 5ce6 b23e dae8 32be
00000030: 0cd0 8f3e bb29 48be b660 4e3e a89c 243e
00000040: 9bb7 ce3d c567 90bc 4514 913d 3f93 b83d
00000050: d711 0fbe cccc f8be 4fc5 c13e 8644 41bf
00000060: 4390 73be 7ab4 8f3e 0fd7 54be bf69 71be
00000070: fc67 bebe ecf7 513e 7c79 3a3e 2f81 13be
00000080: 20fd 03bd e09e 953e 68e1 893e 9a26 213e
00000090: 6c65 b2be 4c8f 973e 5c65 07be 408e fdbd
000000a0: a402 eebc 2e32 223c c80f a23e eacc 5cbe
000000b0: 3c4c 1fbf 7dd1 9f3e eb5a f73d f5c7 67be
000000c0: 72f5 46be e7ad 8b3d d2d8 823d 6b1d 6dbd
000000d0: 690a ca3e 3578 c93e 19b1 83be d587 08be
000000e0: a9e1 49bc 5db6 f03d 43c5 78bd f69a 8fbe
000000f0: a98f f23e a378 383f 018d 95bd 1bf6 fc3b
00000100: 81a6 373e d49c df3d 7142 b63e 0281 143f
00000110: 900f 803d 9552 f03b bedc d9bd 0b37 85be
00000120: 6316 2b3e c4b4 efbe b4e5 bfbe 543f 6c3e
00000130: 9046 a53e 5eab 063e 90cf b0be af5d a3bd
00000140: 02f9 0c3e 51ac 903d 6af8 953e 77cf bc3d
00000150: be33 0bbf 0994 003e 00fa 4cbf fd48 74bd
00000160: a42e cd3c dc40 a5bc 6d5c 3a3f e44b 103f
00000170: 07d6 a5bd 3baa 9dbe 88c0 e53e 9f96 d83e
00000180: d757 0f3e 3286 7c3e 59c6 023e 75fe 73bf
00000190: b0e0 b7be 0b19 48bf 36d1 b43e 90c0 64bf
000001a0: 491b 45be 83ce bf3d db2c ca3e c3d3 233d
000001b0: 4452 98be 86de 97bc 2221 933e 1f9c c4bd
000001c0: bb8e 28be 93c2 75bd aed8 81be 0f03 9d3e
000001d0: 11e7 28be 8a8b 05be 8f02 25bd d263 69be
000001e0: 81b2 093d 94eb 2e3f bb63 1fbf 89d3 d8bb
000001f0: 87cb 9d3d c9c7 a93e 0bb0 87bd 12f4 23be
00000200: e882 1b3e eac8 3abf 81d6 25be fc02 76bf
00000210: b45a 7c3d 8025 003e c8d6 b4be 1a6a dbbe
00000220: e679 3cbd b9fb 043e dd0a f8bb 8d82 8a3e
00000230: c297 84be 49ea 1fbe c222 64be f2a9 c0be
00000240: 94a5 043e 0ef3 b6bd f322 1d3d ac30 9c3d
00000250: ac1c 29bd db61 2b3f 0bed 563e f68f 9f3e
00000260: d346 0bbf 5f72 3dbe c921 09be e834 763d
00000270: 82fc a7be e3c1 4f3e 4963 303e 3bde 63be
00000280: a800 48bd db56 12bf 2bba a63e d5e4 6d3b
00000290: 72ef a0bd d20d 433d b789 16be 7b8e 303e
000002a0: 3c0e 68be 7f4c 28bd 618d f8be 4eb7 98be
000002b0: e127 27be 8eba 3bbf 6f46 debd ca3b 803d
000002c0: c823 ce3b 4c6c 87be ab8b 4cbe f601 1dbd
000002d0: cf1d 45bd e959 813d fcb4 c8be d20e 52be
000002e0: 9e81 1b3e 06d1 043e f018 88bd 3953 0dbc
000002f0: 4dec 59be a4e1 93be 70fd 0bbe b59f b1be
00000300: e74f a8bd 218f ad3d f16d 803e 957f 813d
00000310: a5f7 9bbd b0bc ebbd cec9 e1be 7849 33be
00000320: acb0 b03d ef39 9e3d b67d 1fbe bee3 663e
00000330: 10bc d1be bd34 32be d793 78bd 7ab0 3d3e
00000340: ab65 70be 7f80 4f3e 19a1 8a3e 312e ef3e
00000350: 4761 4bbe 43d7 fc3d 7856 77be 344b 613e
00000360: f2ee 073b 4431 bfbd 3fe7 1c3f 71b1 b2be
00000370: 3128 423d 8d7f e8be 809a 713e 6981 61be
00000380: 298e 71bd f212 e03c 597c 7f3e 8227 82be
00000390: a37a b8be ddf0 2f3e 3c53 2fbd d726 8bbe
000003a0: 655a 313e 4aa3 04bf c909 1ebf 8bf7 07be
000003b0: 9677 1bbf 1df9 dabd 5283 7b3e bbd4 b83e
000003c0: 2e64 293e e76e 0f3e b687 7f3e c10e 32be
000003d0: ece2 663e 9bd3 91be df80 94be 1686 86bc
000003e0: 133f 75bf 6cf0 223e 86b4 99bc 7a53 acbd
000003f0: d5d7 8fbe 95c9 933d f051 b4bd b9ec 5f3e
-0.023294626 0.13778855 0.22719663 -0.72425705 -0.4302007 0.06975576 0.06460626 0.31702027
0.11349465 -0.53963614 0.34941375 -0.17471638 0.28088415 -0.19547169 0.2015408 0.16075385
0.10093614 -0.017627606 0.07083944 0.0901246 -0.13971649 -0.48593748 0.37845847 -0.75495183
-0.237855 0.2806738 -0.20785163 -0.23575495 -0.3718871 0.20504731 0.18210405 -0.14404748
-0.03222382 0.29222775 0.26929784 0.15737382 -0.34843004 0.29601514 -0.1322226 -0.12380648
-0.029053994 0.009899659 0.31652665 -0.21562544 -0.622257 0.31214514 0.12077888 -0.22634871
-0.19429567 0.068202786 0.063890114 -0.057889383 0.39461067 0.39349523 -0.25721052 -0.13333066
-0.012321868 0.11753533 -0.060735 -0.28047913 0.4737523 0.7205908 -0.07302285 0.0077197677
0.1793461 0.109185845 0.35597566 0.5800935 0.06252968 0.0073340633 -0.10637806 -0.26018557
0.16707759 -0.468176 -0.37479937 0.23071033 0.32280397 0.13151309 -0.34533358 -0.07976853
0.13766864 0.07064117 0.29291087 0.09219258 -0.5437583 0.12556471 -0.8006897 -0.05963992
0.025046654 -0.020172529 0.7279728 0.563658 -0.08097463 -0.30793938 0.44873452 0.42302415
0.13998352 0.24660566 0.12770976 -0.95310146 -0.3591361 -0.7816321 0.35315865 -0.8935633
-0.1924869 0.09365561 0.39487347 0.039996874 -0.29750264 -0.018538725 0.28736216 -0.0960009
-0.16460697 -0.060000014 -0.25360626 0.30666396 -0.16494395 -0.13041511 -0.040285643 -0.22791985
0.0336175 0.68328214 -0.6226155 -0.006617014 0.077048354 0.33160236 -0.066253744 -0.16011074
0.15186656 -0.7296282 -0.16195108 -0.96098304 0.06160994 0.12514305 -0.35320115 -0.42854387
-0.04601469 0.1298665 -0.0075696544 0.27052727 -0.25897032 -0.15616716 -0.22278884 -0.37629658
0.12953788 -0.08933078 0.03836341 0.07626471 -0.04128711 0.6694619 0.20988862 0.3116452
-0.54404944 -0.1850066 -0.13391794 0.06010905 -0.32809836 0.20288806 0.17225374 -0.22252743
-0.04882875 -0.5716378 0.3256391 0.0036299725 -0.078581706 0.047620602 -0.14700972 0.17241852
-0.2266168 -0.041088577 -0.48545364 -0.2982735 -0.16323806 -0.73331535 -0.10853278 0.06261404
0.0062908866 -0.2644981 -0.19975154 -0.03833195 -0.04812413 0.06315977 -0.3920058 -0.20513466
0.15186164 0.12970361 -0.066453815 -0.008625799 -0.21281548 -0.28883088 -0.13670897 -0.3469216
-0.08218365 0.08474565 0.2508388 0.063231625 -0.07615594 -0.11510599 -0.44099277 -0.17508495
0.086274475 0.07725894 -0.15575299 0.22547814 -0.40963793 -0.1740293 -0.060687866 0.18524352
-0.23476283 0.20263861 0.27076033 0.4671493 -0.19861327 0.123457454 -0.24154079 0.22001344
0.0020741788 -0.093355685 0.61290354 -0.34901002 0.04740161 -0.45409814 0.23594093 -0.22022022
-0.058973465 0.027352784 0.24949779 -0.25420767 -0.36031064 0.17181726 -0.042803988 -0.2717807
0.17319639 -0.5181166 -0.6173368 -0.13278024 -0.6072935 -0.10692046 0.24561813 0.360998
0.16542122 0.1400715 0.24954113 -0.1738844 0.22547501 -0.28481755 -0.2900457 -0.016421359
-0.9579937 0.15912026 -0.018762838 -0.084143594 -0.28094354 0.07216183 -0.08804691 0.21867646

rnn.bias_ih_l0 f4 [60]
00000000: 7a70 d63d 164b e6be 6dd7 e3be b72c f4be
00000010: 3093 17bf 4492 063e 1645 3ebf 922c 2c3e
00000020: 96af 58be ffc9 c6bd 7a0f 3fbe 289e 38be
00000030: 8335 8bbd cfc7 84be ab95 5b3e d892 7fbe
00000040: b42f 63be ec46 18be 84c2 f6bd 213f 96be
00000050: a247 6c3d cbfa e4be f892 5ebe 3eda d13c
00000060: 5cd2 b5be d47c 43be 762c ed3c ff9a 93bd
00000070: 88e0 223b 1873 4e3d 1a43 a03c 5893 45be
00000080: 0afe fa3d c840 0b3b e92a cc3c 8e59 e2bd
00000090: 5214 013c 246a b33d 22f3 5dbd 142f 86bd
000000a0: 94df 133e 2135 a8bc 7ebf aebb 5e7e a73d
000000b0: ae9d 6cbd 57a3 5a3e 5d2e 24bd 605f ccbe
000000c0: d1fb f2be 675b 0cbf 83e9 35be 2a4a 69bf
000000d0: 7b8f 203e 964c 563d ed84 c0be 130a 3abe
000000e0: 0a30 8dbe fa3c 9cbd 224d 93bd 5354 9ebd
0.10470672 -0.4497916 -0.44500294 -0.47690365 -0.59208965 0.13141733 -0.74324167 0.16813877
-0.2116073 -0.097064964 -0.18658248 -0.18029082 -0.06797316 -0.25933692 0.21443813 -0.2495836
-0.22186166 -0.14870805 -0.1204882 -0.2934504 0.057685502 -0.4472259 -0.21735752 0.025616761
-0.35512054 -0.19090587 0.028951865 -0.072072975 0.002485307 0.05040273 0.019563247 -0.19294488
0.12255485 0.002124833 0.024922805 -0.110522375 0.00787838 0.08760479 -0.054186948 -0.06551948
0.14440757 -0.020533146 -0.0053328862 0.081783995 -0.057767563 0.21351372 -0.040083278 -0.39916515
-0.47457746 -0.5482697 -0.17764859 -0.9112879 0.15679733 0.05231913 -0.37601414 -0.18167906
-0.27575713 -0.07628818 -0.07192446 -0.07730927

rnn.bias_hh_l0 f4 [60]
00000000: a441 b7be 1195 c7be bb04 13bf 60d1 4abe
00000010: c07d fbbe 6132 9cbd f901 29bf 51ba 20be
00000020: ecd0 aa3c a114 d3bd ab6e 9ebe 8cde 27be
00000030: 99f6 03be 4a24 bb3d 3172 9a3e e1f6 5ebe
00000040: 2c8c 8dbe 7099 cfbe fd67 3bbe 044f d2be
00000050: 50cf 7d3c 59d3 3ebf bfb6 5b3e eacd 31be
00000060: 0408 07bf 5e9d 97be 089c 1fbd b4dd 363e
00000070: c6f0 d13d e446 46be 9413 45be ba8f d53d
00000080: 9434 febd 5c21 3c3e 847e 28bd a8ef c43d
00000090: 199d 8a3e b17e 22be 87cb 113d 1813 2c3e
000000a0: 425f d7bd fecd 0d3e b752 78bd 4c8f 613e
000000b0: 523e c1bc 2335 57bd 59e1 33bd f6dd 38be
000000c0: cf77 eebe e9b1 9dbe 8528 62be f2e5 2fbf
000000d0: bdb1 38be 9cf6 a9be b900 6bbe 47cd c3be
000000e0: ddf0 373d 995f b4be 9d77 54be e5b8 b23e
-0.35792267 -0.38980916 -0.57429093 -0.19806433 -0.49119377 -0.076267965 -0.66018635 -0.15696074
0.020851575 -0.10306669 -0.30943808 -0.16393489 -0.12887038 0.09137781 0.30165246 -0.21773864
-0.27646005 -0.4054675 -0.18301387 -0.4107591 0.015491322 -0.7454124 0.21456431 -0.17363706
-0.52746606 -0.2961225 -0.038967162 0.1785801 0.10251002 -0.1936298 -0.1924575 0.10427804
-0.12412372 0.183721 -0.04113628 0.09616023 0.2707298 -0.15868641 0.03559449 0.16804159
-0.10516216 0.13848111 -0.060625758 0.2202732 -0.023589287 -0.05254091 -0.04391608 -0.18053421
-0.46575782 -0.30799797 -0.2208577 -0.68710244 -0.18036552 -0.3319596 -0.22949494 -0.38242552
0.04490744 -0.35229185 -0.20748754 0.34906688

fc.weight f4 [1, 15]
00000000: f1b2 97be e933 20be 7936 a63c 64c3 013e
00000010: a78a 733d 0373 71be e0cf 693c c996 9dbe
00000020: 148b febd 2432 713e cb73 9cbd b399 303e
00000030: 378f 50be 2383 ab3e 6667 a73e
-0.2962871 -0.15644802 0.020289646 0.12672192 0.0594584 -0.2357903 0.014270753 -0.30779102
-0.12428871 0.23554283 -0.07639273 0.17246132 -0.20367132 0.33498487 0.32696074
