checkpoints/with_NUE/nonlinear_signals_model_weights_cond1.pth (torch_old, 5589 bytes, 5 tensors)

rnn.weight_ih_l0 f4 [60, 2]
0	0xbf9770d2	-1.1831305
1	0xbf334182	-0.7002183
2	0x3d0995eb	0.03359024
3	0x3ed69048	0.41906953
4	0xbf801147	-1.0005273
5	0xbc62781e	-0.0138225835
6	0x3f007c50	0.50189686
7	0x3ee385cc	0.44438016
8	0xbf87bd02	-1.0604556
9	0xbe15dddf	-0.14635418
10	0xbf11a6ae	-0.5689496
11	0x3df838b0	0.12120187
12	0xbf6ebcd7	-0.93256897
13	0x3ea91c6b	0.33029494
14	0xbfd1730f	-1.6363238
15	0x3f044de7	0.5168137
16	0x3fce7ee7	1.6132478
17	0xbd5e23e3	-0.054233443
18	0xc015c1df	-2.339958
19	0x3d92a80e	0.0716096
20	0x3fba747d	1.4566799
21	0xbed3aa3e	-0.41340822
22	0xbf96e542	-1.1788714
23	0xbee12e15	-0.4398047
24	0xbf5867ed	-0.8453358
25	0xbde3c40c	-0.11121377
26	0x3e96a976	0.29426163
27	0x3f3355fd	0.7005308
28	0xbfa80983	-1.3127903
29	0xbe89d74d	-0.26922074
30	0xbf97a004	-1.1845708
31	0xbf6d16cc	-0.9261291
32	0x3e2ea8c4	0.17056566
33	0xbe00c50c	-0.12575167
34	0xbfc5c9d9	-1.5452224
35	0xbba86aad	-0.00513967
36	0x3ec9e536	0.39432687
37	0x3da2a663	0.07941892
38	0xbf999e09	-1.2001354
39	0xbf6f7a6c	-0.93546176
40	0xbeab40e1	-0.33447936
41	0x3e3d0130	0.18457484
42	0xbf90ef1e	-1.1322973
43	0xbf31e1b0	-0.69484997
44	0xbe86feeb	-0.26366362
45	0x3f448d84	0.76778436
46	0x3f5deb4c	0.8668716
47	0x3dcd5d1c	0.10027525
48	0xbff63065	-1.9233519
49	0xbd950119	-0.072756
50	0xbf388771	-0.7208167
51	0xbed4b0e1	-0.41541198
52	0xbedda13f	-0.43287084
53	0xbeb984a8	-0.3623402
54	0xbf9abad6	-1.2088268
55	0xbf41fa83	-0.75772876
56	0xbf6c83f3	-0.9238884
57	0xbdc21ca2	-0.094781175
58	0xbea25810	-0.3170781
59	0xbcc25f35	-0.023727039
60	0xbf258c0b	-0.64666814
61	0x3e600dd9	0.21880282
62	0xbf01ca0e	-0.50698936
63	0xbe37f971	-0.17966248
64	0x3f106fcc	0.5642059
65	0xbede814f	-0.4345803
66	0xbf0950fb	-0.5363919
67	0xbeaf5a0b	-0.34248385
68	0x3f21e2ed	0.63236886
69	0x3ce768dd	0.028248245
70	0x3dbaac0b	0.09114846
71	0x3e9b6b3a	0.30355245
72	0xbf431bb0	-0.7621412
73	0x3e21a7da	0.15786687
74	0xbeeac58a	-0.45853835
75	0x3f105429	0.5637842
76	0x3f4d1e99	0.80124813
77	0x3e047821	0.1293645
78	0xbf976de7	-1.1830415
79	0xbddfe0a9	-0.109315224
80	0x3f697454	0.9119313
81	0xbe14d224	-0.14533287
82	0xbfa19e70	-1.2626476
83	0xbd1b0d6d	-0.0378546
84	0x3e8966ee	0.26836342
85	0xbec742cc	-0.3891815
86	0x3eae69a6	0.34064978
87	0x3e53b515	0.20674546
88	0x3dfa9a2d	0.12236438
89	0x3eb16a93	0.34651622
90	0xbf4478b4	-0.7674668
91	0xbe5c4f1f	-0.21514557
92	0x3b99963f	0.0046871
93	0xbdfe0cf1	-0.12404812
94	0xbfa22795	-1.266833
95	0xbf0e8774	-0.55675435
96	0x3f16ca3a	0.58902323
97	0x3e38f76f	0.18063138
98	0xbf8c2520	-1.094883
99	0xbd0b4ae4	-0.03400697
100	0xbed685ac	-0.4189886
101	0xbea3a4d7	-0.319617
102	0xbf62e468	-0.8862977
103	0x3af2763d	0.0018498373
104	0xbfba9656	-1.4577129
105	0x3ebc22c0	0.36745262
106	0x3fbfc94e	1.4983308
107	0x3c4361ac	0.011925142
108	0xc02df5c6	-2.7181258
109	0xbc43cfd3	-0.011951405
110	0x3fd91d0a	1.6961987
111	0xbeb43159	-0.351939
112	0xbf781dd7	-0.9692053
113	0xbe65e2d5	-0.22449811
114	0xbf4a8aec	-0.7911823
115	0xbdadd864	-0.08488539
116	0x3ed1a935	0.40949407
117	0x3f179600	0.59213257
118	0xbf8c134b	-1.0943388
119	0xbe92ea6c	-0.28694475

rnn.weight_hh_l0 f4 [60, 15]
0	0xbef884da	-0.48538858
1	0xbea227ea	-0.31671077
2	0x3eb2d6ea	0.3492959
3	0xbd12783c	-0.035759196
4	0x3e35a97f	0.17740439
5	0xbe298fc0	-0.16558743
6	0x3e2ffe50	0.17186856
7	0xbe96b496	-0.2943465
8	0xbb5ccf43	-0.0033692874
9	0x3ee90297	0.45509788
10	0x3e9c4e15	0.30528322
11	0xbca1184b	-0.019664904
12	0xbf1c1b40	-0.6097908
13	0x3d02446b	0.03180353
14	0xbe187a27	-0.14890347
15	0x3e81c6e2	0.25347048
16	0x3eee8ae2	0.46590334
17	0xbd37b7ef	-0.044853147
18	0xbdfa95f9	-0.12235636
19	0x3c9ce64e	0.019152787
20	0xbeac35f7	-0.33634922
21	0x3cebb86d	0.028774465
22	0x3e6b5372	0.2298105
23	0x3e498225	0.19678552
24	0x3f328dad	0.6974743
25	0xbf060f41	-0.52367026
26	0x3e0486b1	0.12942006
27	0x3df44ae4	0.11928347
28	0xbd023c8a	-0.031796016
29	0x3eedaf4c	0.46422803
30	0xbebc1bd8	-0.36739993
31	0xbf848bcb	-1.0355161
32	0x3dd06c4a	0.101769045
33	0xbec26fb4	-0.37975848
34	0xbf11f91b	-0.5702073
35	0xbd0bf01b	-0.03416453
36	0xbe4601e6	-0.19336662
37	0x3e5671ef	0.209419
38	0x3f9b73ff	1.2144774
39	0x3ee065d7	0.43827698
40	0xbd1de9d6	-0.03855308
41	0x3e307a23	0.17234091
42	0xbf350421	-0.70709425
43	0x3f40af9a	0.75267947
44	0xbd970a4d	-0.073750116
45	0xbe3f139a	-0.18659821
46	0x3e3b01f7	0.18262468
47	0x3f054dd8	0.52071905
48	0xbd650d84	-0.055921093
49	0x3f4aeb52	0.7926532
50	0x3e81c3ac	0.25344598
51	0xbf5e61be	-0.8686789
52	0x3f4ada8a	0.79239714
53	0x3d99f49f	0.07517361
54	0xbf20f8c5	-0.6287959
55	0x3effa2a0	0.4992876
56	0x3f474334	0.7783692
57	0x3e8cedaa	0.27525073
58	0x3ea66430	0.32498312
59	0x3eb0639f	0.34451005
60	0x3f772e8e	0.9655541
61	0x3fce61b9	1.6123573
62	0xbf6d7d67	-0.92769474
63	0x3fc0e99e	1.5071294
64	0xbeadd43c	-0.33950984
65	0xbd8cdb0c	-0.068777174
66	0x3fa40096	1.2812679
67	0xbe8be262	-0.27321154
68	0xbfa422c1	-1.2823106
69	0x3fc3975b	1.5280565
70	0xc005b217	-2.0889947
71	0x3f5226ef	0.8209066
72	0xbf1a1b4d	-0.6019791
73	0xbea769d0	-0.32697916
74	0x3ea13585	0.31486145
75	0x3bcdf057	0.0062847543
76	0xbd0666b3	-0.032812785
77	0x3eacc627	0.33744928
78	0xbeea0627	-0.4570782
79	0xbe13f9f1	-0.14450814
80	0x3e5e3dda	0.21703282
81	0xbea78d86	-0.3272516
82	0x3f3043cc	0.6885345
83	0x3e71b1c4	0.23602968
84	0xbefaaab6	-0.48958367
85	0x3ef8f527	0.48624536
86	0x3fbcb273	1.4741958
87	0xbf1c5254	-0.6106312
88	0x3f46b8b5	0.7762559
89	0x3f146f0d	0.5798195
90	0x3f3407cf	0.70324415
91	0x3f488c44	0.7833903
92	0xbe8e339b	-0.27773747
93	0x3f383e78	0.7197032
94	0xbe31cdb8	-0.17363632
95	0xbdd004d5	-0.10157172
96	0x3f3559dc	0.7084024
97	0x3eb02b78	0.34408164
98	0xbf1ba63a	-0.60800517
99	0x3f94a3b2	1.1612456
100	0xbea6af73	-0.32555732
101	0x3f0ccfd3	0.55004615
102	0xbe81851f	-0.25296876
103	0xbde227c1	-0.11042739
104	0x3ebb920a	0.36634856
105	0x3d3e7190	0.04649502
106	0x3ddbdc8f	0.107354276
107	0xbe6ca6a8	-0.2311045
108	0xbd88e346	-0.06683974
109	0xbf1582c8	-0.5840268
110	0xbe61625a	-0.22010174
111	0xbddd01af	-0.10791337
112	0x3e2a3e17	0.16625248
113	0x3dbc18ac	0.09184393
114	0x3e6d4a07	0.2317277
115	0x3eca8642	0.39555556
116	0x3f0a1bc8	0.5394864
117	0xbeaf5f56	-0.34252423
118	0x3f884b6d	1.0648018
119	0x3f035ab2	0.51310265
120	0xbfd9833c	-1.6993175
121	0xbf3d5d45	-0.73970443
122	0x3fcc2cc1	1.5951158
123	0xbf6364b2	-0.88825524
124	0x3fe32220	1.7744789
125	0x3d03d05d	0.032181133
126	0xc003868e	-2.0550876
127	0xbdbf01b8	-0.093265
128	0x3f93cd0d	1.1546952
129	0xc0451e05	-3.0799572
130	0x3fcdd848	1.6081629
131	0xbe871287	-0.26381323
132	0x3db3e8ea	0.08784659
133	0x3f42b5c6	0.76058614
134	0x3e8874ec	0.26651704
135	0x3eb3bfe7	0.35107347
136	0x3e613802	0.21994022
137	0xbe9287df	-0.28619286
138	0x3f0e277e	0.5552901
139	0xbf31372f	-0.6922483
140	0xbea933cb	-0.33047327
141	0x3f4ef52d	0.8084286
142	0xbe6fcc13	-0.23417692
143	0x3e2bbcbf	0.1677122
144	0x3f2b7d9a	0.6698853
145	0xbed103c5	-0.40823188
146	0xbe607b57	-0.2192205
147	0x3cb6e9d0	0.022328287
148	0xbdad4756	-0.08460872
149	0xbf1426d0	-0.57871723
150	0xbf2bb6d5	-0.67075855
151	0xbfac8768	-1.3478823
152	0x3f149509	0.5803991
153	0xbfc352e3	-1.525967
154	0xbe47b092	-0.1950095
155	0x3e3aae7a	0.1823062
156	0xbf466981	-0.77504736
157	0x3db0f8c8	0.08641201
158	0x4046c32e	3.1056628
159	0xbe20702a	-0.15667787
160	0x400bc6fd	2.1840203
161	0xbf0c83ab	-0.5488841
162	0xbec6b953	-0.38813266
163	0x3ede9909	0.43476132
164	0xbd94575b	-0.07243224
165	0x3f06c9cd	0.52651674
166	0x3f248a90	0.6427393
167	0xbf34dca0	-0.7064915
168	0x3f4f0a9c	0.80875564
169	0xbee69700	-0.4503708
170	0xbf06359a	-0.5242554
171	0x3f8d7f58	1.1054487
172	0xbbbd6bb3	-0.005780661
173	0xbf03586e	-0.5130681
174	0x3fc163ad	1.5108544
175	0xbec0570e	-0.37566417
176	0xbdae49c0	-0.085101604
177	0xbfbd6b54	-1.4798379
178	0x3f0e457f	0.5557479
179	0x3dd6182a	0.10453828
180	0x3f0cfe2c	0.55075336
181	0xbe39eeb9	-0.18157472
182	0xbec85d75	-0.39133802
183	0xbed71d47	-0.42014524
184	0xbe0cce60	-0.13750601
185	0x3f22fb6d	0.63664895
186	0x3dd2e53f	0.102976315
187	0x3f5c6d3d	0.86104184
188	0x3fbf4189	1.4941875
189	0x3f05d9aa	0.52285254
190	0xbf631ad0	-0.8871279
191	0x3fb47e7a	1.4101098
192	0xbe6d18a5	-0.23153932
193	0xbeef8eb8	-0.46788573
194	0x3f65c3e2	0.8975202
195	0x3e6c4415	0.23072846
196	0xbf2442d9	-0.641645
197	0xbf0ca2c8	-0.54935884
198	0xbf822b6c	-1.0169501
199	0xbfa4a0ce	-1.2861574
200	0x3ef67c97	0.4814193
201	0x3e893c9a	0.26804048
202	0x3fc013b4	1.5006013
203	0x3fea5a91	1.8308889
204	0x3f9f165d	1.24287
205	0x3e613b92	0.2199538
206	0x3f29cab0	0.663249
207	0xbf7b4b64	-0.9816191
208	0x3fa511cf	1.289606
209	0x3f6eab6b	0.93230313
210	0xbe82acb6	-0.25522393
211	0xbeba3bfc	-0.3637389
212	0x3ed90732	0.42388302
213	0xbf1d2039	-0.6137729
214	0xbe1c3df8	-0.15258014
215	0x3efeb433	0.49746856
216	0xbf0e5a7f	-0.55606836
217	0x3ec9e649	0.39433506
218	0xbd08bf05	-0.033385295
219	0xbf0a95c4	-0.54134774
220	0x3f563a9d	0.83683187
221	0x3f8f5882	1.1198885
222	0xbce76f89	-0.028251426
223	0x3f14cda2	0.5812627
224	0x3e733ea8	0.2375437
225	0x3d18b112	0.037278242
226	0xbe98b911	-0.29828694
227	0xbdf580b7	-0.11987441
228	0x3e39151a	0.18074456
229	0x3ebe8b90	0.37215853
230	0xbd9438f6	-0.07237427
231	0xbeeb6b09	-0.459801
232	0xbe554860	-0.2082839
233	0xbed76743	-0.4207097
234	0x3e442a60	0.1915679
235	0x3e80afdf	0.2513418
236	0x3f3df2cd	0.7419861
237	0x3ea0263b	0.31279168
238	0xbf2595a8	-0.6468148
239	0x3d2e582f	0.042564567
240	0xbfbda70f	-1.4816607
241	0xbeb00332	-0.34377438
242	0x3f33813b	0.70119065
243	0xbeb7e0d0	-0.35913706
244	0x3f322496	0.69587076
245	0x3da71d47	0.08159881
246	0xbf647500	-0.8924103
247	0x3ece646d	0.40310994
248	0x3f0f5cd6	0.5600103
249	0xbf6a6cc0	-0.9157219
250	0x3f6cd364	0.92510056
251	0x3ef00668	0.46879888
252	0xbed4c550	-0.41556787
253	0x3f879267	1.0591553
254	0x3ee65b17	0.4499137
255	0xbe7b2471	-0.2452562

rnn.bias_ih_l0 f4 [60]
0	0xbe326bf5	-0.17423995
1	0x3e96ae24	0.29429734
2	0xbdccbf22	-0.09997393
3	0xbe7cc76e	-0.24685451
4	0x3e6289cf	0.22122882
5	0xbf99de8c	-1.2021041
6	0x3f28fd8e	0.66011894
7	0xbf19552e	-0.598956
8	0xbeefe464	-0.46853936
9	0x3ef21e09	0.4728854
10	0xbcbfe15b	-0.023422888
11	0xbe299a98	-0.16562879
12	0xbea18a19	-0.31550673
13	0x3eb321da	0.34986764
14	0xbf95f489	-1.1715251
15	0xbf695358	-0.911428
16	0xbef6db89	-0.48214367
17	0xbf175756	-0.5911764
18	0xbf1f2e89	-0.6218038
19	0xbfbb8238	-1.4649115
20	0xbf01df45	-0.5073131
21	0xbf591a03	-0.84805316
22	0xbec6a903	-0.3880082
23	0xbf0d7424	-0.5525534
24	0xbe1eb9f3	-0.15500621
25	0xbf774a3e	-0.9659766
26	0xbece9532	-0.40348202
27	0xbfce07be	-1.6096113
28	0xbf1970e1	-0.59937865
29	0xbf289908	-0.6585851
30	0x3e476537	0.19472204
31	0xbd8741fa	-0.06604381
32	0xbe86d55d	-0.26334658
33	0x3e365189	0.1780454
34	0xbcc95f9d	-0.024581725
35	0xbe1a0b89	-0.15043463
36	0x3eb4baf0	0.35298872
37	0x3cf7be53	0.03024212
38	0xbdf8003a	-0.12109418
39	0x3e382e31	0.1798637
40	0xbe26ac04	-0.16276556
41	0x3df7d51f	0.121011965
42	0xbde6576e	-0.11247145
43	0xbe824bf5	-0.25448576
44	0xbd010133	-0.031495284
45	0xbe9825a4	-0.29716218
46	0x3e04c8af	0.1296718
47	0xbef06050	-0.4694848
48	0xbf11c8d7	-0.5694708
49	0x3d9f9884	0.07792762
50	0xbf790170	-0.9726782
51	0x3f39aa42	0.7252542
52	0xbebd6e66	-0.3699829
53	0xbde26fa0	-0.11056447
54	0x3ee00a0f	0.43757674
55	0x3e690db0	0.22759128
56	0xbebc8e40	-0.36827278
57	0xbe830567	-0.2559006
58	0xbc52ef20	-0.012874395
59	0xbf910be3	-1.1331753

rnn.bias_hh_l0 f4 [60]
0	0xbefc1f06	-0.4924242
1	0x3cb4f9fe	0.022091862
2	0xbebc9c24	-0.36837876
3	0xbea2ad50	-0.31772852
4	0x3da65984	0.081225425
5	0xbf8b1f53	-1.0868934
6	0x3e9dc87b	0.30817017
7	0xbf38e2a3	-0.7222082
8	0xbede9dd4	-0.43479788
9	0x3e4d836d	0.20069666
10	0x3e2699a3	0.16269545
11	0xbdc955d9	-0.09830827
12	0x3c855465	0.016275594
13	0x3e8535c5	0.26017585
14	0xbf868dd7	-1.0512036
15	0xbf10554f	-0.5638017
16	0xbf326b62	-0.69695103
17	0xbf0163f5	-0.5054315
18	0xbf069a5d	-0.5257929
19	0xbfba9902	-1.4577944
20	0xbe00b4b8	-0.12568939
21	0xbf07a0a5	-0.529795
22	0xbee86957	-0.45392868
23	0xbe777d32	-0.24168852
24	0xbd33750a	-0.04381279
25	0xbf802a77	-1.0012959
26	0xbe8679c1	-0.26264766
27	0xbfb1493f	-1.3850478
28	0xbf3a89e7	-0.7286667
29	0xbf1dc978	-0.6163554
30	0x3e34ed86	0.17668733
31	0x3ebe6d98	0.37192988
32	0xbd557d8c	-0.052121684
33	0x3e30ae45	0.17253979
34	0xbebb274d	-0.36553422
35	0x3d7bd5fe	0.061483376
36	0x3d685733	0.056723785
37	0xbd95401d	-0.07287619
38	0xbead7b50	-0.33883142
39	0x3ee73b2b	0.4516233
40	0xbeb1319d	-0.34608164
41	0x3dd4a3eb	0.10382827
42	0x3d85c302	0.065313354
43	0xbd0147ca	-0.031562604
44	0xbe2aa227	-0.16663419
45	0xbe9d28f5	-0.3069531
46	0xbe3200d7	-0.17383133
47	0xbeaecd23	-0.34140882
48	0xbe9f5b86	-0.31124514
49	0x3ebbf109	0.36707333
50	0xbf98fdde	-1.1952474
51	0x3ec9c108	0.39405084
52	0xbf0532cf	-0.5203065
53	0xbeed3760	-0.4633131
54	0x3e633762	0.22189096
55	0x3cd8f01d	0.026481682
56	0x3b2e11ae	0.002656083
57	0xbeec3bd7	-0.46139404
58	0x3e19ca57	0.15018593
59	0xbfa46bff	-1.2845458

fc.weight f4 [1, 15]
0	0xbd369823	-0.044578683
1	0xbe9e8705	-0.30962387
2	0xbe223b81	-0.15843011
3	0xbdb41b88	-0.08794314
4	0x3f4d8b29	0.80290467
5	0x3e2353b0	0.15949893
6	0xbf04ce48	-0.5187726
7	0x3e211f7b	0.15734665
8	0x3f68523a	0.9075047
9	0x3e487e1f	0.19579361
10	0xbf3bf781	-0.73424536
11	0x3ebeb0a0	0.3724413
12	0x3ec01ea2	0.3752337
13	0xbf3a30ea	-0.72730887
14	0xbcd00c55	-0.025396505
