checkpoints/with_NUE/nonlinear_signals_model_weights_cond3.pth (torch_old, 5349 bytes, 5 tensors)

rnn.weight_ih_l0 f4 [60, 1]
00000000: 452e 293f fa00 0cbf 9aca a23e f200 b23e
00000010: 7cad 8d3e 889e e5ba 61b6 033f 251d 56bf
00000020: fb1b b8be 9903 503f 786c 5e3f 144c 8bbe
00000030: b578 0b3f 26b2 533e 9d91 913c bcab 0a3f
00000040: 4d85 12bf 5938 183f 7040 0d3f ebcc 003f
00000050: 3a60 00bf c1e7 093f 5c5a 60bf d32b 12bf
00000060: 77e9 e73e 2de0 bd3e cb23 25bf 9dd9 1d3f
00000070: 8016 06be f5ab 0a3e 2aa6 5a3f a881 b33e
00000080: 7ada 973e bf88 d7be 40de b63e 44e1 74be
00000090: ca2e c9be 9c86 de3e fcc4 26be 5715 2b3f
000000a0: 3b61 38bf a688 08bd 6adc e53e 9f3a 033f
000000b0: 4cc3 ea3e f5e8 063f d10e 53bf 264f 0640
000000c0: 4f50 933f e5d0 803f 636b 07bd d223 a33e
000000d0: 1a7e 98bf 7db1 1cbe 2b9c 1a40 48f5 6e3f
000000e0: 41a5 15bf ba5e 7f3f 688e 4b3e f3a8 a7be
0.66086227 -0.5468899 0.31795198 0.34766346 0.2767142 -0.001751856 0.51450163 -0.8363822
-0.35958847 0.8125549 0.8688426 -0.2720648 0.5448106 0.20673427 0.01776963 0.54168296
-0.5723465 0.5946098 0.5517645 0.5031268 -0.5014683 0.53869253 -0.8763788 -0.5709812
0.45295307 0.37085095 -0.6450774 0.61660177 -0.1309452 0.13542159 0.85409796 0.35059857
0.29658872 -0.42096516 0.35716438 -0.23914057 -0.3929351 0.43462074 -0.16286081 0.66829437
-0.7202336 -0.033333443 0.44894725 0.51261324 0.45852125 0.52699214 -0.82444483 2.0985808
1.1508883 1.006375 -0.033061396 0.31863266 -1.1913483 -0.15302081 2.4157817 0.9334302
-0.5845528 0.99753916 0.19878542 -0.32746086

rnn.weight_hh_l0 f4 [60, 15]
00000000: a83d d53d 36b0 70be cb50 ab3e ee8c 2cbf
00000010: 6aec 133f 0060 cabe 9d3e e4be 0892 df3e
00000020: 46f5 00bf 6c93 f33e 4aed 14bf 2b99 b0bc
00000030: 08ae 093f 972d cd3e 2b26 e63e 3919 74be
00000040: 087e 06be 9373 583e 87ad 333e 326b 463d
00000050: b0f0 bfbe f183 6f3e c687 e53c bbb7 1fbe
00000060: 1136 1b3e 3e29 ce3d 2ef9 9bbe 1dc1 43be
00000070: 528c 9c3e 0067 bd3e d862 a53e c841 9bbe
00000080: 3487 e73d 70ca 3dbe 3777 8a3c bb3b f13d
00000090: 997b 48be b5d5 b63d c242 703e b26e 0d3e
000000a0: a015 163c af88 983d 55f7 f23d 7f93 393d
000000b0: 9c1a 8abc 3437 483f 7f1e 583e fe97 083e
000000c0: 6411 59be c9c4 9f3e 40aa 0a3e 5442 7ebe
000000d0: 65da 90be 0708 4c3e bd09 833e 9418 d5be
000000e0: ce24 12bd 759d 793d c26a 68bd d90b 5fbe
000000f0: 381f 313f 96ca d63e 2fbe 033f 79a2 1fbf
00000100: 78c2 093f 0b4e 303e 8882 87be 7b2f 0cbf
00000110: 85ff d13d 5b75 523e a5a0 0fbf ab48 0d3e
00000120: 57ca 263f e471 fabd 2e67 b0be 37de abbe
00000130: adeb e2be be42 fcbe ad7c 1d3f f948 b5be
00000140: 97b1 a8be 8819 a23e e18b 8f3f cfef febe
00000150: 745f 73bf 05c0 9e3e 83d1 c4be 386a 10be
00000160: 2d09 38be fd5f 833e 3dd7 b83e 7784 063e
00000170: 53dd e53e 80a2 f4be 5094 de3d ade5 f73e
00000180: d99e e4be f7a7 00be 30b6 123e 24b1 693d
00000190: 4c79 9ebe ebd6 16bc 4685 0c3e 70d7 bc3c
000001a0: 4060 4f3e 9889 b73e 20ad 7cbc 45f4 63be
000001b0: 66cb 25bd bc2d 933c edf6 7b3f 094c 953d
000001c0: 6bea c43e 2766 7c3f 43a2 59bd 942f dfbe
000001d0: b764 f13d eb93 803e 418a 8bbf 0e79 a73c
000001e0: 6545 073e 0d97 6abe a493 4cbf 730c ab3e
000001f0: c0b1 a7be f157 a43e 6b37 cd3e 5758 a93f
00000200: f0ac 593e a375 5bbf 722b 9f3e 729e d1be
00000210: 1af7 e9bd fd0c 0abf cf75 b73c a057 553e
00000220: 54c1 d5be 2351 dbbc c535 95be 9813 b83e
00000230: 7fc4 8f3d d0cf 88be 01ac 513e 5c9e 973d
00000240: 35b4 853e 8037 c8bc d67d 9c3d a168 45bd
00000250: 3a9f b03d 8fdd 4f3b 166d e83e 62e9 85bd
00000260: 1fe2 333b 0d87 a0be f747 6f3e 7ba7 de3e
00000270: 6b62 a1be 7f09 80be 743f f53d cafe 94be
00000280: 34eb bebd a03d 19be 21a2 533c 99a7 cdbe
00000290: ecc1 59be d513 24be 751d 8f3e 7672 c3be
000002a0: a307 223e 4fca 5bbe f05e d33d f8bc b33e
000002b0: 8af6 d73e 0ab3 f33e cad2 f6be 1332 c23e
000002c0: 1b86 b53d a71a 77be fa56 c3be 9045 abbe
000002d0: 354e 0f3f 229e fe3e 9b75 d43e bbb9 b2be
000002e0: 4045 543e 6e05 9f3e 8f67 66be 2718 88be
000002f0: 6dff bf3e 5aab db3e 3258 f0be ad4b 11be
00000300: dce8 ed3e afee 22bf d8a6 5bbe c180 0ebf
00000310: 4433 13bf 4a13 4bbf ae19 ec3e f1a0 a1be
00000320: e271 f9be 2a6f ec3d 82b9 a63f 693f d7be
00000330: 807b 7dbf 8106 2a3f 8ad0 68bf a99d 15bf
00000340: 164f 9bbd 4ec3 31bd ab5c 7e3e 11de 15bf
00000350: 2c4c 1b3e dc85 c6be 7886 713e 194b d7be
00000360: f1ce cdbe a913 70be 7249 cabe 6369 e73e
00000370: 25bd 0bbf b3bd a7be fb32 013f ab30 8d3e
00000380: 7df2 da3e 1b79 61be fb1f 293d 2815 5f3e
00000390: 25d0 f1bd 52d7 ab3d 10e3 59bd 3abb 3abd
000003a0: 0182 e9be 3225 2c3e f4bb 85be c58d 2bbe
000003b0: d122 413e 21da c83a 43bc 44be 7f5c d5be
000003c0: 472a 06bf 261e dabd b487 a4bd 4c33 d93e
000003d0: 8f97 c5be ec39 04be 97e6 843e 67c9 9bbe
000003e0: 2dae 93be 9b06 4b3e f9d5 943e 41dc 9dbd
000003f0: a3bd e2be 0ee7 e23e b6fe 793e 295c 7c3d
0.104121506 -0.23504719 0.33460078 -0.6740254 0.57782614 -0.39526367 -0.4457902 0.436661
-0.5037426 0.4757341 -0.58174574 -0.021557411 0.53781176 0.40073845 0.44950995 -0.23837747
-0.13134015 0.21137838 0.17546664 0.048442073 -0.37488317 0.23390175 0.028018843 -0.15597431
0.15157343 0.1006646 -0.30463547 -0.19116636 0.30575806 0.36992645 0.32301974 -0.30323625
0.11305085 -0.18534255 0.01690255 0.11778971 -0.19578399 0.0892748 0.23462966 0.13811758
0.009160429 0.07447945 0.11863581 0.04530668 -0.016858391 0.78209233 0.21105383 0.1333923
-0.2119804 0.31204823 0.13541508 -0.2482999 -0.28291622 0.19924937 0.25593367 -0.41620314
-0.03567963 0.06094118 -0.056742437 -0.21781863 0.6918826 0.41951436 0.5146207 -0.6235729
0.5381236 0.17217271 -0.26466775 -0.5475995 0.102538146 0.2055258 -0.561045 0.13797252
0.65152496 -0.12228754 -0.3445372 -0.33567974 -0.4432043 -0.4926967 0.61518365 -0.35407236
-0.3294799 0.31660104 1.1214563 -0.49792334 -0.95067525 0.31005874 -0.38441095 -0.14103019
-0.1797225 0.2565917 0.36101714 0.13136469 0.4489542 -0.47780228 0.10868132 0.48417416
-0.4465244 -0.12564074 0.14327312 0.0570537 -0.30951917 -0.009206514 0.13722715 0.023051947
0.2025156 0.35847163 -0.015422136 -0.2226115 -0.04047718 0.017966144 0.98423654 0.07289893
0.38460097 0.9859337 -0.05313326 -0.43590987 0.11786788 0.25112852 -1.0901567 0.020443466
0.13210066 -0.22909184 -0.7991278 0.33407936 -0.327528 0.32098344 0.40081343 1.3230084
0.21257377 -0.85726374 0.31087834 -0.40941197 -0.11424084 -0.5392607 0.022395043 0.20834208
-0.4174906 -0.026772087 -0.29142585 0.3595245 0.070199005 -0.26721048 0.2047577 0.074032515
0.2611405 -0.024440527 0.07641189 -0.048195485 0.0862412 0.0031717753 0.45395726 -0.06538655
0.002744801 -0.31353036 0.23367296 0.43487152 -0.315204 -0.25007245 0.11974993 -0.2910064
-0.09322205 -0.14964914 0.0129170725 -0.4016693 -0.21265382 -0.1602319 0.2795216 -0.38173264
0.15823226 -0.21463893 0.10320842 0.3510511 0.42180282 0.47597533 -0.48207694 0.3792883
0.08863469 -0.24131261 -0.38152295 -0.3345151 0.5597871 0.4973002 0.41495976 -0.34907326
0.20729542 0.3105883 -0.22500442 -0.26580927 0.37499562 0.42904168 -0.46942288 -0.14189024
0.4646672 -0.6364545 -0.21450365 -0.5566521 -0.575001 -0.7932631 0.46113342 -0.315681
-0.48719698 0.1154464 1.3025362 -0.42040566 -0.9901657 0.66416174 -0.90943205 -0.58443695
-0.07583444 -0.043399148 0.24840038 -0.5854197 0.15165776 -0.38774002 0.23586452 -0.42049482
-0.40196946 -0.23445 -0.3950916 0.4519759 -0.54585487 -0.32761917 0.50468415 0.27576193
0.4276313 -0.22018854 0.041290265 0.21785414 -0.118072785 0.083906785 -0.05319506 -0.04558871
-0.45606998 0.16811064 -0.2611996 -0.167533 0.18860938 0.0015323797 -0.19212441 -0.4167213
-0.5240826 -0.106502816 -0.08033696 0.4242195 -0.38592193 -0.1291272 0.25957176 -0.30427095
-0.28843823 0.19826739 0.29069498 -0.07708026 -0.44285306 0.44316906 0.24413571 0.06161133

rnn.bias_ih_l0 f4 [60]
00000000: 1aa2 023f 1bd1 6bbe 3605 a53e ac39 4a3d
00000010: 0534 c83e 26bf 31be 0295 0d3f 3538 e63e
00000020: 0d38 8fbd 2064 d33e 3e50 c63e 97e5 04be
00000030: abec fa3d 360a 6ebd 7b8f fb3d c307 15be
00000040: eeac 07bf 02a4 db3e c44a bc3e a877 ca3d
00000050: 8421 31bd d963 273e 3b24 a9bc ecf9 07be
00000060: 8066 bd3e d231 cbbc 2717 de3c df60 e53e
00000070: 688d c7be 2627 da3e 1ef8 403e d79d 71be
00000080: 07dd 083f 4a0f 07bf a6dd d43e 2e6c c9be
00000090: eb10 efbe 3d90 103f 4eee 13bf cea3 003f
000000a0: 0899 ddbe 9a3a 4abe 0988 033f cd93 e23e
000000b0: bac1 853e 9758 703e fd5b 10be 9301 49be
000000c0: 5427 4dbe d8c7 ffbc 04af c1bd d70c 81be
000000d0: e97a df3e a2e3 94bd 60c7 f3bd 079a 21be
000000e0: 35a8 0ebe a8fd 073d aa32 a6bd 82ef 833e
0.510286 -0.23028986 0.32230538 0.049371406 0.39102188 -0.17358074 0.5530549 0.44964758
-0.06993113 0.41287327 0.38733095 -0.12978207 0.12252172 -0.058115207 0.12283226 -0.14553742
-0.52998245 0.42898566 0.36775792 0.09886104 -0.043244854 0.16346683 -0.020647159 -0.13278931
0.36992264 -0.02480403 0.02711065 0.4480047 -0.38975072 0.42607993 0.18844649 -0.23595367
0.5346226 -0.52757704 0.41575354 -0.39340347 -0.46692595 0.5647009 -0.577855 0.50249946
-0.43280816 -0.19748917 0.5137945 0.44253388 0.26124364 0.23471294 -0.1409759 -0.19629507
-0.20034534 -0.031223223 -0.0945721 -0.2520511 0.4364846 -0.0726998 -0.11903262 -0.15781413
-0.13931353 0.03320089 -0.08115132 0.25768667

rnn.bias_hh_l0 f4 [60]
00000000: c81b ce3e 4d91 2339 87d0 a43e bda7 903e
00000010: b9be af3e 72e5 333d 3759 853e 33c8 e53e
00000020: 129f 243e 57a5 283e 0544 583d 90e2 99be
00000030: 019b c53e bf40 89bd fa80 c93e f2ba 4dbe
00000040: 9ad9 36be e9dd 893e 24c3 253e c5fa fe3e
00000050: 1aff 74bd 1802 da3e d152 ad3e 5197 d4bd
00000060: 8b41 803e 0f06 ee3d 3c5e eebd 6ad4 c23e
00000070: 66de cabe bf4c 463e 5009 3b3d 332d dfbd
00000080: 1d59 1a3f b929 ecbe 3467 a93e d0ba 16bf
00000090: 2f24 8cbe 39b4 e03e 8ffe c1be 641c ea3e
000000a0: 110b cdbe af64 19bf 9efc 993e 5ed3 a53e
000000b0: 0136 163d 130c ce3e 2035 2d3d 3e39 18bd
000000c0: c219 8ebe a067 163e 59ff 813b afa9 a4be
000000d0: 6f3e d73e 157d 9d3d d4a8 c9be 1123 75be
000000e0: 5aa3 0cbe a82f 163d de8f 33bc 8288 443e
0.4025557 0.0001559902 0.32190344 0.28252974 0.34325197 0.043919988 0.26044628 0.44879302
0.16076306 0.16469322 0.052799243 -0.30055666 0.3859482 -0.067018025 0.39356214 -0.20090845
-0.17856446 0.26927117 0.16187721 0.49800697 -0.059813596 0.42579722 0.33852246 -0.10380424
0.25050005 0.11622249 -0.116390675 0.38052684 -0.39622802 0.19365214 0.045663178 -0.10897293
0.60292226 -0.46125582 0.3308655 -0.58878803 -0.27371356 0.438875 -0.37889525 0.45724785
-0.40047505 -0.59919256 0.30075544 0.32387823 0.036672596 0.40243587 0.042286992 -0.037163965
-0.27754027 0.14687967 0.0039672074 -0.32160708 0.4203982 0.07689873 -0.39386618 -0.23939158
-0.13734189 0.036666542 -0.010959594 0.19192699

fc.weight f4 [1, 15]
00000000: c7d7 e43e d33e a93e e197 aa3e 1362 b9be
00000010: 33cb a53e b77f b6be a4cd a6bd 2e09 83bd
00000020: 1343 9dbe 80ef b43e 6acc 5abe f188 febd
00000030: 0d7f b23e cea3 aa3e 6ef8 4bbe
0.44695875 0.33055744 0.33319 -0.36207637 0.3238159 -0.35644314 -0.081446916 -0.06398235
-0.30715236 0.35338974 -0.2136704 -0.12428463 0.34862557 0.33328098 -0.19918987
