checkpoints/with_NUE/nonlinear_signals_model_weights_cond2.pth (torch_old, 5589 bytes, 5 tensors)

rnn.weight_ih_l0 f4 [60, 2]
-0.167403 0.011368077 -0.3654105 0.17796825 -0.011281786 0.28572142 -0.13147618 -0.14887837
0.4908327 0.20534867 -0.30306026 -0.33849943 -0.022823242 -0.05526073 -0.021866985 -0.0029902346
-0.5216636 0.12020243 0.21002573 0.8216744 0.13335276 0.55769795 -0.3633833 0.05242176
-0.4269917 -0.06092898 -0.83607143 -0.13282505 -0.08737295 0.15746076 -0.35492486 0.1545986
-0.37259465 -0.012324412 0.017358677 0.08398484 -0.15749252 -0.4303592 -0.09312297 -0.29737103
-0.5380463 -0.3334818 -0.30840552 -0.14014329 -0.019946866 0.17225094 -0.4917091 0.06468126
0.0030509268 -0.19121334 0.037679374 0.13625126 -0.29213136 0.22947738 -0.21825173 -0.087864876
-0.8374472 -0.27663895 -0.16497818 0.15981464 0.37786788 0.3737529 0.091033965 0.40707776
-0.11171793 -0.20328097 -0.032468498 0.025714628 0.23198658 0.45263416 -0.34458557 0.0030241003
-0.06451329 -0.32475072 0.15186547 0.30704573 0.2849251 0.12998739 -0.41267326 -0.48882306
0.5688474 -0.41968796 -0.2228266 -0.5278497 -0.3060687 -0.057799652 0.037932143 0.34456366
0.07876501 -0.02305291 -0.43906727 0.19136497 -0.09901241 0.4542983 -0.5154456 0.21310672
0.055006336 -0.4864644 0.6913657 0.15341873 -0.5989001 -0.21648715 0.057777323 0.3971965
0.05916414 -0.0035382155 -0.3169111 0.38872778 0.4147446 0.64735794 0.2422324 0.44226804
0.23680387 0.37662405 -0.5623567 -0.2427952 -1.2307655 -0.0926195 -0.22091576 0.12612927
00000000: b16b 2bbe 2c41 3a3c 1617 bbbe 4f3d 363e
00000010: 3dd7 38bc 144a 923e b1a1 06be 9273 18be
00000020: 6c4e fb3e ec46 523e b72a 9bbe cc4f adbe
00000030: cff7 babc 1359 62bd 6422 b3bc d0f7 43bb
00000040: bf8b 05bf b12c f63d fc10 573e 4159 523f
00000050: a08d 083e 4bc5 0e3f 600d babe 33b8 563d
00000060: a89e dabe ab90 79bd c708 56bf 4a03 08be
00000070: 97f0 b2bd 653d 213e b6b8 b5be 184f 1e3e
00000080: bac4 bebe 55ec 49bc c933 8e3c 3e00 ac3d
00000090: b845 21be 0b58 dcbe 41b7 bebd 0441 98be
000000a0: 67bd 09bf 20be aabe 54e7 9dbe b981 0fbe
000000b0: 9c67 a3bc 8d62 303e 4cc1 fbbe 9c77 843d
000000c0: 0ff2 473b 6ecd 43be b055 1a3d 7385 0b3e
000000d0: 3e92 95be 1efc 6a3e 627d 5fbe 80f2 b3bd
000000e0: f162 56bf 9fa3 8dbe 0af0 28be 73a6 233e
000000f0: e677 c13e 8a5c bf3e 0470 ba3d 7f6c d03e
00000100: 5fcc e4bd e328 50be b0fd 04bd 7ca7 d23c
00000110: e48d 6d3e aabf e73e 856d b0be fc2f 463b
00000120: 8b1f 84bd ba45 a6be 9f82 1b3e 1935 9d3e
00000130: b4e1 913e 6a1b 053e e949 d3be 0447 fabe
00000140: fc9f 113f 57e1 d6be a82c 64be 2821 07bf
00000150: 09b5 9cbe 54bf 6cbd bc5e 1b3d a66a b03e
00000160: 8d4f a13d 75d9 bcbc 6dcd e0be 2ef5 433e
00000170: 05c7 cabd c999 e83e 3ef4 03bf a638 5a3e
00000180: 534e 613d dd11 f9be 58fd 303f cd19 1d3e
00000190: 8451 19bf cfae 5dbe eaa7 6c3d 575d cb3e
000001a0: 1956 723d 68e1 67bb 2c42 a2be 5407 c73e
000001b0: 6759 d43e 40b9 253f c50b 783e f570 e23e
000001c0: b77c 723e ded4 c03e 9cf6 0fbf 4e9f 78be
000001d0: b989 9dbf 4baf bdbd be37 62be 0828 013e

rnn.weight_hh_l0 f4 [60, 15]
-0.15080805 0.16137719 0.18516031 -0.08460659 -0.06430463 0.029775117 -0.10233438 0.16413184
-0.20472245 0.07535935 0.1931148 0.15987433 0.5337906 0.1581076 0.26502952 -0.2066182
-0.18173282 0.16592205 0.4790719 -0.007566756 0.29685524 0.19720495 0.09726659 0.21408756
-0.057620168 -0.101243176 0.019209461 0.2748522 0.28814933 0.1487795 0.06657618 0.288436
-0.09138641 0.27054608 -0.18339868 0.41152075 -0.3404453 0.058426023 0.30039203 0.05348137
-0.009229377 -0.18216315 0.0775361 0.27279028 -0.005968474 -0.07679327 -0.24921699 0.17623864
0.26084593 -0.19560738 -0.43407232 0.22133312 -0.011696175 -0.5031785 -0.09594046 0.2583086
0.011973349 0.10615307 -0.5556443 0.2345685 -0.379207 -0.16439708 0.30246785 0.30504337
0.12977424 -0.009692712 0.14879976 -0.01787055 -0.20843239 -0.3200232 0.10184462 0.26699105
0.20761874 0.5917759 -0.26165408 -0.048521552 0.06417988 -0.17408636 -0.24709128 -0.31934842
-0.20136936 0.14353155 -0.32826394 -0.33527806 -0.003979651 0.052450184 -0.081955284 0.043233037
0.4665775 0.19025576 0.2674314 0.1418212 0.049660865 0.14408146 -0.32266566 0.4193198
-0.24112064 -0.20838338 -0.13825053 0.42775315 0.053863224 0.13576014 0.02177192 0.22342241
0.02899517 -0.21127127 -0.062989816 0.2543997 0.09805002 -0.23168944 0.47484937 0.16927856
-0.17038065 -0.2858228 0.23008151 -0.08731266 -0.21605271 0.39914903 0.42225724 0.00031873077
0.07480364 -0.25512835 -0.16614507 0.31795678 -0.0018944509 0.19308403 0.23466063 -0.21185206
-0.08589576 0.19400911 -0.1796611 0.043314725 0.3992625 0.08639169 -0.210254 0.3356483
0.29524517 -0.03588768 0.071281 0.28881016 0.9290184 -0.017678982 -0.06982115 0.32393616
-0.4433466 -0.18818401 0.03452904 0.37173197 0.85202813 -0.06364193 -0.100472465 0.05756511
-0.31392863 0.17362154 -0.13821441 0.34422395 -0.1368721 0.17067148 0.09253391 -0.45298666
0.24182561 -0.036880888 0.14161162 0.68181217 -0.050663397 0.22313812 -0.07870807 -0.23975022
-0.01031688 -0.35353363 0.4120974 -0.06238991 0.08721617 -0.14577742 0.42544493 -0.059776656
0.2310788 0.15590562 0.53134173 -0.12534957 -0.15675981 -0.3470483 0.30597678 0.22056971
0.15855473 0.022948492 -0.014177424 -0.23295873 -0.44013935 -0.0657025 0.2858759 0.19365029
0.024088042 0.17117909 0.061599046 0.100654125 -0.006121046 0.08077946 -0.5794155 -0.059155818
0.4169345 0.23122926 -0.33910295 -0.10765993 -0.17041712 0.53775764 -0.107001685 0.26246122
0.7175739 0.2219655 0.04022187 0.16773048 -0.10908202 0.47921082 -0.29942292 0.22239444
0.14224547 -0.19042772 -0.16665328 0.37365162 0.10275141 -0.14255728 0.22878917 -0.12449782
0.08616329 0.13022026 -0.10461564 -0.25849694 0.40007678 -0.15628695 0.16833676 0.077354014
-0.03170044 -0.19324467 0.13754384 0.20673837 -0.16436832 0.4053489 -0.024453847 -0.036935374
0.036632083 0.09115297 -0.116685115 0.3648044 -0.4101788 0.39926183 0.16153578 -0.03243257
-0.17622581 0.07803985 0.25196788 -0.1662453 0.1127276 0.3049708 0.2738131 0.2935627
00000000: 6d6d 1abe 1040 253e aa9a 3d3e 3846 adbd
00000010: 25b2 83bd f2ea f33c b094 d1bd 2d12 283e
00000020: c3a2 51be 0156 9a3d e3bf 453e 19b6 233e
00000030: 80a6 083f f5e6 213e f3b1 873e b993 53be
00000040: 2b18 3abe 78e7 293e e948 f53e 8df2 f7bb
00000050: 69fd 973e 18f0 493e b533 c73d c539 5b3e
00000060: 2003 6cbd 9558 cfbd 295d 9d3c 6db9 8c3e
00000070: 4f88 933e a759 183e 1859 883d e2ad 933e
00000080: cc28 bbbd 0485 8a3e ddcc 3bbe d9b2 d23e
00000090: d94e aebe 2050 6f3d fccc 993e 480f 5b3d
000000a0: d036 17bc fa88 3abe 3fcb 9e3d 2bab 8b3e
000000b0: 3093 c3bb ca45 9dbd bd32 7fbe e777 343e
000000c0: 998d 853e 4d4d 48be ba3e debe 26a5 623e
000000d0: 50a1 3fbc 4ed0 00bf 6f7c c4bd 0641 843e
000000e0: de2b 443c c866 d93d b43e 0ebf ba32 703e
000000f0: 6b27 c2be b557 28be 11dd 9a3e a52e 9c3e
00000100: 8ae3 043e 2ece 1ebc f75e 183e 4265 92bc
00000110: 4d6f 55be 15da a3be ea93 d03d 0db3 883e
00000120: 029a 543e a07e 173f 86f7 85be 89be 46bd
00000130: be70 833d b243 32be 7f05 7dbe a381 a3be
00000140: c533 4ebe eff9 123e 3612 a8be 91a9 abbe
00000150: bb67 82bb 01d6 563d 2cd8 a7bd 2015 313d
00000160: 3fe3 ee3e 68d2 423e c5ec 883e 9439 113e
00000170: 3169 4b3d 178a 133e 6f34 a5be 16b1 d63e
00000180: 54e8 76be 7462 55be 8c91 0dbe 7602 db3e
00000190: af9f 5c3d b504 0b3e 075b b23c d8c8 643e
000001a0: 4787 ed3c 7f57 58be ce00 81bd ad40 823e
000001b0: 73ce c83d ff3f 6dbe 751f f33e 5c57 2d3e
000001c0: 4478 2ebe 5e57 92be 7d9a 6b3e fbd0 b2bd
000001d0: ec3c 5dbe 435d cc3e 1a32 d83e 521b a739
000001e0: a732 993d 2fa0 82be ef21 2abe 3bcb a23e
000001f0: 394f f8ba d2b7 453e e04a 703e bfef 58be
00000200: 1eea afbd 53aa 463e 14f9 37be c86a 313d
00000210: 226c cc3e 20ee b03d d34c 57be 18da ab3e
00000220: 602a 973e f6fe 12bd c6fb 913d edde 933e
00000230: 26d4 6d3f 83d3 90bc 64fe 8ebd f6da a53e
00000240: 53fe e2be 4fb3 40be 536e 0d3d a753 be3e
00000250: 841e 5a3f b356 82bd 82c4 cdbd 65c9 6b3d
00000260: 41bb a0be d8c9 313e 1488 0dbe 1f3e b03e
00000270: 3328 0cbe 81c4 2e3e 6b82 bd3d deed e7be
00000280: 22a1 773e 6a10 17bd a302 113e 3e8b 2e3f
00000290: 6c84 4fbd 527e 643e b231 a1bd 1581 75be
000002a0: 2208 29bc 5c02 b5be 6efe d23e 908c 7fbd
000002b0: 649e b23d ad46 15be ebd3 d93e 5ed8 74bd
000002c0: ec9f 6c3e b9a5 1f3e 0306 083f a35b 00be
000002d0: a585 20be 51b0 b1be fda8 9c3e 07dd 613e
000002e0: 2c5c 223e 7afe bb3c 6d48 68bc bc8c 6ebe
000002f0: f259 e1be 088f 86bd 535e 923e 434c 463e
00000300: 4954 c53c 9249 2f3e 484f 7c3d c023 ce3d
00000310: 0e93 c8bb b46f a53d 9354 14bf 5f4d 72bd
00000320: 7078 d53e 5dc7 6c3e e79e adbe cf7c dcbd
00000330: d381 2ebe 7caa 093f b323 dbbd 5161 863e
00000340: ecb2 373f ed4a 633e b0bf 243d 8ac1 2b3e
00000350: 6566 dfbd 1f5b f53e f64d 99be 5ebb 633e
00000360: cca8 113e 7cff 42be 28a7 2abe 444f bf3e
00000370: 556f d23d 89fa 11be b547 6a3e b7f8 febd
00000380: 6176 b03d 7658 053e ba40 d6bd b659 84be
00000390: ddd6 cc3e b009 20be 7960 2c3e c86b 9e3d
000003a0: 52d8 01bd eee1 45be 4bd8 0c3e 39b3 533e
000003b0: 2b50 28be e489 cf3e 6f53 c8bc 8c49 17bd
000003c0: 860b 163d 69ae ba3d 9bf8 eebd a4c7 ba3e
000003d0: f502 d2be 0c6c cc3e a369 253e 04d8 04bd
000003e0: 8a74 34be 5bd3 9f3d ef01 813e 353c 2abe
000003f0: badd e63d 2225 9c3e 3b31 8c3e da4d 963e

rnn.bias_ih_l0 f4 [60]
-0.16407222 0.03300842 0.114144675 -0.38794363 0.033014476 -0.12132074 0.12492109 -0.027098676
0.2945899 -0.07025165 0.1251437 0.16094114 -0.5234515 -0.19102898 -0.25433844 -0.08805064
0.19146301 0.3235772 -0.26048264 -0.45416638 0.07029877 0.17640713 -0.1892392 -0.15521711
-0.41176522 -0.13893005 -0.174699 -0.4336737 0.19565526 -0.05713951 0.33715877 -0.10555911
-0.2178245 -0.055498797 0.17459935 0.13551289 -0.2047349 0.2015014 0.4805119 0.17224161
0.016168214 -0.26213488 -0.20937186 0.5510694 -0.24076353 -0.13245296 0.1679562 0.14686824
-0.2362774 0.12313477 -0.009051858 0.040360227 0.08777995 -0.24175897 -0.14104843 0.2363102
-0.11037182 -0.12047639 0.20626126 -0.27624828
00000000: 8c02 28be d633 073d afc4 e93d 8ca0 c6be
00000010: 303a 073d 0277 f8bd a1d6 ff3d 0bfe ddbc
00000020: 7dd4 963e 19e0 8fbd ac25 003e c1cd 243e
00000030: eb00 06bf 1a9d 43be a638 82be e553 b4bd
00000040: e10e 443e e9ab a53e fb5d 85be 7f88 e8be
00000050: cdf8 8f3d 12a4 343e ecc7 41be 3cf1 1ebe
00000060: e4d2 d2be ae43 0ebe 4be4 32be 7b0a debe
00000070: da59 483e 1e0b 6abd 13a0 ac3e 602f d8bd
00000080: 630d 5fbe b552 63bd 2cca 323e e4c3 0a3e
00000090: 07a6 51be 6256 4e3e a805 f63e 1b60 303e
000000a0: 3473 843c 8b36 86be 9465 56be e212 0d3f
000000b0: b78a 76be c0a1 07be b6fc 2b3e a164 163e
000000c0: b4f2 71be 152e fc3d 3f4e 14bc c450 253d
000000d0: f9c5 b33d aa8f 77be 006f 10be 4dfb 713e
000000e0: 9f0a e2bd 53bc f6bd 2736 533e 6a70 8dbe

rnn.bias_hh_l0 f4 [60]
0.24129893 -0.09078744 0.39091024 -0.31804448 0.12965927 -0.19054964 0.2682742 -0.049143493
-0.09069151 -0.10042806 0.44458953 -0.13444169 -0.42027718 -0.14132127 0.08295584 0.18397865
0.15978476 0.17744106 -0.46535498 -0.23095989 0.100467294 0.18299815 0.008678768 -0.00798209
-0.26181293 0.17831545 -0.03341363 -0.19929309 0.35719207 -0.21630858 0.12527852 0.10898281
-0.39617202 0.05782242 -0.107926525 0.07261007 -0.23448837 -0.07432241 0.13997485 0.11930552
-0.06349715 -0.3698044 0.23717171 0.21003301 -0.032643363 0.13262853 0.09337524 -0.059917565
-0.19967462 0.09228961 -0.09533688 -0.25742593 -0.088962905 0.1328716 -0.084182024 0.058359485
-0.17548254 -0.47518906 -0.17927614 0.13087486
00000000: 1117 773e c4ee b9bd 6325 c83e bad6 a2be
00000010: 66c5 043e 721f 43be 3c5b 893e b04a 49bd
00000020: 78bc b9bd 3aad cdbd 3da1 e33e 15ab 09be
00000030: 922e d7be 86b6 10be c0e4 a93d e664 3c3e
00000040: 9e9e 233e 1cb3 353e 0243 eebe c080 6cbe
00000050: ccc1 cd3d de63 3b3e 6431 0e3c 50c7 02bc
00000060: 580c 86be 5398 363e bbdc 08bd 7d13 4cbe
00000070: e1e1 b63e ff7f 5dbe 0349 003e 6132 df3d
00000080: 0fd7 cabe 34d7 6c3d 9508 ddbd 97b4 943d
00000090: b81d 70be 5936 98bd 9155 0f3e 7456 f43d
000000a0: cb0a 82bd 0157 bdbe 24dd 723e e512 573e
000000b0: 0cb5 05bd c6cf 073e 853b bf3d 1f6c 75bd
000000c0: 8177 4cbe 5602 bd3d fb3f c3bd 55cd 83be
000000d0: 2f32 b6bd 7e0f 083e a067 acbd 5b0a 6f3d
000000e0: b2b1 33be fb4b f3be 2a94 37be 0f04 063e

fc.weight f4 [1, 15]
0.102362216 0.21425797 -0.11379376 0.016034834 0.15601097 0.014972407 -0.21624517 0.112023264
0.22341117 -0.24507299 -0.31631097 -0.22368696 -0.0012297054 -0.009899675 -0.16821483
00000000: 48a3 d13d 7166 5b3e b40c e9bd 7c5b 833c
00000010: 57c1 1f3e d44e 753c 606f 5dbe 746c e53d
00000020: e6c5 643e 6af4 7abe 83f3 a1be 320e 65be
00000030: 112e a1ba 3f32 22bc 8240 2cbe
