checkpoints/with_NUE/nonlinear_signals_model_weights_1.pth (torch_old, 6069 bytes, 5 tensors)

rnn.weight_ih_l0 f4 [60, 4]
0	0xbd8ce27e	-0.068791375
1	0x3eb2e9d6	0.34944028
2	0xbf98b142	-1.1929095
3	0xbe8f2122	-0.27954966
4	0x3f530d5d	0.82442266
5	0x3ed16fe3	0.40905675
6	0x3e96431b	0.29348072
7	0x3f2a1823	0.6644308
8	0xbf6eaa93	-0.93229026
9	0xbfaba56d	-1.3409859
10	0xbf596b34	-0.84929204
11	0xbe7df67a	-0.24801055
12	0xbf0d11a4	-0.5510504
13	0xbe68f553	-0.22749834
14	0xbe985f53	-0.29760227
15	0x3f770889	0.964974
16	0xbfc23f0a	-1.5175488
17	0xbe38c02b	-0.18042056
18	0x3df2fd75	0.11864749
19	0x3ef7b266	0.48378295
20	0xbe82305d	-0.25427523
21	0xbf120b7a	-0.5704876
22	0xbfdf38a0	-1.7439156
23	0xbeb1bfd0	-0.34716654
24	0xbf6e49e2	-0.93081486
25	0xbf91bab9	-1.1385108
26	0xbf3ca1de	-0.7368449
27	0xbf166ed9	-0.5876289
28	0xbf9bfc6b	-1.2186407
29	0xbe6fa7e0	-0.23403883
30	0xbeb1454d	-0.34623185
31	0x3d8c0b81	0.06838132
32	0xbfbef99f	-1.4919928
33	0xbe5aa162	-0.21350625
34	0xbe48b966	-0.19601974
35	0x3f61397a	0.8797833
36	0xbf9cc9d8	-1.2249098
37	0xbf241715	-0.6409772
38	0xbf8b8afd	-1.0901791
39	0xbd743ac7	-0.059626367
40	0xbfc818eb	-1.5632604
41	0xbedb5a8d	-0.42842522
42	0x37a07651	1.9128582e-05
43	0x3eef5d24	0.46750748
44	0x3ba62c49	0.005071197
45	0x3eb8bc44	0.36081135
46	0xbdde7d0a	-0.10863693
47	0x3f6d0a5d	0.9259394
48	0xbe01aff7	-0.12664782
49	0xbef1b19e	-0.47205824
50	0xbe8f18c2	-0.27948576
51	0xbf1e9062	-0.6193906
52	0xbff1120b	-1.8833631
53	0xbf908817	-1.1291531
54	0xbed581e0	-0.4170065
55	0x3db511b6	0.08841269
56	0xbfa03793	-1.251696
57	0xbf240ce5	-0.64082175
58	0xbf7c7238	-0.98611784
59	0xbfa058f1	-1.2527143
60	0xbf9d62ee	-1.2295816
61	0xbf05bbdb	-0.5223977
62	0xbf413815	-0.754762
63	0x3e67a34a	0.22620884
64	0x3eab496f	0.33454463
65	0x3daee688	0.08540064
66	0xbea4aab2	-0.3216148
67	0xbd55d43e	-0.052204363
68	0xbf201348	-0.6252942
69	0xbf183b6b	-0.59465665
70	0xbf36e02e	-0.7143582
71	0xbd4c7e1d	-0.04992496
72	0xbed3ba33	-0.41352996
73	0xbe4d85d1	-0.20070578
74	0xbeba4045	-0.3637716
75	0x3f52449a	0.8213593
76	0xbefaa8c6	-0.4895689
77	0xbbd3dc1f	-0.0064654495
78	0xbf22846e	-0.6348332
79	0xbf1fce3d	-0.6242407
80	0xbfb41dc1	-1.407158
81	0xbf024621	-0.5088826
82	0xbf89ea74	-1.0774674
83	0xbf0ce93c	-0.5504339
84	0xbf5aa83c	-0.85412955
85	0xbf25dd77	-0.64791054
86	0xbf5fe59c	-0.8745973
87	0xbf7109d4	-0.9415562
88	0xbf01306a	-0.504645
89	0x3b83e7e6	0.004025447
90	0x3d741f37	0.05960008
91	0xbe2b110d	-0.16705723
92	0xbf0b8478	-0.54499006
93	0xbebbd501	-0.36685947
94	0x3b745e8f	0.0037287807
95	0x3f5323f5	0.8247674
96	0xbf076760	-0.5289211
97	0xbec1ac77	-0.37826893
98	0xbf279b7f	-0.65471643
99	0x3e083ad0	0.13303685
100	0xbf17b665	-0.59262687
101	0xbf11f89a	-0.5701996
102	0xbeb6da39	-0.35713366
103	0xbe7075f9	-0.23482503
104	0xbcbc0c9a	-0.022955228
105	0xbda60540	-0.0810647
106	0x3db5c832	0.08876075
107	0x3d8ea2bd	0.069646336
108	0xbe545eaf	-0.20739244
109	0x3c3dde20	0.011588603
110	0xbecb2167	-0.3967392
111	0xbf0d23b9	-0.55132633
112	0xbf73dc2e	-0.9525784
113	0xbeb52c84	-0.35385525
114	0xbf23089c	-0.6368501
115	0x3f04817b	0.5176007
116	0xbf484cf9	-0.7824245
117	0xbeed5e86	-0.46361178
118	0xbea1f34e	-0.3163094
119	0xbec33e0a	-0.3813327
120	0xbed3d4ef	-0.41373393
121	0xbe7939ac	-0.24338406
122	0xbe7d66b8	-0.24746215
123	0xbf3dcb14	-0.74138
124	0xbf5d9109	-0.8654943
125	0xbca3d3b4	-0.019998409
126	0x3cb3fc70	0.021970958
127	0xbef80b2c	-0.48446023
128	0xbe22350a	-0.15840545
129	0xbc90e993	-0.017689502
130	0x3f2ec6fa	0.68272364
131	0x3d978d33	0.073999785
132	0x3ef5a128	0.47974515
133	0xbe54fc3f	-0.20799349
134	0x3e001fc5	0.12512119
135	0xbfbaa716	-1.458224
136	0x3f22eb3d	0.63640195
137	0xbeb68b90	-0.35653353
138	0x3c1c8181	0.0095523605
139	0xbe4facf1	-0.20280816
140	0xbc1c6496	-0.009545466
141	0x3ef7ba4a	0.48384315
142	0x3f00eaa7	0.5035805
143	0xbc4e319b	-0.012585069
144	0xbe0dfdda	-0.13866368
145	0x3cde84bb	0.0271629
146	0xbf47763a	-0.77914774
147	0x3e6c0923	0.2305036
148	0xbf0af18f	-0.5427484
149	0x3e128a54	0.1431058
150	0x3cc8098d	0.024418617
151	0xbcf47dd7	-0.029845161
152	0xbf2c059c	-0.6719606
153	0xbd9d6fbf	-0.076873295
154	0x3d0d4085	0.03448536
155	0x3edeb891	0.43500188
156	0xbd4f9529	-0.05067936
157	0x3e93a6f8	0.28838325
158	0xbde89c71	-0.11357964
159	0xbf005518	-0.5012984
160	0xbf10df7e	-0.5659102
161	0xbe3b1ba8	-0.18272269
162	0x3f20b595	0.6277707
163	0xbcc453bf	-0.023965714
164	0x3f0e63a0	0.55620766
165	0xbcca093c	-0.024662606
166	0x3bff3276	0.007787998
167	0xbf8ebbbc	-1.1151042
168	0xbea8e371	-0.32986024
169	0x3d377ade	0.04479491
170	0xbe2d6bf6	-0.16935715
171	0x3f585049	0.84497505
172	0x3da0e45e	0.078560576
173	0x3e6319a8	0.22177756
174	0xbdb62b77	-0.08895009
175	0xbf26cef8	-0.6515956
176	0x3e64af05	0.2233239
177	0x3cc6a45c	0.024248295
178	0x3e126761	0.14297248
179	0x3e85d8b9	0.2614191
180	0x3d4df111	0.050278727
181	0x3d0b04f6	0.033940278
182	0xbfa3cf7b	-1.2797693
183	0xbe96f971	-0.29487184
184	0x3f593fc8	0.8486295
185	0x3f2916b0	0.66050243
186	0x3ecb4f7e	0.39709085
187	0x3ed7d8af	0.42157504
188	0xbf6d0977	-0.9259257
189	0xbfabe450	-1.342905
190	0xbf695633	-0.91147155
191	0xbecc6087	-0.39917395
192	0xbf51c760	-0.8194485
193	0xbebe4207	-0.3715975
194	0xbee435af	-0.44572207
195	0x3f5559cc	0.83340144
196	0xbf4e618f	-0.8061761
197	0xbeac0b48	-0.33602357
198	0x3e233858	0.15939462
199	0x3f229991	0.63515574
200	0xbea61f51	-0.32445768
201	0xbf237f00	-0.6386566
202	0xbfcfabd8	-1.6224318
203	0xbe7bc701	-0.24587633
204	0xbf199ce7	-0.6000504
205	0xbfbb9716	-1.4655483
206	0xbf421b28	-0.7582269
207	0xbef76f4a	-0.48327094
208	0xbf6c651c	-0.9234178
209	0x3dfc21f7	0.12311166
210	0x3dd3b234	0.10336724
211	0x3e144ce5	0.14482458
212	0xbfb363b5	-1.4014803
213	0xbe8f2465	-0.27957454
214	0x3ea08cb2	0.31357342
215	0x3f1fa03b	0.6235387
216	0xbf531e35	-0.8246797
217	0xbf4ffe4e	-0.81247413
218	0xbf8304e9	-1.0235873
219	0xbc79d570	-0.015248641
220	0xbfba1244	-1.4536824
221	0x3e3a117b	0.18170731
222	0x3e5d26e1	0.21596862
223	0x3ecc3218	0.39881968
224	0x3e897143	0.26844224
225	0x3e6e4f96	0.23272547
226	0x3df40691	0.11915315
227	0x3f4a23d8	0.78960943
228	0xbe9e7b6a	-0.30953532
229	0xbf315217	-0.69265884
230	0xbf361534	-0.71126103
231	0xbea39411	-0.31948903
232	0xbfc6561c	-1.5495028
233	0xbf8a05af	-1.0782984
234	0xbf0cd681	-0.55014807
235	0x3e90089b	0.28131565
236	0xbf6ebd7d	-0.93257886
237	0xbf01a27b	-0.5063855
238	0xbf9f242e	-1.2432916
239	0xbfb10761	-1.3830377

rnn.weight_hh_l0 f4 [60, 15]
0	0xbfc1a5fb	-1.5128778
1	0xbf0ab51d	-0.54182607
2	0xbc7fdcce	-0.015616609
3	0xbd99233d	-0.07477424
4	0xbc4cfce1	-0.012511463
5	0x3f42a946	0.7603954
6	0xbe8e18ce	-0.277533
7	0xbe2aaff8	-0.16668689
8	0xbd00a58a	-0.03140787
9	0x3e647570	0.22310424
10	0x3e36630c	0.17811221
11	0x3f6e57f0	0.9310293
12	0xbf00efd4	-0.5036595
13	0x3e142a11	0.14469172
14	0x3e3fc044	0.18725687
15	0x3ee01c71	0.437717
16	0xbedd253d	-0.43192473
17	0x3d88644d	0.06659756
18	0xbe8ad61d	-0.2711648
19	0xbd020393	-0.03174169
20	0xbf0a3cb0	-0.5399885
21	0x3e8e8d88	0.27842355
22	0xbe07a2a5	-0.13245638
23	0x3f092eb8	0.5358691
24	0xbdc1313d	-0.094332196
25	0xbeae4b38	-0.34041762
26	0xbe691313	-0.22761182
27	0x3e2b1f7d	0.1671123
28	0xbd91623e	-0.07098816
29	0xbe41e8c5	-0.18936451
30	0xbeffb0fe	-0.49939722
31	0xbf1f0ffa	-0.62133753
32	0x3eb914e2	0.36148745
33	0x3f0b4682	0.5440446
34	0x3f1b4875	0.60657436
35	0x3daf827b	0.08569809
36	0xbede64bb	-0.43436226
37	0xbec7ebbb	-0.39047036
38	0xbf48f22b	-0.7849452
39	0x3e179615	0.14803346
40	0xbe952555	-0.29130045
41	0xbe0e6b2a	-0.13908067
42	0x3e9f133a	0.31069356
43	0x3e90dd0d	0.28293648
44	0x3df4ffb1	0.11962832
45	0xbec1d1ec	-0.3785547
46	0xbdc2b9ac	-0.0950807
47	0x3e6ab524	0.22920662
48	0xbe944434	-0.28958285
49	0x3fb4b946	1.4119041
50	0x3e76e496	0.24110636
51	0xbf968958	-1.1760664
52	0xbe6fc1c3	-0.23413758
53	0xbf8a182e	-1.0788629
54	0xbccd6698	-0.025073335
55	0x3b5c6f8e	0.0033635828
56	0x3ea5869c	0.3232926
57	0x3d0b2567	0.033971217
58	0xbd09c27f	-0.03363275
59	0x3e0c0fc6	0.13677892
60	0x3f5ad6b9	0.8548389
61	0x3c07c1ab	0.00828592
62	0x3e8e081a	0.27740556
63	0xbd6548c3	-0.055977594
64	0x3f4ad389	0.7922903
65	0xbf814ea0	-1.010212
66	0xbf3a4d46	-0.7277416
67	0xbf117aea	-0.56828177
68	0xbf03b526	-0.51448286
69	0xbee05a82	-0.43819052
70	0xbed155c4	-0.40885746
71	0xbf86d4fd	-1.0533749
72	0x3f7b6447	0.98199886
73	0xbe86e180	-0.26343918
74	0xbdb5d19a	-0.08877869
75	0xbf7bf103	-0.9841463
76	0xbf755cfb	-0.95845
77	0xbe953a50	-0.2914605
78	0x3eb12ee3	0.34606084
79	0x3ecdb93e	0.4018039
80	0xbc0b6062	-0.008506866
81	0x3ee552ad	0.4478964
82	0xbe2b5ed0	-0.16735387
83	0xbef8deed	-0.4860758
84	0x3ce07900	0.027401447
85	0xbef4e990	-0.47834444
86	0x3f42a8b4	0.7603867
87	0x3e2b30b3	0.16717796
88	0x3e8ffe40	0.28123665
89	0xbd400d52	-0.046887703
90	0xbe33e291	-0.17566897
91	0xbd15a22b	-0.03653161
92	0x3da8438f	0.08216011
93	0x3f1ee879	0.62073475
94	0x3eacf675	0.33781782
95	0xbeb4a926	-0.352853
96	0xbbe8ea66	-0.0071080206
97	0xbe528276	-0.2055758
98	0xbf44cc48	-0.7687421
99	0x3ee7ef91	0.45299962
100	0x3e079d3b	0.13243572
101	0xbed7c59c	-0.4214295
102	0x3f10590e	0.56385887
103	0x3f0f5a5a	0.5599724
104	0xbe761bb2	-0.24034002
105	0x3e9d5c9c	0.30734718
106	0x3e6f3ce6	0.23363075
107	0x3ebcf862	0.3690825
108	0x3f16f8f6	0.58973634
109	0xbe821c0f	-0.25412032
110	0xbf5645ce	-0.83700264
111	0x3e859464	0.26089776
112	0x3da78ff8	0.08181757
113	0xbd64c371	-0.05585045
114	0x3e7d8bde	0.24760386
115	0xbd20d161	-0.03926218
116	0xbf330740	-0.6993294
117	0x3eea9b3b	0.45821556
118	0x3ef76161	0.48316482
119	0x3dfae7a5	0.12251214
120	0x3ebbb90a	0.3666461
121	0x3ea3e181	0.32007983
122	0xbe24e6e3	-0.16103701
123	0xbcaaeb4d	-0.020864153
124	0x3f4124d7	0.7544684
125	0xbf77a50e	-0.9673623
126	0xbf10827e	-0.56449115
127	0xbe26be89	-0.16283621
128	0xbebfe8cb	-0.37482294
129	0xbdd18846	-0.1023107
130	0xbe76ce28	-0.2410208
131	0xbf614b88	-0.88005877
132	0x3f91f1dc	1.1401935
133	0xbe02e0c3	-0.12781052
134	0xbe6c32cd	-0.23066254
135	0xbe8e5b18	-0.27803874
136	0x3e5b0261	0.21387626
137	0x3e329068	0.17437899
138	0x3f279d95	0.65474826
139	0x3f3df080	0.741951
140	0xbdf5476d	-0.11976514
141	0xbe0f7077	-0.14007746
142	0xbbc34559	-0.0059591946
143	0xbf2fcefa	-0.68675196
144	0xba34dccc	-0.00068993564
145	0x3d72f30f	0.05931383
146	0x3ee1e65f	0.44121072
147	0x3db843e8	0.08997327
148	0x3ea54c54	0.32284796
149	0xbd9676cb	-0.07346877
150	0x3e70b7e0	0.23507643
151	0x3d646225	0.05575766
152	0x3e95cc39	0.29257372
153	0x3e8b50fc	0.27210224
154	0x3f1e6387	0.61870617
155	0xbf4635bd	-0.7742575
156	0xbe8dd4d4	-0.27701437
157	0xbef479d4	-0.47749197
158	0xbea6e255	-0.32594553
159	0xbd49a70b	-0.04923157
160	0xbe81fcb1	-0.253881
161	0xbea89582	-0.32926565
162	0x3f24a3ae	0.64312255
163	0x3e01c35f	0.12672184
164	0x3eaadfe6	0.33373946
165	0x3ed02752	0.40655
166	0xbd49c933	-0.049264144
167	0xbccfdee8	-0.025374845
168	0x3f26d611	0.6517039
169	0x3efca2b8	0.49342895
170	0x3ece6e37	0.40318462
171	0xbf171ba7	-0.5902657
172	0xbef9e45d	-0.4880704
173	0xbea97b03	-0.33101663
174	0x3d877c37	0.06615489
175	0xbec1af24	-0.37828934
176	0x3f004b7e	0.5011519
177	0xbf415dcb	-0.7553374
178	0x3f259931	0.64686877
179	0xbd574322	-0.052554257
180	0x3f643759	0.89146954
181	0xbe8d1050	-0.27551508
182	0xbe0b86bd	-0.13625617
183	0x3edc3d63	0.43015584
184	0x3e676dd7	0.22600494
185	0xbeaf6c75	-0.34262434
186	0x3d39724b	0.045275014
187	0xbed5d98e	-0.41767544
188	0x3e8c9fd2	0.27465683
189	0x3cca063f	0.024661181
190	0xbf0ff767	-0.5623688
191	0xbe37cab2	-0.17948416
192	0x3ea5d12e	0.32386154
193	0xbe025b3b	-0.12730114
194	0xbec59cd5	-0.38596216
195	0xbf01b241	-0.5066262
196	0x3d2c9b68	0.042140394
197	0x3f041c3f	0.516056
198	0x3ed50a3d	0.41609374
199	0x3f9a974a	1.207742
200	0xbf1f53bf	-0.6223716
201	0xbf01c961	-0.50697905
202	0xbea67bc1	-0.32516292
203	0xbf3f4119	-0.74708706
204	0xbe7bec36	-0.24601826
205	0xbd9f6d21	-0.077844866
206	0x3d890742	0.066908374
207	0x3edd29d8	0.43195987
208	0x3e31f202	0.17377475
209	0xbc3ec827	-0.0116444
210	0xbeb294a4	-0.3487903
211	0xbc8f6818	-0.01750569
212	0x3eedcfcc	0.464476
213	0x3f5bbc0d	0.8583382
214	0xbda1b178	-0.078951776
215	0xbf13213e	-0.574726
216	0xbdbc836b	-0.092047535
217	0xbe31987b	-0.17343323
218	0xbe345214	-0.17609435
219	0x3f3dcd0e	0.74141014
220	0x3e4990bd	0.1968412
221	0x3e00e35d	0.12586732
222	0x3e83f88f	0.25775573
223	0x3ec824cf	0.39090583
224	0xbea244dc	-0.3169316
225	0xbee97823	-0.4559947
226	0xbd96c7db	-0.07362338
227	0xbd897ea3	-0.06713607
228	0x3ecc8a43	0.39949235
229	0xbda60602	-0.08106615
230	0xbdcff1c4	-0.10153535
231	0xbd93c20a	-0.072147444
232	0x3e814e2f	0.25254962
233	0x3e772d86	0.2413846
234	0xbdd60f3e	-0.10452126
235	0x3ee24858	0.4419582
236	0x3fbcf041	1.476082
237	0xbec71fc8	-0.38891435
238	0xbe816b3f	-0.25277135
239	0x3e8bab3f	0.27279088
240	0xbd7a4523	-0.06110109
241	0xbf39a4aa	-0.7251688
242	0xbf0a7937	-0.5409121
243	0xbdac4884	-0.08412269
244	0x3d5393cc	0.051654622
245	0xbe5f92d4	-0.21833354
246	0x3ec32dd4	0.38120902
247	0xbdd929ea	-0.106036976
248	0xbcf10ecb	-0.029426
249	0xbdf18457	-0.1179282
250	0xbcd65294	-0.026162423
251	0xbec9015e	-0.39258856
252	0xbe141240	-0.14460087
253	0xbe01efc4	-0.1268912
254	0xbe328e10	-0.17437005
255	0xbec7c1d3	-0.39015064

rnn.bias_ih_l0 f4 [60]
0	0xbd15d589	-0.036580596
1	0x3f39ee27	0.72629017
2	0xbf5b1615	-0.8558057
3	0xbe0a57a3	-0.13509993
4	0xbeff27b4	-0.4983498
5	0xbed027b6	-0.40655297
6	0xbf18a634	-0.59628606
7	0xbf47dde3	-0.7807295
8	0xbeae2fe7	-0.34020922
9	0xbf98bef7	-1.1933278
10	0xbf34d7be	-0.70641696
11	0x3ea3da81	0.32002643
12	0xbf27cbc8	-0.6554532
13	0xbf99d9e6	-1.2019622
14	0xbfaf188e	-1.3679368
15	0xbf96edf0	-1.1791363
16	0xbbc97eda	-0.006149155
17	0xbf30a49b	-0.6900117
18	0xbe754064	-0.23950344
19	0xbf17764d	-0.5916489
20	0xbf893922	-1.072056
21	0xbf57dfed	-0.8432606
22	0xbefd0dc3	-0.49424562
23	0xbeaadd73	-0.33372077
24	0xbf46f88a	-0.7772299
25	0xbe8d8ae7	-0.27645037
26	0x3e7adee2	0.24499086
27	0xbef18f04	-0.47179425
28	0xbeae390b	-0.34027895
29	0xbf57559b	-0.84115
30	0x3ece9ee2	0.40355593
31	0x3f00b925	0.5028251
32	0xbd822c6c	-0.06356129
33	0xbe5fc248	-0.21851456
34	0xbd8b68eb	-0.06807121
35	0xbe9c29c5	-0.30500618
36	0x3e5dd7cb	0.2166435
37	0xbd94fc88	-0.07274729
38	0x3e6a572d	0.22884817
39	0xbe456c8c	-0.19279689
40	0x3b35bb63	0.00277301
41	0xbe9c34ac	-0.30508935
42	0x3dfba12a	0.12286599
43	0xbe739119	-0.23785819
44	0xbe538792	-0.20657185
45	0xbeb0d303	-0.3453599
46	0x3f8571d1	1.0425359
47	0xbf8112c8	-1.0083857
48	0xbdd22fea	-0.10263045
49	0xbf03ab6f	-0.5143346
50	0xbf1a4a16	-0.60269296
51	0xbf307edc	-0.6894357
52	0xbf52ecd5	-0.82392627
53	0xbf1f8d20	-0.62324715
54	0xbf495742	-0.7864877
55	0xbf28b538	-0.6590152
56	0x3f0b4967	0.5440888
57	0xbedcce55	-0.4312617
58	0xbf632587	-0.8872914
59	0xbfa5bb71	-1.2947828

rnn.bias_hh_l0 f4 [60]
0	0xbe92f230	-0.287004
1	0x3f1acad3	0.60465735
2	0xbf819401	-1.0123292
3	0xbec4aae4	-0.3841163
4	0xbf2e3293	-0.6804592
5	0xbefbf31a	-0.4920891
6	0xbf1b50fc	-0.6067045
7	0xbf8a6991	-1.0813466
8	0xbef939b1	-0.48676828
9	0xbf902e97	-1.1264218
10	0xbf45daa8	-0.7728677
11	0xbdd2fff3	-0.10302725
12	0xbe80699d	-0.25080577
13	0xbf85c8f4	-1.0451951
14	0xbf9d50bb	-1.2290262
15	0xbfaef210	-1.3667622
16	0x3e8b5f4f	0.27221152
17	0xbf835394	-1.0259881
18	0xbebbd6b0	-0.3668723
19	0xbe11cb95	-0.14237817
20	0xbf959d47	-1.1688622
21	0xbeef5e61	-0.46751693
22	0xbe8e9d20	-0.27854252
23	0xbd837487	-0.0641871
24	0xbf324276	-0.6963266
25	0xbe9ac95b	-0.30231747
26	0x3e808e2c	0.2510847
27	0xbe7bce7d	-0.24590488
28	0xbe17a2e4	-0.14808232
29	0xbf278578	-0.6543803
30	0x3e9b29b2	0.30305248
31	0x3e82860f	0.25492904
32	0xbdf3d501	-0.11905862
33	0xbcc5749d	-0.024103457
34	0xbe64023a	-0.22266474
35	0xbe8a6c83	-0.27035913
36	0x3e81f3eb	0.25381407
37	0x3e7b9d89	0.24571814
38	0x3e68a891	0.22720553
39	0x3e665f44	0.22497278
40	0x3e63f12d	0.2225997
41	0xbd0fbab7	-0.035090175
42	0x3e48fee8	0.19628489
43	0x3e25d28b	0.16193597
44	0xbe1ab7b0	-0.15109134
45	0xbd98404e	-0.0743414
46	0x3f7e1e65	0.9926513
47	0xbf994d95	-1.1976801
48	0xbe7d12aa	-0.24714151
49	0xbe8314fd	-0.2560195
50	0xbedb49ca	-0.42829734
51	0xbf652d3c	-0.8952215
52	0xbf8ed929	-1.1160022
53	0xbf1b3f24	-0.6064322
54	0xbf92fd77	-1.1483601
55	0xbf85cced	-1.0453163
56	0x3ec0774e	0.37591022
57	0xbf24eea1	-0.6442662
58	0xbf8a8c08	-1.0823984
59	0xbfa3371d	-1.2751194

fc.weight f4 [1, 15]
0	0x3ead67f4	0.33868372
1	0x3ec60cae	0.3868155
2	0xbd993961	-0.07481647
3	0xbe516b5d	-0.20451112
4	0xbec2ebcd	-0.38070527
5	0xbe7769c6	-0.24161443
6	0x3e63c24d	0.22242089
7	0x3e9140d8	0.28369784
8	0x3ed0ca1b	0.40779194
9	0x3cf63f6d	0.03005954
10	0x3e52dd9b	0.20592348
11	0xbf24b552	-0.6433917
12	0x3e6048d6	0.21902785
13	0xbda6064d	-0.081066705
14	0xbe06f085	-0.13177688
