checkpoints/with_NUE/nonlinear_signals_model_weights_3.pth (torch_old, 5349 bytes, 5 tensors)

rnn.weight_ih_l0 f4 [60, 1]
000000 9f de 73 3d 42 70 dd be 23 e6 99 be 36 a3 f3 be
       0.05953848 -0.43249708 -0.30058393 -0.47585458
000010 97 23 03 bf 1c c4 f4 be e8 fd a0 3e ff 80 c6 be
       -0.5122618 -0.4780587 0.31443715 -0.3877029
000020 fe 7a 17 bf 5f fd 00 bf 85 7f 04 bf 64 4c b1 bd
       -0.59172046 -0.50386614 -0.5175708 -0.086571485
000030 29 84 3e bf 44 eb 9e bc 75 96 eb 3e 9a af ac 3d
       -0.7442041 -0.019399293 0.46013227 0.08431931
000040 bf fa 07 bf 2a bc a9 be 78 f0 01 bf 36 81 f4 be
       -0.53116983 -0.3315137 -0.5075755 -0.4775483
000050 75 cf ec 3d ce 28 64 3c 13 98 c0 be d1 b1 28 be
       0.11563007 0.013925744 -0.37616023 -0.16474082
000060 6a 32 c5 be ce 97 88 be 6d 0f bc bc 8e 53 78 be
       -0.38515025 -0.26678318 -0.022956574 -0.24250624
000070 58 00 fe bd b4 dd ca 3e 2b c6 5b be 7f 65 0c bd
       -0.12402409 0.3962227 -0.21462314 -0.03427648
000080 1f 38 5a bd b7 ad 8a 3e e6 16 f2 3e a0 67 da 3e
       -0.053276177 0.2708566 0.47283095 0.42657185
000090 5b 95 ed be 77 3d e0 3d c2 8c a9 be 25 63 fb bd
       -0.46403012 0.109492235 -0.33115202 -0.1227477
0000a0 9d 15 63 3e 55 67 1f 3f bb 1e 96 be cd 88 39 3e
       0.22176214 0.6226705 -0.2932032 0.18118592
0000b0 74 97 63 bf cb 21 1b bf a9 61 3d bf 64 0c 00 bf
       -0.88902974 -0.6059844 -0.7397714 -0.50018907
0000c0 91 22 24 bf 9c 94 5e bf bc 90 31 bf 82 d1 1c 3f
       -0.64115244 -0.8694551 -0.6936147 0.61257184
0000d0 02 6a 01 bf d3 2f c3 be 98 49 a7 be b1 c6 a8 be
       -0.5055238 -0.38122424 -0.32673335 -0.3296409
0000e0 e0 0c 06 be 5d 8e 12 bf e9 3a 96 3d 87 f8 44 3f
       -0.13090849 -0.5724848 0.07335455 0.7694172

rnn.weight_hh_l0 f4 [60, 15]
000000 5f 51 1e bf 93 46 cc 3e e3 9f f7 bd 99 10 9c 3e
       -0.6184291 0.39897594 -0.12091043 0.30481413
000010 b0 84 d1 be 27 8f 63 be dd 17 04 be 21 95 43 be
       -0.40921545 -0.22222577 -0.12899728 -0.19099857
000020 04 02 b8 3e 25 21 3a 3e d4 1f e2 be 8a ca f9 3c
       0.35939038 0.18176706 -0.44164908 0.030492086
000030 4f 38 b9 3e 39 0d 71 3e 0b 72 b2 bc 1b 0a b1 be
       0.36175773 0.235402 -0.021782896 -0.34578022
000040 03 32 0c 3f 49 e0 bc 3c 25 2b 4a 3e ae ae 91 3e
       0.5476381 0.023056166 0.19743021 0.28453583
000050 37 1c ef 3d c3 af 85 bd 30 78 80 be 22 69 f2 3d
       0.116753034 -0.065276645 -0.25091696 0.11836459
000060 85 77 61 bc 63 64 f8 bd 64 60 20 3e 93 ea e3 bd
       -0.013761406 -0.12128522 0.1566177 -0.11128726
000070 32 19 19 be e2 69 71 bd 80 2f 07 3f 33 b0 76 bf
       -0.14951017 -0.05893887 0.52806854 -0.9636261
000080 67 d4 a7 3e 5a 92 78 be de 2a e8 be 41 44 8d 3e
       0.32779238 -0.24274579 -0.45345205 0.27591136
000090 13 07 ce 3e 31 93 26 3e 6e de f6 be 43 5e 4f bd
       0.40239772 0.16267087 -0.48216575 -0.050627004
0000a0 54 95 b8 3d ae 5c 22 bf 54 26 12 3e 5c ed c4 3d
       0.09012857 -0.6342267 0.14272434 0.09615585
0000b0 19 ad 67 3e 44 0c 80 3d fe 62 08 3f de 13 41 3e
       0.22624625 0.062523395 0.5327605 0.18855235
0000c0 2a 6a 33 3e 2c 51 74 3e 85 69 f5 3d 0f fa fb bc
       0.17520967 0.2385909 0.11983017 -0.030758886
0000d0 ef 80 0b be 94 fc 44 3d 2d 4f 75 be b0 e2 00 be
       -0.13623403 0.04809244 -0.23955984 -0.12586474
0000e0 c8 8d 97 3e 76 87 30 be 77 44 09 be 15 0c a0 3e
       0.29600358 -0.17239174 -0.13405024 0.31259218
0000f0 ca 28 12 be 61 db 97 3e e4 cb 76 bd e5 08 68 3f
       -0.14273372 0.2965956 -0.06025304 0.9063857
000100 14 1c 06 bf 4c 93 1f bf 14 88 ae be dc 8b 9c 3e
       -0.52386594 -0.6233413 -0.34088194 0.30575454
000110 a7 0b 82 3e b7 cf 6a 3d 45 b9 8a bd 51 47 db be
       0.25399515 0.057327 -0.067736186 -0.42827848
000120 08 9d 36 3e f0 6e 8b bb 23 27 24 3f bb be 1f 3c
       0.1783334 -0.004255168 0.6412222 0.0097500635
000130 61 dd 27 3e 4b 52 5b bd bc 52 50 3e db 4f 04 bf
       0.16393043 -0.053545278 0.2034406 -0.5168435
000140 89 48 c3 3d e8 e0 8f 3e 1e 10 6d be a0 f8 d8 3d
       0.09535319 0.28101277 -0.2315068 0.105942965
000150 32 44 94 3e fa 5c a3 3c c8 81 96 be ff 35 0d 3f
       0.2895828 0.019941796 -0.2939589 0.55160517
000160 39 bc 70 3d 16 1f 04 3d 5c a2 03 3d 41 93 e4 bc
       0.058773253 0.03225621 0.03213726 -0.027902247
000170 74 90 81 bd 61 72 e9 bd a6 6d 8c 3e a2 8d a0 be
       -0.0632638 -0.11398769 0.27427405 -0.31358057
000180 ed 0f 3e be 8c 8e e0 3e e9 16 2b 3e e3 52 85 be
       -0.18560763 0.43858755 0.16707958 -0.260398
000190 18 c8 59 3e 44 8f c1 3e 21 9c 72 3d 3a a7 f9 3d
       0.21267736 0.37804615 0.059230927 0.12190099
0001a0 2a 00 d5 bd 7a d5 1a 3f ca b6 83 bf b3 6c 51 3e
       -0.10400422 0.6048199 -1.0290158 0.20451622
0001b0 5f 18 c6 be 52 7f c2 be 05 54 ea 3e a6 b7 09 3f
       -0.3869047 -0.37987763 0.45767227 0.5379585
0001c0 35 3e 53 bd 70 64 c9 be 30 38 53 be 4b 94 d0 bd
       -0.051572997 -0.3933444 -0.20626903 -0.10184535
0001d0 c7 6a b1 be 2c 40 e8 3d 9a 2a 6f be ce c5 44 3f
       -0.34651777 0.11340365 -0.23356095 0.76864326
0001e0 46 36 fb bd 97 7d 2a be 47 1d 9f be 47 84 e4 be
       -0.12266211 -0.16649471 -0.31077024 -0.4463217
0001f0 0e ee ed be ae d6 bb be e3 90 aa 3e 52 6b e4 3d
       -0.46470684 -0.36687225 0.33313665 0.11153282
000200 31 78 b3 3d c6 bd 1c 3e 2c 29 38 3e 41 ad 73 be
       0.08763159 0.15306768 0.17984456 -0.2379656
000210 83 eb 7b 3d b0 8b 2b bd 69 e7 3b 3e d6 dc 09 3f
       0.0615039 -0.041881263 0.18349995 0.53852594
000220 ba ef f5 be 45 0c 01 3e 5a c8 05 3c 0f 2d b4 3a
       -0.4803446 0.12602337 0.008165443 0.0013746339
000230 76 4e b3 3e f3 ab cf 3e a1 9f c0 3d a8 04 36 bf
       0.35020798 0.40560874 0.09405447 -0.71100855
000240 a9 4b da be 3b e2 4c 3e f6 ad 1f 3e c7 ec 4d be
       -0.4263585 0.20008175 0.15593705 -0.20109855
000250 8b eb 7f bd 14 7e c9 3e 77 ee 01 3e 1e 75 45 bf
       -0.06248049 0.39354002 0.12688623 -0.7713183
000260 c5 68 a3 bd 1b df e7 be 32 f3 19 bf 39 e8 bf 3e
       -0.079789676 -0.45287403 -0.6013671 0.3748186
000270 d8 a0 87 3e b6 d2 b2 3d 55 d2 f7 3c 82 a1 19 be
       0.26489902 0.08731596 0.030251661 -0.15003017
000280 a1 0e cf 3e f7 27 98 be 3b 22 21 3f b9 b8 a8 bd
       0.40440848 -0.2971799 0.62942857 -0.08238358
000290 c4 30 1c 3f c6 94 9a be df 49 8c 3d 1e d2 06 3d
       0.6101191 -0.3019163 0.06850027 0.032915227
0002a0 a1 e3 ed 3e 84 5e 2b bf b5 e5 a2 be 19 1d 07 be
       0.4646273 -0.66941094 -0.31815878 -0.13194694
0002b0 f9 5e 5a 3c 42 ea a1 3e 7e 2d d3 3c 15 e2 24 be
       0.013328307 0.31624037 0.025778528 -0.16101868
0002c0 ee 4d ac be 3b b8 a9 3e fa 52 7f be 05 b4 fe 3d
       -0.33653206 0.3314837 -0.24933997 0.1243668
0002d0 36 10 d9 3e f7 e5 a2 be 98 c9 13 3e bc d3 97 3d
       0.4239518 -0.31816074 0.1443237 0.07413432
0002e0 33 ee b8 be 9f 1f fe bd 38 b5 17 3e ba d1 cd 3e
       -0.36119232 -0.12408375 0.14815223 0.4019907
0002f0 92 19 f4 be dc 23 11 be 1a b7 db 3e 5a 28 04 be
       -0.4767576 -0.14173836 0.42913133 -0.12906018
000300 11 90 8c be c0 62 9d 3e 6b ed 80 3e 5a aa c8 3e
       -0.27453664 0.30739403 0.25181136 0.39192468
000310 f1 b2 b9 bf f1 a9 ce be db c7 d3 bf 90 90 27 be
       -1.4507734 -0.4036403 -1.6545366 -0.1636374
000320 2d af 04 be 06 7b 40 3f 7e 2b 19 be 21 2d 76 be
       -0.1295745 0.7518772 -0.14957997 -0.24040653
000330 0a e6 03 bd b8 35 8f 3e 80 20 35 bf ae ff dc 3e
       -0.032201804 0.27970672 -0.70752716 0.43163818
000340 89 ed 9e 3e 64 cc 98 3d eb 09 4c bf db 1c cf 3e
       0.310406 0.074608594 -0.79702634 0.40451702
000350 f6 19 84 3e 8d a2 5f 3f 08 79 c8 bd d7 85 20 bf
       0.25801057 0.8735741 -0.0978871 -0.62704223
000360 46 14 ef be 4d f3 92 3d d6 41 08 3f 07 4d ee 3d
       -0.46695155 0.07175312 0.5322546 0.116357855
000370 a4 b1 e5 3a b7 3b 0b 3f 3e 48 f5 bd 17 c5 c0 bd
       0.0017524255 0.5438799 -0.1197667 -0.09412592
000380 5d e8 cc be cc 6a 00 bf 25 97 a1 3e d0 a1 89 be
       -0.4002103 -0.5016296 0.31560627 -0.26881266
000390 33 5d aa 3e 14 64 bb be 4d 0a 47 bc f2 ce 26 be
       0.3327423 -0.3659979 -0.012148452 -0.16289881
0003a0 a8 4e 49 3c f6 d8 b7 3e 98 af 8b 3e 99 b8 3e be
       0.0122868195 0.35907716 0.27282405 -0.18625106
0003b0 d8 14 55 be 09 90 36 3f 05 65 a0 3e 93 83 57 3e
       -0.20808733 0.7131353 0.31327072 0.21046285
0003c0 f6 b0 17 3e 64 15 f2 bc 55 2a 13 be 7b 31 5c 3e
       0.14813599 -0.029551215 -0.14371617 0.2150325
0003d0 5d 36 df 3e 82 32 83 bd 10 08 d8 be 08 58 75 bb
       0.43596163 -0.06406118 -0.4219365 -0.0037436504
0003e0 8a 5f b7 be c1 da 76 be 9d 0f f6 bd 5f da 02 3e
       -0.35815078 -0.24106885 -0.12014697 0.12778614
0003f0 32 80 0f be a1 58 d8 3d f4 5a f6 bc 41 79 0d 3f
       -0.14013746 0.105637796 -0.030072667 0.55263144

rnn.bias_ih_l0 f4 [60]
000000 30 c7 db 3e 9b a5 f7 3d 6d 88 39 bf 72 2f 87 bd
       0.42925406 0.120921336 -0.72473794 -0.06600846
000010 7f b8 51 be e4 43 39 3d de a0 03 bd 95 db 44 bf
       -0.20480536 0.04523076 -0.032135837 -0.76897556
000020 19 bd b2 3c f4 23 15 bf e0 c0 c1 be fe 37 6b 3e
       0.021818684 -0.58257985 -0.37842464 0.22970578
000030 ed 02 9c be 77 8d 70 be 90 9a 9e 3e 65 00 5a 3e
       -0.30470982 -0.23491465 0.30977297 0.21289213
000040 39 ae 02 bd 00 a7 25 bf e3 fb 8e bd 37 80 fb be
       -0.031904433 -0.64707947 -0.06981637 -0.49121258
000050 d4 c4 95 3e fb ed e7 be e5 2d ee be ef 10 61 be
       0.2925173 -0.45298752 -0.4651939 -0.21979116
000060 cf d6 c3 bd b2 b3 99 be 5b 15 07 bf 56 1f 9f be
       -0.09562456 -0.3001991 -0.5276696 -0.31078595
000070 b0 e1 f8 3d 0c a8 d0 be a5 d8 09 bf b1 4b f4 3e
       0.121524215 -0.4075321 -0.538462 0.47713998
000080 97 cb 8f 3d 73 9e 92 3e cd d4 08 be 0f eb 43 be
       0.070212536 0.28636512 -0.13362427 -0.19132636
000090 88 3d 61 bd a6 43 7f bd b2 0a e1 3e 56 8c 9c 3d
       -0.05499032 -0.062320374 0.43953472 0.076439545
0000a0 af 1c 1f bd ed 48 8f be 2d 8c 62 3d c8 ac 87 3d
       -0.038845714 -0.27985325 0.055309463 0.06624752
0000b0 77 d8 bb 3d 34 d9 df bd 51 80 4c be 10 56 30 bf
       0.09172147 -0.109301 -0.19970824 -0.6888132
0000c0 72 36 aa be 08 3f 5f be e1 08 0b bd 10 48 d9 bd
       -0.33244663 -0.21801388 -0.033944014 -0.10609448
0000d0 b2 3c 28 bf 8d 75 8a 3e 9c 45 2a bf 2b ce c3 bd
       -0.65717614 0.2704281 -0.66512465 -0.09560808
0000e0 1d eb b5 3e b8 d6 12 bf 1a ed 0c be 20 64 7c 3e
       0.3553094 -0.57358885 -0.13762322 0.2464757

rnn.bias_hh_l0 f4 [60]
000000 71 d9 1f 3f 61 d5 28 3e df 18 80 be 57 57 1f be
       0.62441164 0.16487648 -0.25018975 -0.15560661
000010 13 6d 06 be b6 46 26 be d9 2c 9b be 65 57 eb be
       -0.13127546 -0.16237912 -0.30307654 -0.45965114
000020 8e ef ce bd ed c6 0e bf cd 5f 4d be a8 5d 72 3d
       -0.10104285 -0.55772287 -0.20056076 0.05917135
000030 16 ea f2 be 6a 22 db be cc f4 01 3f d3 25 ee 3e
       -0.47444218 -0.42799693 0.50764155 0.46513233
000040 b9 50 8a be 89 fe 10 bf ba 3b 2c be fe 68 04 bf
       -0.27014711 -0.5663839 -0.16819659 -0.51722705
000050 ae e0 3f 3e ca 86 bb be ce 4d 46 be dc 1c 82 ba
       0.18738052 -0.36626273 -0.19365618 -0.0009926814
000060 83 b3 c6 be 6e 2f 85 bd a1 a3 14 bf f0 3a cc be
       -0.38808832 -0.06503187 -0.5806218 -0.39888716
000070 b2 7b 23 be ae 72 de be 10 91 26 bf a6 f5 cd 3e
       -0.15965155 -0.4344687 -0.650651 0.40226477
000080 2d 6c 25 bd 8c 3a b9 3e d3 0e 0b be ed cb a4 be
       -0.040386368 0.3617748 -0.13579874 -0.32186833
000090 a0 39 02 3e 78 13 78 3e a5 ca e0 3e a6 66 99 3d
       0.12717295 0.24226177 0.43904606 0.07490282
0000a0 60 ff f2 bd 8b e9 40 bd b3 4e a3 3d 1f 01 4c bc
       -0.11865115 -0.047097724 0.07973995 -0.012451439
0000b0 a5 03 9b 3e 0f e9 84 3e 92 ee 80 be 2e c4 01 bf
       0.30276218 0.2595906 -0.25182015 -0.5068997
0000c0 f9 ca 9f be 38 0b 2f be 7c 0c c6 bd 86 58 d6 be
       -0.31209543 -0.17094123 -0.0967035 -0.41864413
0000d0 3e 24 48 bf cb 3c 9a 3c cc d5 83 be 66 97 83 be
       -0.781803 0.018827816 -0.25749052 -0.25701445
0000e0 bc df 14 3e ff 0a 1a bf 5c 5e c7 be 90 40 3c 3e
       0.14538473 -0.6017303 -0.38939178 0.18384004

fc.weight f4 [1, 15]
000000 20 3c e2 be e7 1d ac 3e df 2c e6 bd e7 8b 91 3e
       -0.44186497 0.33616564 -0.11239027 0.2842705
000010 d5 79 94 be 9c dd a3 be cb c1 43 3e 62 c5 96 bc
       -0.289992 -0.32005012 0.19116895 -0.018404666
000020 d8 b5 b9 3e 37 08 f8 3d 56 9b a9 bd f4 01 8a be
       0.36271548 0.12110942 -0.08281581 -0.26954615
000030 84 82 cf 3d ac 8c 44 3e cb ff 39 3f
       0.10132316 0.19194287 0.72655934
